model_checkpoints/cnn_large.pth (torch, 745373 bytes, 12 tensors)

y_convs.0.weight f8 [16, 10, 9]
00000000: 2d71 d356 04f5 9bbf 7ef7 79f4 6b8c 94bf
00000010: 21ff aa83 39bd 993f 7143 8929 9180 92bf
00000020: 2cba 7c45 39ec b63f bd1a d407 a180 7bbf
00000030: 20d5 c923 2bfb b0bf 4bb3 2840 e3e0 5b3f
00000040: c55b e3cf ed0f a63f b65a 2f4b 0386 b03f
00000050: 1a1a 96b3 d393 c1bf b526 e2ab be4e b5bf
00000060: d2ee 2f51 5cd1 acbf c053 00dc a737 9a3f
00000070: 5334 70f1 1c9b 943f b97d 9ba5 55f8 833f
00000080: 5853 7df6 02e5 b13f 07a1 eefb 81a3 823f
00000090: 1933 ca7d 27e2 b5bf 2cbf 4820 5315 a5bf
000000a0: 4495 ece5 3edc b13f f0e5 6ed2 3a2d b23f
000000b0: d49c a45b eb8c a5bf 77d2 2899 6841 b33f
000000c0: 0772 c389 a795 adbf cacc e106 5e7d b1bf
000000d0: ab03 38ad 28c3 6e3f bad3 1b9f 7cac b33f
000000e0: 9b01 92c9 4bf1 9bbf 278e 4c47 4ff4 81bf
000000f0: 53e6 a86e b557 af3f 6e14 5d42 7238 adbf
00000100: 27ab d931 c83e 68bf 8098 71f2 0869 ad3f
00000110: 002d a71e 4a29 b13f d6cf 3b01 d4ad b1bf
00000120: 4c6a 4e49 882b 863f 4f70 88b5 6abc 9ebf
00000130: 7f42 7147 e69d b2bf 7e8d 6b3f 2bbd 96bf
00000140: 08fc fe5b 92cb a83f 160c 7623 8d0d b23f
00000150: f7e4 39ed d950 aabf 318a 4aae b17e acbf
00000160: 3150 6824 9ee1 b33f c428 8dc7 d907 943f
00000170: 0954 befa 6b56 973f 1f06 8ae5 174a 9dbf
00000180: b824 2d30 e0de b13f cf86 2833 f242 aa3f
00000190: 4041 59a1 00f9 943f bf6a 9167 37f5 a93f
000001a0: 53f6 6c57 96a4 933f 3d51 7be0 33c5 a8bf
000001b0: 8de0 4002 5943 b0bf f9fb 571e a7b9 9a3f
000001c0: a4e3 cdbe 4e6d 963f 273c e46b 7ef5 b53f
000001d0: e5dc 4211 3386 b8bf 4f78 9540 60ab b43f
000001e0: 6c49 595d 9efc a33f 276c 0bdc 5102 99bf
000001f0: 3bb6 4b13 fa48 b7bf e24e da20 88bd b43f
00000200: e96b 52d5 951b 733f 6a50 1c07 1d4f a3bf
00000210: 6e3c 225a fc48 b1bf b5b5 e6ce 45fa a53f
00000220: b432 90da e712 9a3f 585c 02d0 b889 c5bf
00000230: 3e10 6d65 d2fd 90bf a527 aa44 d847 a63f
00000240: e2b0 6dbc 45f8 b33f df67 93c6 eda6 b7bf
00000250: 8159 3b36 f86c b03f bc93 3b7d b8b9 b6bf
00000260: 3852 d847 993c be3f b099 ebbe 8b2b aebf
00000270: d56f 85ce b7fc b1bf 4e99 a7ed 7c5e b8bf
00000280: efcd 607b 3230 a83f cb0f d696 e344 833f
00000290: ef6f d84f 749f a6bf 09af e611 841b 9e3f
000002a0: 2fa4 2b13 014d cc3f 56b1 2ca9 5390 d53f
000002b0: 25d4 00c7 37a0 d83f 8bf3 ff4a e64f bb3f
000002c0: 727a 855e 03fb b33f 79e4 7cb7 75a9 ab3f
000002d0: 6dcc 83dd a05f 8abf 9b0b 9ce9 b7ba b7bf
000002e0: c50d 7e0f a178 a1bf 374f 6a22 58d8 78bf
000002f0: 9c9b 3698 86d8 b3bf fcc3 8d48 21df c0bf
00000300: 0971 05ec 708f 66bf 1396 7120 1758 bbbf
00000310: a5b8 b0af f325 a9bf b569 28e5 4099 943f
00000320: 60b8 c45c 1e04 babf 8b32 3aa7 9392 923f
00000330: fb2f d2f5 de14 c4bf 2885 27a9 6466 98bf
00000340: 2995 9cc8 69e4 a7bf 1d96 470d f6d6 aebf
00000350: 1493 b4e0 6444 ac3f a388 4131 7c2a c0bf
00000360: dd8d 2002 965b ad3f 0b8c 611d 6e57 b33f
00000370: fbc5 be49 86ff a7bf 5803 de99 ae04 bb3f
00000380: 1beb d43c d2d0 b5bf a581 eb04 9709 99bf
00000390: ffbc eff5 529a b2bf 626c f3dd 78a7 a43f
000003a0: 65a6 b5bc 1bdb 893f 15e8 b73c 2ed5 a53f
000003b0: 369b 6ed1 a110 b2bf 17a0 efbe 84fc a4bf
000003c0: 72e3 76b4 6b95 74bf 382e f4ca 8770 c5bf
000003d0: 174b 7315 2701 babf 3667 6f5f c138 c1bf
000003e0: 14ec b001 d76a 5b3f b3cd a347 31a4 90bf
000003f0: 90cb 3346 e7f6 b4bf 5adf 7821 56c5 a03f
00000400: 50ba 0b3b dada 903f f376 c6bf 0683 adbf
00000410: defb 7f76 ca3f b9bf fe2b f22a afdb b4bf
00000420: c00d 2454 2c30 08bf 79a7 51fc f591 b3bf
00000430: 57ac f405 5f5c 803f 6166 d57c 04ef a8bf
00000440: 9384 f6c7 9dfc 96bf bdcb ec85 c9e2 b8bf
00000450: 4aa1 d9cf 5fc7 b4bf 261e 4b90 74ef cfbf
00000460: b02c 0d53 2516 b8bf 9c43 945a 3d79 c0bf
00000470: 0586 3851 aafc aabf bfa9 5e80 8f70 c2bf
00000480: 0945 e3f8 e5b8 afbf f888 5066 bc69 a8bf
00000490: d0eb 62a8 1fcc 99bf 7805 0ae9 0f2e a63f
000004a0: 2c23 8e39 abe9 adbf 466b 2bbe 0763 6d3f
000004b0: 019d 9d9f 47b5 9c3f ee33 d0e2 0c14 b33f
000004c0: 0084 4d1b 1bac 90bf 24b3 4784 4f6e 7cbf
000004d0: 0b52 4e6f 157c b83f b008 5a75 bf55 b23f
000004e0: 5162 228f 1d4c 97bf 651a 081f 9f85 93bf
000004f0: 4e2d 9a53 1a68 abbf 7ab2 8216 76dc b23f
00000500: 1318 3086 a904 aebf d4ca bfa9 d9ad b9bf
00000510: 7241 d5c8 6db8 9a3f 2e02 2b13 3265 9ebf
00000520: aa1c 7979 257b a73f 2040 bd55 b758 b1bf
00000530: 188b f7c3 9e8c a2bf 8676 ff3e 0e1a a13f
00000540: fa6c cd71 5d14 b13f ff39 3c88 b586 6b3f
00000550: bef9 a449 b932 ae3f 9e2f 7c98 9161 c03f
00000560: 2191 f0d7 c2a0 c23f 6196 aea4 bb79 d23f
00000570: c9f4 661f 05ba cd3f f138 6d1a d51e 83bf
00000580: 6c28 8de3 f348 9dbf 10fc 5dd5 a4f5 94bf
00000590: 097a 5d43 6d7e cd3f 5c50 cc6b 89af d03f
000005a0: 75a4 03b9 8304 b53f 9e9c 0d14 bf00 aa3f
000005b0: 2e2b 35b6 06e7 abbf f0f8 09e4 650e 86bf
000005c0: 8818 d8e4 9dfe a4bf 6f57 eddf f8d8 8dbf
000005d0: 5130 a2e0 5744 61bf 3b7b 7ffa 0c21 a93f
000005e0: 0045 7e18 3d6e b1bf 8f1f f42a c796 3a3f
000005f0: 7915 beaa 5665 acbf 52a5 38cf d1be afbf
00000600: e4bf 6937 c0a1 adbf 9621 f6f7 7c28 ba3f
00000610: c7bd dbf2 2559 b33f 1a9b f8d8 7372 b4bf
00000620: a2b5 2367 00eb b33f ade6 9fb9 97ff ae3f
00000630: 91a5 a4dd baef 45bf aa7f 8919 dafe 893f
00000640: f347 b9b6 8c92 ae3f a4d1 b036 cb7d 9abf
00000650: 4273 df31 8bc5 7e3f f729 b4e2 8a23 a2bf
00000660: 7aba 0ca0 372f 593f cf16 4bba 4216 993f
00000670: c06c 0303 9f29 bebf eb2b eb96 80e3 ac3f
00000680: 7a16 05dc b934 aebf 79f6 805a e5b0 adbf
00000690: 689d 56ba a51c 9f3f a81b c3ec 5d9c b93f
000006a0: c9ea c4e2 c466 b0bf b78d c031 833f 923f
000006b0: 7bb4 06d6 7e7c a5bf 6301 ae4a 2648 be3f
000006c0: 5bb3 d35b f189 b8bf ee85 4ba6 d5c2 abbf
000006d0: 0a8c f2e4 f623 ac3f 72f9 f30e 4936 b23f
000006e0: d2c3 d8bd 7c61 b53f 8d10 5200 2519 b53f
000006f0: 31ed 4755 dfa2 a63f 078f f21b b203 81bf
00000700: 542e a26e 5747 b9bf b0e4 f588 6ce5 953f
00000710: 2dc7 9ad6 3967 9f3f e6f5 6196 0498 ae3f
00000720: 20e9 414b 69f3 b63f 2ff0 663b f442 b33f
00000730: 598f 5fe4 26f6 a43f 04c4 f382 3cb2 b3bf
00000740: a295 6365 a970 a73f b1bb 26fe ab56 893f
00000750: 966b b766 719c 6d3f 829d 3aa8 2e30 97bf
00000760: 9037 656a 5035 87bf 98f5 f003 da34 a7bf
00000770: 905a 8d4c 554e b33f 0dfa e639 9583 a63f
00000780: 6e95 7038 ea2a b23f 9fd8 df19 b342 b4bf
00000790: 5c78 81b7 277a 9dbf 2066 142e 736f aa3f
000007a0: 2ac5 f7b2 f3b9 af3f e8b4 a696 a593 85bf
000007b0: b2af 4f77 524d adbf f53a 9e1d b0cf b33f
000007c0: 592a 096e 065b babf 4dad beca 54b2 b6bf
000007d0: b63b 3d2d 79d6 b53f 6d53 5618 3e95 b23f
000007e0: e519 f040 5b0b 993f 63bd 3d13 6cf2 b7bf
000007f0: 25ed 2982 f0ba a03f 7c0e 0159 c09e 953f
-0.027301852988658105 -0.020066916271836537 0.02513589731347488 -0.0180685693360973 0.08954198786225537 -0.006714467073158201 -0.06633252738705098 0.0017015666241022183
0.043090278269736916 0.06454487405367612 -0.13732382077087452 -0.0832328004491057 -0.05628479472212934 0.025602934649288533 0.020122959362243908 0.009751004330097556
0.06990068929492332 0.009100928784235863 -0.08548209019700116 -0.041178319636286126 0.06976693261511452 0.07100265157250596 -0.04209075444878754 0.07521680583233513
-0.05778239781077237 -0.06831920307176911 0.003755168386988269 0.07685068974008305 -0.02728765886104299 -0.008766764987348697 0.06121603942706302 -0.05707127628424123
-0.0029596242955468757 0.05744197806852558 0.06703627823224068 -0.0690586569797341 0.010825218903666521 -0.030015628175633243 -0.07272185558509568 -0.02220599722467175
0.048428128938660164 0.07051927676916167 -0.051398096283216725 -0.0556540990121629 0.07766140354971253 0.019561198048258857 0.022790610484282357 -0.02860295618530106
0.0698070638292333 0.0512920081566911 0.020481119010868243 0.050698977844793706 0.019182538114583213 -0.048379536774208344 -0.06352764420523922 0.02609883425429513
0.021901350398795608 0.08577718862601157 -0.09579772159019091 0.08073999001268926 0.03903670205604012 -0.02442291169687052 -0.09095728846633559 0.08101702501363264
0.004664979254040504 -0.037712962263101016 -0.06751992416887884 0.042925054079528215 0.02546274444107395 -0.16826543957424422 -0.016593253555825742 0.04351688230697385
0.07800708627991385 -0.09239088151971896 0.06416274379748722 -0.08877137238921667 0.11811216358211929 -0.05892597871370542 -0.07026242057821659 -0.09519177248111996
0.04724271541672553 0.009408739128737317 -0.04418529009510041 0.029401839821431106 0.22109998165186215 0.3369340087981717 0.3847789233580577 0.10668792086648986
0.07804890687610014 0.054027250908299025 -0.012877709159942985 -0.09269284680708127 -0.03412345232120687 -0.006065696978698124 -0.07752267089982329 -0.13180938761391292
-0.0027539449221604157 -0.1068129018982165 -0.04911767501504131 0.020115865694700214 -0.10162534489492847 0.018137271005388683 -0.15688693049412436 -0.02382809908329367
-0.04666452955124562 -0.06023377334694777 0.055209305219511645 -0.12629654316976255 0.05733937049833646 0.07555282800016998 -0.046871372701740875 0.1055401921894491
-0.08521760926388959 -0.0244506451371095 -0.07266729835804496 0.04034021100388753 0.012624947258433392 0.04264206401053642 -0.0705662857350092 -0.040989063556310316
-0.005025311205309234 -0.1674966565118312 -0.10158008836451092 -0.13454453620834678 0.0016734218286405022 -0.01625134467844953 -0.0818924471275706 0.032755557619053646
0.016459855893965092 -0.05764027682310582 -0.09862962143959872 -0.08147711561666424 -4.613528519039787e-05 -0.07644593629961872 0.007988684052710733 -0.048698559034801255
-0.02244802983262113 -0.09721049804356503 -0.08116720985856776 -0.24949509664132669 -0.0940879180681573 -0.12869994089899428 -0.052708933272025894 -0.14406007545524166
-0.061957537299926875 -0.047681701173376057 -0.025192732479563607 0.04332017631260049 -0.05842337682321949 0.003587260363344144 0.028035277478378088 0.07452469384607216
-0.01628153185027159 -0.006941137897666736 0.09564336745672379 0.0716209088805353 -0.02275129495737566 -0.019064413327237868 -0.05352861662421536 0.07367647218297604
-0.05862931979213228 -0.10030899423854162 0.026094165213466032 -0.02968290559761238 0.04586140735460138 -0.06775995105022092 -0.03622909681486969 0.033401913824246995
0.06671699550991042 0.0033601327467132065 0.058980741729544914 0.12797756143151856 0.14553103965693828 0.28867999155258955 0.23223938020047388 -0.009336151951768264
-0.028598604930529722 -0.02046830704011532 0.2304207400256504 0.26071391608389205 0.0821001364416974 0.05078694457807241 -0.05449696516241996 -0.01076964952630674
-0.04100507181651475 -0.014573997815812338 -0.0021077839238099823 0.049080281809202174 -0.06808835838298322 0.0004057155847054733 -0.05546065172442644 -0.062002712770047666
-0.057874686016361726 0.10218030027147615 0.07557904414328852 -0.07987140700479892 0.0778045894437214 0.06054376736569842 -0.0006694471769936196 0.012693122772532057
0.05971183519854142 -0.02587049027734313 0.007512611131429038 -0.03542741792087505 0.0015371363844668682 0.024498980160180758 -0.11782258819168856 0.05642320482510129
-0.05899601755895119 -0.05799023370535123 0.030382718561353356 0.10004221945119574 -0.06406813179357153 0.017820405875807768 -0.0419654499304238 0.1182884151767261
-0.09585484020108252 -0.05422084479301846 0.05496188683289212 0.07114082922996603 0.08351878771715285 0.08241492517305656 0.04421136775996571 -0.008307830312623844
-0.0987448353864065 0.02138299547138861 0.03066721317617931 0.05975355468488512 0.08965166175213257 0.07524038744207993 0.040940490129087244 -0.0769384212214988
0.045781415583216814 0.012372344678480337 0.0036146368854423445 -0.02264473821437952 -0.01133215737049989 -0.04532510088072711 0.07541401976537032 0.04397264797033893
0.07096732976841277 -0.0791427553338928 -0.028786297393132862 0.051631545424424496 0.061965575787221575 -0.010535520229348852 -0.05723054605900248 0.07738781664941626
-0.10295143305226286 -0.08865861844849583 0.0853038535544631 0.07258976072473695 0.024457383955473495 -0.09354281873469499 0.03267623509324328 0.02111340087164003

y_convs.0.bias f8 [16]
00000000: 0834 5129 01e0 e4bf 7a1e 57e1 6706 d2bf
00000010: 51a3 e50f a11e d43f 3569 912d 47d6 b43f
00000020: 1f45 0362 35b0 b43f cf07 18dd 017d b73f
00000030: 2494 967f 91c9 a5bf a182 e220 b569 d13f
00000040: b844 0888 70a8 cdbf a492 4f67 5a41 e1bf
00000050: 363a 3688 1d0e c13f 5dd3 3e8a a4f0 d43f
00000060: 5b85 771c 75cf c6bf b79b b26d 2d8b aa3f
00000070: ac05 43d3 ac06 b03f 5645 ecb7 8f19 9f3f
-0.6523443037964407 -0.281640977915664 0.314369454883992 0.08139462339878352 0.08081372874155023 0.09175120971488514 -0.04255346949074859 0.27207687579542933
-0.23170286791040495 -0.5392276780881571 0.1332432665917211 0.3271876668980463 -0.17820609941467577 0.05184308971484291 0.06260185392149847 0.030370946503415062

n_convs.0.weight f8 [16, 4, 3]
00000000: 1d10 f2c6 9bad c33f e23c 565a 1fe6 d93f
00000010: 0d33 94bc e8ae adbf 346c 7731 643b d6bf
00000020: 39f4 92f9 a97a c93f 9f2e 9531 c1c8 d1bf
00000030: 412e 3cfb b095 aa3f 03c8 1835 5296 d9bf
00000040: 2693 ad84 3e19 da3f 4b5f 8e05 91dd ad3f
00000050: 7c1b 8750 4fe6 d6bf b25f 0a45 62a6 c9bf
00000060: fd28 b5dd 93c4 c33f 353e 8015 7021 dbbf
00000070: e30d 5185 629c cdbf 8685 3380 ed28 c93f
00000080: a8e1 101d 8235 d63f cb7f 891e 2435 c8bf
00000090: 3e30 ac80 317e c93f 0c84 9c1a ba63 aabf
000000a0: 3a8c f031 26d7 d7bf 715a f270 0e8c b3bf
000000b0: 142f 94c4 911b d63f a5b9 9e53 b4f0 bd3f
000000c0: 914f 6ebc dddb c5bf e278 59af 0cea 65bf
000000d0: 7aa1 12c3 19a5 c5bf 19b7 2420 78bb d23f
000000e0: 20a1 1863 f9e3 d03f 884a 5373 8614 b23f
000000f0: a119 f98e 5168 cdbf e67c d485 7c0f 7d3f
00000100: 2f85 9ba2 6b2e ae3f c43d 43c6 b05a b0bf
00000110: 66e1 d193 7ded d93f 011a cc9a dd28 d6bf
00000120: 3099 b468 207f bb3f d4e6 c3f4 ef2d ad3f
00000130: fcea 534b d7d4 d9bf e20a bd21 91c4 65bf
00000140: 6ec8 75dd 2900 e1bf 0fe9 0a25 2cfa 9ebf
00000150: 7433 f17f 6faf c53f ec96 39ca 1522 c33f
00000160: f060 c795 a32f d03f 0f95 a813 3dfe e1bf
00000170: 2fd5 5a6b ccd1 d03f 098c c431 8ee6 c33f
00000180: 2ce8 6c96 984d a6bf 4789 0c70 2854 96bf
00000190: 8c27 1c13 d46a d6bf bce1 db54 6d14 c0bf
000001a0: 847f eb8b fee0 debf 59bc 097b 106d cb3f
000001b0: d6bb e2c4 8208 a4bf f628 efe4 01d9 c63f
000001c0: 8cf9 9b79 d9b6 dc3f e8de fd49 adca c43f
000001d0: 797e 7ba9 fcda cb3f 26bc 4e5e 616d d2bf
000001e0: d847 574e d72a c9bf 8325 378f f8eb d4bf
000001f0: 8aa3 6c3e 0334 b53f 4179 bcaf f9bb d1bf
00000200: bdb6 39f0 b7ab d8bf 4e9c d06e 8c1a c73f
00000210: 01ff 0c7c 5b38 c3bf 8e3f 2d68 5b27 d33f
00000220: c11c 9ec7 2edd 9c3f d455 094d b9c3 da3f
00000230: a2f9 f962 a118 d9bf 61c2 890c dfca dbbf
00000240: b3f9 b3fb b583 cfbf 0e15 589a 820c c63f
00000250: b515 8a02 29df cbbf 5a69 28ef 345f d0bf
00000260: 04e5 5af8 04be cd3f 40d3 0a2d 30d0 e83e
00000270: 39aa 38fa a6d1 d2bf 9f0d cb55 059e e0bf
00000280: 1b5e 6d33 67f6 b33f 76a8 54d5 9dd0 dc3f
00000290: b3f9 caf6 f04d a53f 6edb afe0 b745 cebf
000002a0: b57e 248a a171 e2bf d0ae 8e79 8500 70bf
000002b0: 8373 f66c 7653 c33f b0f1 847c 0510 c63f
000002c0: 0495 72f0 6f12 c63f 0607 4620 46a0 bc3f
000002d0: 6672 cf4b 5b54 91bf 139d 1e1a 7a9f e43f
000002e0: f88a 3341 ed74 bdbf e65a b5b3 24ad c43f
000002f0: cb4f ca2a 997f 80bf 68da 5123 9f5a c73f
00000300: 0fde 62c6 4b05 b9bf 3a2e 4086 10ce b9bf
00000310: 5204 85b7 16f4 ddbf 3670 90b4 22ff c63f
00000320: b82f e2c2 01df e0bf 0345 2554 3e0c a13f
00000330: 45e1 4b79 ceca d83f 9012 1722 48f3 ca3f
00000340: 5b57 6bc2 b71d d7bf 70e7 1fe5 e9bd ce3f
00000350: a90f e42d 0af4 b03f dbbb 8712 d688 da3f
00000360: 02de 55f1 6972 b9bf ea99 48b5 88c1 7d3f
00000370: b6aa 6416 26d5 90bf 58e1 78f1 d8f6 bfbf
00000380: 2213 573c 3f45 a53f 1721 71e4 0426 de3f
00000390: 16c7 1ea6 6d93 c8bf 1a23 b5a7 07bd c33f
000003a0: 19a0 99ee eab4 d1bf f8b4 0588 09a5 cabf
000003b0: 3ba3 805f 2d8f b9bf d5e1 36eb 25a1 dabf
000003c0: 89ab 4711 bf9a c8bf 1a72 6c21 cf36 c23f
000003d0: 96ec 4aa2 68a4 d6bf bfbf 780d 59e7 c1bf
000003e0: c53f 4d73 24c0 b0bf be71 07db 968f b6bf
000003f0: d97e 3c3a 5366 bf3f 1d94 bea2 6be4 ca3f
00000400: acb8 3f50 0a7e dc3f 3e78 446a b293 99bf
00000410: 815b 648f 1bd7 e2bf 9398 5ce2 be36 b3bf
00000420: c0e1 7a0b 78e9 b5bf 3818 c9df 489c bebf
00000430: a834 d0a5 f0b9 c63f 00ab 464f a92d c0bf
00000440: 46b2 ac9b 0a30 d83f d962 c48a 88dd c73f
00000450: 3f4e 5264 beb8 bfbf b2c2 eb86 3e35 d8bf
00000460: bdb9 a39d fee1 b13f 6d13 8393 80a2 c5bf
00000470: 6e66 5e37 1a7f d8bf 5a01 1b45 2e78 d9bf
00000480: fd0a 2da4 652c b53f bf94 6837 1330 d03f
00000490: b821 9e5a 094b d2bf ca3e 0de5 5779 c03f
000004a0: a48d 8b02 d57e aa3f 387b c14c 083f cabf
000004b0: a393 f070 f714 723f 6882 a2c1 d5ef a03f
000004c0: a583 84de 1c87 e03f 24fa c87c 6fd2 c43f
000004d0: 4d16 4eda a64d e3bf 5183 8e86 0a16 d7bf
000004e0: b5ab 27fe 7255 c7bf e70e a8f5 1c19 d9bf
000004f0: 786a 5ddb 310e c63f 2f02 1c56 e224 903f
00000500: f398 ab3b 6433 d33f 9211 ee24 2b61 b83f
00000510: d878 65c0 c68e a53f 3007 9616 9976 cc3f
00000520: ac0c d690 c8b2 d13f 7da1 c20c a2df d8bf
00000530: d566 a8da d36b dbbf 742c 4719 be41 d5bf
00000540: a463 1187 9fb8 d0bf e9f8 1ede ed61 bbbf
00000550: 8fc5 c246 2409 d13f eacc 6d07 0c14 b9bf
00000560: 4163 8e0a 1bc5 d7bf 22ef b6b9 d6de abbf
00000570: d667 9d0e 0fb8 d03f e8a6 8d70 1303 ca3f
00000580: 836a aeb5 9374 c9bf 08d9 fa2d bea5 c63f
00000590: 0082 b48e d1c2 d13f 717b 8327 7af9 debf
000005a0: 9501 4c15 279e 863f f439 7964 4607 c03f
000005b0: f339 7eb1 e5fc a33f a762 c03b ce1c dfbf
000005c0: 4153 8eec 0d55 dcbf a9c1 f2b7 dc08 d7bf
000005d0: fc29 486d f84a ca3f 7861 85e6 6f74 e23f
000005e0: 2a38 c362 2b3b c83f a06c f18b 5adc b23f
000005f0: 2910 0ae6 d2da d0bf d813 cbde bc3c c43f
0.15373561109675019 0.40467056104621524 -0.05797507574070524 -0.34737496214592345 0.19905590711815238 -0.2778780922132941 0.05192330424150927 -0.3997998732112366
0.4077907844241956 0.05833104317497247 -0.3578069960025727 -0.20039013262862465 0.15443657231873678 -0.42391588306142874 -0.231334986778264 0.1965615154249855
0.3470158847663023 -0.18912173739499702 0.19916361601679172 -0.05154210638853138 -0.37250666500966967 -0.07635584123122797 0.34543270299103424 0.1169541076803627
-0.17077228260734192 -0.0026750800850968573 -0.16910097146070396 0.2926922143841338 0.2639144389854824 0.07062568965492677 -0.22974605065446688 0.007094847123226366
0.05894790992693754 -0.06388382759472849 0.40512027202159684 -0.34624424092217515 0.10740854793821053 0.0569910990033812 -0.4036157832739915 -0.0026572069745339636
-0.5312699628250479 -0.030251207123662967 0.16941636798074067 0.14947769521966536 0.2529076540645425 -0.5622849830585056 0.2628050850283498 0.15547349386278622
-0.04356076084373259 -0.021805412138868687 -0.35027028909882385 -0.1256233848905718 -0.4824825636296668 0.21426588065830535 -0.03912743237867004 0.17849754026821757
0.44866024852662956 0.16243520844340442 0.2176204516936087 -0.28792604646418096 -0.1966199047588464 -0.32690252290611727 0.08282490037949067 -0.27709810411206
-0.38548086604610515 0.18049769793398912 -0.15015739018598853 0.2992771642066082 0.028187495168393143 0.41819603465168353 -0.3921283213202519 -0.43425728058267593
-0.24620699682414013 0.17225678001720052 -0.21774780868524393 -0.2558109603429749 0.23236143233024376 1.1831872514059282e-05 -0.29404615817717034 -0.5192896533630352
0.07797856336161894 0.45023294289661153 0.041610269666750986 -0.23650263281862344 -0.576370973405537 -0.00390674723250202 0.15098457642025317 0.17236393528027127
0.1724376606045227 0.11182058608940446 -0.016923357488723666 0.6444674024723177 -0.11506541101293155 0.1615339162333022 -0.008055874460559572 0.18245305275532364
-0.09773706048405749 -0.10080054547886955 -0.46802299424968397 0.17966111961948322 -0.5272225195235398 0.03329653527419831 0.38737832875587613 0.21054937042767508
-0.3611888311983102 0.24017070472455826 0.06622375126249715 0.4146018200835308 -0.09940206663110732 0.007264646545570555 -0.01643809806516102 -0.12486034293477155
0.04154393779348299 0.47107050236492526 -0.191999155152694 0.15420623482557333 -0.2766673402861684 -0.20816153661454684 -0.09984096128085877 -0.4160857007041419
-0.19222248405216316 0.1422976411057711 -0.35378471230405617 -0.13987267644688292 -0.06543186011299358 -0.08812849852933533 0.12265510722908902 0.21009583899027087
0.445192888610914 -0.024977481590319643 -0.5887582588792243 -0.07505410219582336 -0.085593703081833 -0.11957221473230184 0.17754943939545353 -0.12639347430134507
0.37793221666905585 0.18644816184748583 -0.12391271542792824 -0.3782497708880711 0.06985465382215401 -0.16902167513594737 -0.38275771529297387 -0.39796025036414095
0.08270869501306417 0.25293426905620814 -0.28582986688027345 0.12870310482184372 0.05174890190189821 -0.20504859683838972 0.004414526526521553 0.03307979572969516
0.5164932580993208 0.162671981744965 -0.6032289756555628 -0.3607202829389751 -0.1822952023497614 -0.39215778341188784 0.17230818949868243 0.01576570177621955
0.30001169039896 0.09523267413721317 0.0421049222811562 0.22236932375749907 0.2765370764174786 -0.3886494755374981 -0.42845627167990347 -0.3321376082282719
-0.26126850309588634 -0.1069630305564463 0.26618296537625324 -0.09796214276666473 -0.37140537291411496 -0.05443449990295181 0.26123405863984084 0.2032188701226041
-0.19887014743001794 0.17693307156668703 0.2775157827000214 -0.48397687777281023 0.011043839776448997 0.12522201448378179 0.03903882781661485 -0.4861331542502207
-0.44269130803268203 -0.35991590465257645 0.20541291557340446 0.5767135145534175 0.18930570909873384 0.07367483059481339 -0.2633559462049129 0.15810356978013718

n_convs.0.bias f8 [16]
00000000: 8ae3 afc2 6322 b1bf c068 d534 9730 b43f
00000010: 8fa1 a00a 5f88 b3bf 9c82 3d74 c5cc b63f
00000020: ead8 d004 57fe b53f 76b5 ddd5 01b2 c3bf
00000030: 73c7 7c0e 6c05 94bf 8dff 1900 2f1f ccbf
00000040: 2838 7205 9ebe c5bf 85ef f4a0 4e24 d03f
00000050: 5ab5 9865 bb0d c33f 3dc1 ef6f 6d43 c63f
00000060: 10f2 0b29 e3f9 b3bf e888 51a7 981d be3f
00000070: 4e9a 70f3 fd2d 8d3f cc89 dfba 43d2 a43f
-0.06693099501707259 0.07886643447764907 -0.07629961022815322 0.08906206214806861 0.08591216914723857 -0.15386984770467976 -0.019551933655015796 -0.21970164780577442
-0.16987967744756927 0.25221601217685247 0.14885656796233598 0.17393272367145043 -0.07803172828784732 0.11763910374569131 0.014247879020399836 0.04066669136206577

n_convs.1.weight f8 [32, 16, 5]
00000000: b92f ccfd fbee b6bf d2c5 3cd5 887d c0bf
00000010: 8f9b afeb c046 a7bf 33e2 022b 18d5 99bf
00000020: 73fd bdd4 e434 c5bf 1b02 2a0b 2f56 b53f
00000030: 7a57 aed0 3421 6ebf 814b 857e f0e8 9e3f
00000040: 5ad5 0d69 f382 973f ac04 350a 3ab3 963f
00000050: 0640 b181 54c6 bb3f fa87 6327 b213 ab3f
00000060: ded0 775b d1b4 b43f e717 e84c c499 94bf
00000070: b716 6974 f14c 7fbf 678e 5412 e82e a63f
00000080: e892 c330 5801 ccbf 5f98 3bbc e4d4 86bf
00000090: a5e6 793e 9bfd b2bf 3651 09ac 58e2 803f
000000a0: 4035 0e56 65b6 77bf 2dd4 de6c 67e1 afbf
000000b0: b86e 6387 2c42 9b3f b8a6 680c 243a a9bf
000000c0: d37d 002c c287 6bbf ccc3 7aec 4357 dcbf
000000d0: dee9 e437 1601 d13f 7197 17d4 fbdf b53f
000000e0: 9470 1d1c 242f a73f 7029 ccaf 160d b2bf
000000f0: c42e d524 2aab c6bf 63ec 21f2 7ddb afbf
00000100: 121c a74d a0cd b1bf faab b714 2798 92bf
00000110: 3a13 c83a 05d1 c3bf 8b12 48b6 dc4a 743f
00000120: 7500 fb0c 6c1a b03f 70cc 4eac cccc 9a3f
00000130: ead3 7090 6aaf a53f 778a 0db7 7111 95bf
00000140: 7528 6299 17c3 c7bf d0d9 66e1 f923 a8bf
00000150: 13c2 35d9 0df5 c0bf 4b69 2486 6706 b83f
00000160: 26f3 595d 8910 783f cc9e 082c 01d3 973f
00000170: 916d ab63 de62 963f c065 496b e310 89bf
00000180: 4e5d a62d cebe 963f 7c9c a3e5 d554 9c3f
00000190: cfde 2a30 0318 cabf 42c7 78e7 65a9 bebf
000001a0: fe29 2c11 625e 933f 5a1f 61d8 db29 b5bf
000001b0: ed72 34a6 dcbd b7bf 05c2 8980 a6dc b23f
000001c0: 38cd af4c 064c 81bf 2f94 f73c bf7d a03f
000001d0: 4db4 7dbf b499 a83f a35b ac0e d101 67bf
000001e0: 0dc8 87fd 3caa bfbf 4d8d c34d 3cb6 aebf
000001f0: ab7d a9f5 44ed 9e3f db3b cc13 8a79 a6bf
00000200: dd1c d168 9893 aebf 2d36 8b5b da00 a43f
00000210: 13bc 5688 b282 a33f d253 d5b6 6de6 b53f
00000220: 9b91 9038 bb32 b23f c1ff b232 4e04 aa3f
00000230: 22b9 fd48 b236 d3bf 2f4e 77ce 0d62 a13f
00000240: c55b fa53 1caf a8bf e393 8045 691d c3bf
00000250: d5fc cb8a 470f b2bf 3e6a 3ca1 ac44 e0bf
00000260: d9df 08e9 6bcc bcbf fca8 a46d 4aca cbbf
00000270: e12b 32d1 acc2 b6bf d516 6b59 f219 c1bf
00000280: c93d 4b18 814f b53f b7b9 bd23 f3e6 cabf
00000290: be1a 0dde f83b bcbf 5bfe b845 6f23 b23f
000002a0: 20f0 739f 15c2 963f 69bc ae24 6fc4 96bf
000002b0: 2e1b b4ec 352c a83f febf c437 fa79 a93f
000002c0: 3ef9 d3af 6049 b7bf aada cfb1 a5b1 8cbf
000002d0: 2fcd 452e 45f8 a6bf 4967 fd73 5033 d4bf
000002e0: 3509 af6c 05dc 81bf e469 b795 aa0c 90bf
000002f0: d738 1a89 fe92 803f c9d4 72f9 a598 a13f
00000300: 4e7a 2d14 61ea 873f 7e5e 7031 b2b1 953f
00000310: 9269 84f7 434a c8bf c24d 122c 7b13 b1bf
00000320: 97f9 8191 cf37 b23f cc6f c110 6efa ccbf
00000330: 5120 d640 61e0 99bf df9b b820 bd07 b23f
00000340: ac7a bc55 f4ae 943f 175f f5cb 36ba b2bf
00000350: 1f3f 22f9 13df c5bf 4f13 7cad 78b4 cebf
00000360: ae42 97fb 3263 bf3f ac05 1202 5f9e a5bf
00000370: a0d9 4edd 1552 cb3f 92f4 5cc6 43fd c4bf
00000380: b8f7 a488 46a0 bfbf 979f 2d73 541d b03f
00000390: 4ac3 f335 336a 873f d4c3 58f4 214b 88bf
000003a0: 694b 14bc ae63 b23f fe64 16f2 add4 d2bf
000003b0: b8f9 e002 6b5a a1bf 51db 0341 0d54 c3bf
000003c0: c85f a99d 35db 9abf 4619 7e73 73a8 c33f
000003d0: ec67 ed99 05da b53f 4427 8405 26f1 d1bf
000003e0: 3ab1 73f5 3807 b6bf d3e7 38cd 18c2 b6bf
000003f0: 0fe8 4899 7a3a abbf 3782 326c 6608 a7bf
00000400: 94ab c766 dabc b43f 477d 9cc3 733d 9dbf
00000410: fe31 c36a 4dba bf3f 35f9 aed2 1844 95bf
00000420: d22e 6d9f 6077 d1bf 7ee9 ff62 976d ba3f
00000430: 0a9b 0a11 a8a1 b53f 0f05 c8ca 8068 a7bf
00000440: 68a6 03fc d8af cfbf 698a 31c2 5c17 b4bf
00000450: 7b4a e47c 90c5 863f 4fcf e311 737f 9e3f
00000460: ed33 75a6 b96a c93f a706 3e35 5a67 d7bf
00000470: 555a adca bc75 ddbf d3c4 30cb 579b be3f
00000480: 461c f906 7a6d c43f c199 bfd7 a2ec 953f
00000490: 890f 7b82 4007 b3bf b3f9 9794 e48e c5bf
000004a0: 38ef 3139 ca52 c6bf 0c86 9a9e 1b59 a73f
000004b0: ecff 023d c6f6 c2bf 8e59 f8ec f01c 97bf
000004c0: adda d5c6 6b07 c33f dc00 2fb3 0452 b6bf
000004d0: 760d 9774 4f4e c2bf dd4c 0ccf 59c4 a73f
000004e0: 7276 59ae 0afd b93f 844f 7e84 e832 b3bf
000004f0: 95d4 a600 6df0 b5bf 5441 996e 149c 8bbf
00000500: 0915 9205 633e 543f 3ede 9ad3 6cb9 b1bf
00000510: 8cdd 1040 8d99 cfbf cbe6 07fe beb6 a8bf
00000520: ec78 3f34 db9e 57bf e4e5 1fa6 200b 87bf
00000530: c352 6c1d 0f5a a9bf 5bbf ddca 0e00 b33f
00000540: 0542 50a3 bf77 90bf 47d1 7a41 7fcc a53f
00000550: 7d53 5042 363e 923f c014 b81f 7a16 bdbf
00000560: 567f a958 5515 aa3f a74e 6adb ed55 a93f
00000570: 9230 55be cd8c 983f 3642 7888 1b48 b2bf
00000580: 5c32 00f2 e531 b13f abb4 7f7d 1214 aa3f
00000590: 7043 d38f 7f6c c9bf 8c52 c245 3b42 9e3f
000005a0: f8e3 44d2 94b0 bfbf f68b d648 67ae 96bf
000005b0: 6bc3 9948 cc0a b43f 2aa0 1847 65da 873f
000005c0: 21b7 291e e7f4 a03f e6d8 4afa 244c 7abf
000005d0: 892a c18b c53c c2bf a95a 1c1c aef1 cfbf
000005e0: 5e68 5c3d a06c c03f 2b09 1402 9761 a83f
000005f0: 0256 9506 9322 ae3f f72e c3cc 1835 ae3f
00000600: a3eb b0df 7523 a33f 76d1 06cd 1548 a93f
00000610: efa6 95bd d2e7 8e3f 6cef 4a69 a4e1 7f3f
00000620: c87b ecc7 5244 c4bf 42ac 32be 3893 c3bf
00000630: 720e 7e79 5c06 c13f 2ce9 3bc0 eae8 bd3f
00000640: 6e31 79b4 14bd a6bf a23d b0dc c72f 7f3f
00000650: 3218 3d25 27af abbf 4d1e c0fb 88d4 bf3f
00000660: 2471 ac45 4f6b bb3f bc18 c414 17c0 a7bf
00000670: c373 b6d2 37bd 7b3f 68b4 8bde 979e 7b3f
00000680: 8202 259b b808 7d3f f922 6f92 cfe0 923f
00000690: 67f9 0c37 87cd cbbf 3192 c068 ede7 c0bf
000006a0: e5f7 0b93 4b6d e1bf 6017 dba0 05fd 813f
000006b0: b451 ff1b 308c 593f e6c2 2415 00af adbf
000006c0: 036d 78be 0933 d1bf c769 59bf 07b6 573f
000006d0: 7fe6 db86 7385 b33f 59e2 fc9d a1fa 9f3f
000006e0: a979 9eca b5aa d8bf d18e 3f77 fac3 cfbf
000006f0: 5253 a2fa cb2c d8bf d1db 4e6e 70d6 883f
00000700: af19 2c15 c364 9d3f 412e ced9 17d3 bbbf
00000710: 98bf 9118 947a e1bf bb83 0562 6c5e c9bf
00000720: ddb2 62cc 99c3 963f d5a5 1dd0 4a33 933f
00000730: e144 b428 2b44 853f 1f71 ebea b6b8 c2bf
00000740: 23d9 92b9 1940 a4bf e1aa f467 d641 bb3f
00000750: 541f 395c 6638 a83f 8f3a 3f1a a05a 983f
00000760: 77d7 d147 2497 b2bf f4f4 2a76 16c6 e7bf
00000770: 0a74 ae55 8169 893f 51da 8ab5 1e52 f2be
00000780: e55e 4eb9 d870 5b3f 3356 3130 c6ce a93f
00000790: 6870 8f9b b71c a2bf ddf8 8396 448f 84bf
000007a0: a925 bf19 11cd 87bf 16b0 ff51 e75d b33f
000007b0: df64 675d 5461 8abf ed09 460f 0ddf e5bf
000007c0: ccd5 f831 f616 e8bf 9729 c6f1 5c6c a23f
000007d0: 5915 7f0d 02c9 a73f a1f8 1472 c0b2 c03f
000007e0: 8d44 8ae9 2023 d2bf c13c b121 9792 e3bf
000007f0: 60b8 0601 63fa c5bf 251f ca5f dff5 733f
-0.08958411165457293 -0.12883100902540306 -0.04546168210054368 -0.02522695314903185 -0.16567669284630035 0.08334630987702278 -0.003677943377122736 0.03018546840878456
0.022960475241651103 0.02216807067202768 0.10849502722089718 0.05288464289493784 0.08088406069856854 -0.02011782378578877 -0.0076417381120045735 0.04332661842115897
-0.21879103070309402 -0.011148249620827664 -0.07418222689912086 0.00824422144902624 -0.0057891806071784235 -0.06226657108292275 0.026619621051266334 -0.049271704210992195
-0.003360633127172477 -0.44282625287729327 0.26569133242051446 0.08544897010832898 0.04528153269959137 -0.07051221649104433 -0.1770985298011195 -0.062221465880576664
-0.06954385658092146 -0.018158541335576907 -0.1548162972468619 0.004954206615825139 0.06290316883951326 0.026171873108705446 0.04235394490425633 -0.020574356839811316
-0.18564124097276005 -0.04714947582708684 -0.13247845750767392 0.093847723245209 0.00587514551227456 0.02326585608730518 0.021861529191352928 -0.012239243232374686
0.022212239776846325 0.027667371884402034 -0.20385780193259115 -0.11977230931441077 0.01891473035633772 -0.08266996414851971 -0.09274081285225196 0.07367935789239517
-0.008445786681454778 0.03220937365748743 0.0480476840738012 -0.0028084834242565067 -0.12369137944895688 -0.059984096996937276 0.030201985830328997 -0.04389602176353665
-0.05971981315138362 0.03906900756338092 0.03810651697437364 0.08554731095985282 0.07108659869169857 0.05081409806143667 -0.300213404922845 0.03395121713006365
-0.04821098828431717 -0.1493350591055381 -0.07054564608187104 -0.508383097566657 -0.11249422492335216 -0.21711092332527204 -0.08890800578426152 -0.13360432973984496
0.08324438899148058 -0.21017302746936448 -0.11029010220691313 0.07085318996632266 0.022224748475295653 -0.02223371182816117 0.0472123004383803 0.0497587388111924
-0.09096340458561245 -0.014010710228814578 -0.0448629015908416 -0.3156319744790506 -0.00872043836523471 -0.015673318279235363 0.008092869338068116 0.034367739391578285
0.011677511623642858 0.021185669200433292 -0.1897664030628446 -0.06670350862469035 0.07116410543856087 -0.2263925153555405 -0.02527000387411277 0.07043058441978144
0.020198648198056432 -0.07315390090422756 -0.17087030091033115 -0.23988254996234068 0.12260740892748842 -0.0422239007975905 0.21344254785590255 -0.1639790266580446
-0.12353936039013902 0.06294753848999189 0.01143302925490421 -0.011862054128046674 0.07183353511599723 -0.29423092500071835 -0.03389295969144562 -0.15100255655826314
-0.026226842639829134 0.15357821597371862 0.0853579998778568 -0.28034353769963993 -0.08604770653227414 -0.08889918337163687 -0.053180533610842066 -0.04498596258895698
0.0810066700866357 -0.028554734052815858 0.12393649918085001 -0.020767581805324304 -0.27291122025483816 0.10323473135932734 0.08449793258715146 -0.04571917033536909
-0.24755394273170173 -0.07848148098995868 0.011119011699098671 0.029783056227599854 0.1985694945127813 -0.3656831283516148 -0.4603111247319352 0.11955784521775863
0.15959096279604718 0.021410507601012933 -0.07432940660060984 -0.16842324500607972 -0.17440154831626287 0.045601714239875774 -0.148155956068876 -0.02257133909560021
0.14866397103079035 -0.08718900084113862 -0.14301484291909689 0.04641991283838263 0.10151736027315808 -0.07499554857923668 -0.08569985643301188 -0.013481292367175136
0.0012355772981050303 -0.0692356125463158 -0.24687352779595206 -0.04826924181902611 -0.001441682878968782 -0.011251692838402279 -0.04951522096795238 0.07421963169849503
-0.01608180460249466 0.042575814002165084 0.017815444753142885 -0.1136242225112083 0.05094401080418602 0.04948371222886055 0.023974623434057714 -0.07141277391225107
0.06716763647291074 0.05093438894241705 -0.19862360499112297 0.0295495282485541 -0.12378816731951747 -0.02214967138355558 0.07828976414181248 0.011647025329764988
0.033118460113526156 -0.006420273250731001 -0.14247960399582763 -0.24956299183459876 0.12831500049725525 0.04761955166215367 0.05885753112185556 0.05899884700337837
0.037379916721383986 0.04937809112326168 0.01509060517374247 0.007783548576011028 -0.15833506357100036 -0.15293034827240787 0.13300662929769974 0.1168352813073496
-0.04441132262272417 0.007613926612079965 -0.054070685668691346 0.12433677812816164 0.10710616541877421 -0.04638740662089577 0.006772249278040601 0.006743043174293729
0.007088395230596791 0.01843571025145516 -0.21720972240468514 -0.13207786192755713 -0.5445917007452833 0.008783382388525218 0.0015593023126615315 -0.05797577150440762
-0.2687401161253577 0.0014472079905290967 0.07625505487876615 0.031229520099460426 -0.385419319029007 -0.248168285586067 -0.3777341792677379 0.012127760282835272
0.028704689185383433 -0.10868977611078724 -0.5462131957883569 -0.1981940725918586 0.022230532741263843 0.018750351860409815 0.010383927516644355 -0.14626203985870576
-0.039551547911673056 0.10647335088712452 0.0473052966668194 0.023783208467473 -0.07261873963747499 -0.7429306323971603 0.012408266475000946 -1.7472058376733557e-05
0.0016748539394252856 0.05040568674364145 -0.035375344981475376 -0.01003888687455084 -0.011621602628923382 0.07565160514758448 -0.012880953884563727 -0.683477907019833
-0.7528029418960442 0.03598299456924108 0.046455444476616044 0.1304550702133769 -0.2833940773644564 -0.6116443307927498 -0.17170369672880081 0.004873154216177321

n_convs.1.bias f8 [32]
00000000: cc30 b4c0 f68e bf3f 335d f810 5088 b8bf
00000010: 19d5 46e9 3b83 c33f 0a6f 7a10 828d a13f
00000020: ac33 da57 061e b2bf e26e 683e 07f2 b3bf
00000030: 8ce4 3882 95a6 a93f 11f9 f0e7 71b9 c03f
00000040: 7284 896c d7bf b33f 685f 6319 535d c23f
00000050: 9e39 106b a153 c03f c2a9 dc4e 0e98 b43f
00000060: f158 7dd8 2816 9b3f 750a 1714 0619 b63f
00000070: 81ea 1321 beb9 bdbf 075a cff7 1072 c1bf
00000080: 8f47 4734 e9f7 c63f 7fff a609 e413 923f
00000090: ac23 651c 5021 c73f b735 e992 5284 acbf
000000a0: a7a7 e2be b80a a7bf 2ab7 3bf1 61e9 a1bf
000000b0: 89d6 7a3a c7c5 913f 5669 b15c 859d b0bf
000000c0: 29c8 20fe 02c7 88bf 0818 2bd2 1b55 b23f
000000d0: 5dfb bf8f cec7 b13f 970b 23f7 ae12 b8bf
000000e0: cdbe 70d7 9253 9d3f a385 4d9b 9369 b53f
000000f0: 2e43 d13c aa7e b03f 4f4e 9ace 0683 c23f
0.12327520565685574 -0.09582996763525813 0.15244244471038185 0.03428274584913822 -0.07077064175446307 -0.07791180871611972 0.05009906019808694 0.1306593306089288
0.07714601898034504 0.14347304095894775 0.12755220153526364 0.080445188764009 0.026451719487646966 0.08631933203199955 -0.11611545856059459 -0.13629352665039127
0.17944064190538397 0.017654002274638977 0.1807041300437765 -0.05569704097124933 -0.045003674794613695 -0.034983692834300875 0.017356026596380168 -0.06490357888234163
-0.012098334675190685 0.07161115532935025 0.06945506104964978 -0.09403508695235839 0.02863912048286359 0.08364222089360011 0.0644327543716485 0.14462361419701827

n_convs.2.weight f8 [64, 32, 7]
00000000: 3255 dc7b e462 b93f 81e9 60d3 7e33 9ebf
00000010: 2fb6 5f83 0871 b03f bfbd c4e0 ad30 8f3f
00000020: de07 bba6 cbc1 853f 01bc 80a6 9013 8fbf
00000030: c14e 7f15 3089 9dbf a17e de10 f5e2 b4bf
00000040: e36b 1bf6 9e5e b7bf 50ff 9e75 fede 97bf
00000050: 6fa9 8d8d 8687 5a3f 36dc 9926 88cd 7bbf
00000060: 1c91 a229 722c b33f a6fd 2a64 0ac9 923f
00000070: d38b b863 b97e b13f 3ce9 8450 8af9 ad3f
00000080: c9f7 12a6 417a 70bf dc97 e791 acbd a33f
00000090: 27a8 da5d 136e b8bf 11d7 cfe2 e1ac 98bf
000000a0: ce02 1709 f537 8fbf 8122 1455 adcc b1bf
000000b0: 9570 5fcf 355a 9abf 410a 3034 2d24 91bf
000000c0: 6505 a690 54b8 c8bf 4620 bc96 7eb8 b1bf
000000d0: 32a7 66e4 cdd3 8fbf b4cc 077f 698e 943f
000000e0: 076e 9411 112f bebf c4d8 af01 68cb 933f
000000f0: e299 8a97 b524 b4bf 9ef2 4dde 7c69 9a3f
00000100: 7748 be3c d098 7dbf 20fa e455 4a0b b7bf
00000110: 740b 3588 a23a a1bf 9dd1 09ef a086 8fbf
00000120: 420e 3939 c3a4 a13f 8773 a31a c682 aabf
00000130: d8d9 cb4f 86d4 9bbf 0024 96c3 0b24 963f
00000140: 26b9 55b1 b651 77bf b9fc ea49 62e5 b1bf
00000150: df8b e601 815b a63f 1843 4838 da0e 3a3f
00000160: 5db1 9866 6491 91bf 3bf4 fcb9 4418 a83f
00000170: 701b fee2 3418 9cbf 914e 4635 9741 c5bf
00000180: 3f8f 9be9 d530 adbf eb0b 6da9 392f c43f
00000190: 317f a47a 710f ae3f a9fc cd0d 6f64 b03f
000001a0: 4f2b be12 f3bf b4bf 6546 c29b 1f13 b0bf
000001b0: 61d1 76aa 4565 8e3f b2da 0eca 1e20 b33f
000001c0: 7043 7cc0 3e36 c63f dbd2 e904 0f4c 98bf
000001d0: 5240 88c5 4734 b33f 8af3 43ed c1c9 a33f
000001e0: ca56 e0a3 ee2e aabf dcab 4a90 507f a1bf
000001f0: d227 a8ed 4ed3 b93f c5b8 4d13 08dd b0bf
00000200: 18d4 53a7 2dc4 9a3f f054 10c9 06a2 a43f
00000210: 3605 0603 9c58 aebf 77bb ad6c 2ef9 a13f
00000220: f798 d42b 5f6d c2bf c997 2008 4e19 d0bf
00000230: 6322 1cc8 7d8c c53f aa0b e72b 21aa a2bf
00000240: 90f4 590d dbcd a0bf 6da2 dc92 c851 503f
00000250: 57db 9845 e56d 6ebf df56 86ee 5fcc 9cbf
00000260: 8164 8471 c278 943f 2a46 229a 999b ad3f
00000270: d6aa 68ca a8db b03f 3d92 1195 bdc3 6cbf
00000280: edc7 6478 f93e 953f 0a6e a44c ecfa a13f
00000290: a3a5 8d74 a5b6 af3f 966a 7424 e611 ab3f
000002a0: 7ecf 5ec2 54b4 c5bf af63 5d3b b596 813f
000002b0: b872 b9a9 7f45 b6bf 58b6 52ec 1a85 973f
000002c0: 441e d3dd 4e98 843f b2ca a01d f079 a7bf
000002d0: 3637 2063 0c23 813f 3b09 d9a4 f012 b23f
000002e0: 0f83 aca0 711a 89bf 52c3 52b0 9ae6 81bf
000002f0: 0652 299b 89ad 94bf 96d6 880f 3359 723f
00000300: 5896 d9a4 62e4 9f3f 934b a43c da5b 5ebf
00000310: 337f fbe2 ccde abbf 7e96 6462 075b 893f
00000320: e632 d432 ae90 79bf 0db1 c063 cf13 88bf
00000330: 22c3 a09c 89bd a0bf 56ab 1cd6 46c1 6a3f
00000340: 4a69 1ee0 9314 b1bf fbef 3ff6 b1ca 92bf
00000350: 1de4 420a 9c93 92bf f8c3 644b 6732 b23f
00000360: 5921 08e6 1485 99bf 1105 a209 2e59 a2bf
00000370: 3722 5b02 c14c 95bf 63d3 f13a 5940 c93f
00000380: 8a99 3fcb 356d 4d3f 43ad 1fa5 f2c8 92bf
00000390: 0f18 76b8 d227 9a3f 35c8 32fa 44b9 8dbf
000003a0: e241 ef57 7971 95bf 650e 1918 2293 9b3f
000003b0: b17a 8bba a2cc bd3f 8feb 92ba 8fe2 b23f
000003c0: aebd 598b 139d a73f 57ec 112c 782f 9d3f
000003d0: 22de 28db ac0e ab3f 15f7 2188 fd7d 9abf
000003e0: cda2 4522 d373 c5bf 6597 946b d1c9 bfbf
000003f0: b761 4388 5571 bebf a44a bdd9 707b 8bbf
00000400: f6e4 700b cb43 90bf 709b aa4b d3c1 723f
00000410: a6da 0d86 101d 793f 1e99 b662 4645 ac3f
00000420: d9b3 95f3 021d ba3f bf38 dc4b f791 b0bf
00000430: e22c 0f3d 6cb7 a1bf 11b2 9430 3307 94bf
00000440: 713a 21d8 44e3 a7bf 5004 a2dc 1d27 b6bf
00000450: 3d9e d074 42e3 cdbf b954 550f 8ac6 c6bf
00000460: 9ace 7a1a 8b00 63bf 6888 f668 61a2 773f
00000470: f23f 26cb 4eb0 9a3f 8a32 2d4e 7167 adbf
00000480: ec73 ec89 66c0 90bf e2c0 6707 908b a3bf
00000490: cf3f 290a 1779 a2bf 68e9 484f 9ec6 c8bf
000004a0: 633f 79fc 397e cabf b6ab 446e 7c58 b5bf
000004b0: 5d61 9711 34f6 aebf 93b4 3d9a 4013 bebf
000004c0: 448d 4cd2 b676 adbf a2e2 08b0 e8f7 d1bf
000004d0: eae5 a7a3 38c8 a6bf e900 e147 7019 ab3f
000004e0: 20b8 8768 fdf7 843f 61e7 22cc 967a 9bbf
000004f0: df9c 7c51 ec46 4fbf 7373 ae73 c6a2 503f
00000500: 0591 0b54 dbb5 b03f 8f3a 726c 18aa a7bf
00000510: 3e1b 071c 8845 a4bf 93cb b310 a385 73bf
00000520: 877b d2f0 33c7 a33f 798f 3872 dbcd 8abf
00000530: 0a08 bd01 5f70 953f f8c1 c0b0 5d5f bb3f
00000540: 0f1b b9c5 e0b5 993f 7950 d9b8 41d0 a0bf
00000550: 4fe2 b30c 58b2 48bf ed06 0e0c eb75 8d3f
00000560: f058 4ddb 2e87 a1bf 95f5 0440 b863 b1bf
00000570: b0dd 1eff e2f3 a5bf bb1a 104f b3c4 9f3f
00000580: 6fc5 c2e1 2d49 7b3f 1de8 6e17 c93d ab3f
00000590: b665 379f c60a a73f b9cc fe33 7eeb 923f
000005a0: ace4 4721 3c16 a63f 4b52 1416 8fcc ba3f
000005b0: 1fbe 46fe 41d3 64bf 2fc3 d126 b361 aa3f
000005c0: 0e0c a882 b1d7 a63f 63d6 0303 f002 99bf
000005d0: 29db 5fbe b550 94bf f99f f531 4416 a23f
000005e0: 73e8 e1d3 8dbc a1bf 9cf7 5430 f824 b13f
000005f0: 50d6 f191 a990 aa3f cdcf 6493 9bc8 99bf
00000600: b60a 1dcc 6bda a23f 95dc 511d 7b8a 813f
00000610: 132c 9510 1c77 9f3f f64b 1b74 8ba4 b4bf
00000620: 309f bfbd f8d2 b6bf fe71 d17e 5ff6 64bf
00000630: cca1 765b 408a a63f ae0b d5af ae34 9e3f
00000640: 705c d8e4 2bc6 a23f cad0 47eb 3fb3 ae3f
00000650: c077 392e 06ea b13f eff9 406a 7b87 9d3f
00000660: 8e6b 22c5 0d7d 883f f7ad 5b91 8090 9dbf
00000670: c64a d5c2 0d8d 9ebf 1665 481e ba57 9dbf
00000680: a784 408c e810 99bf f04c 4a15 1ccc c6bf
00000690: 97c1 350f 1ffd ba3f 1b5f 1df2 3ebb 783f
000006a0: 6b6b 740c 9821 9cbf 0626 f2b1 f64b 893f
000006b0: 96a5 4ce4 14b5 aabf 2a9d f441 a562 89bf
000006c0: 5265 7b76 fb05 8c3f c8ec ce4b fcac 73bf
000006d0: c6d1 2412 b790 b1bf 3062 86b6 0612 bc3f
000006e0: 619a 3f7c 3904 773f ef8f 8366 bc1b 913f
000006f0: 4e87 e309 4884 96bf 1401 a050 8b78 b4bf
00000700: f564 04c0 23eb c5bf 1020 ea6d 24a1 c9bf
00000710: e6d0 fc11 015e b7bf ec84 79dc 79b2 b0bf
00000720: 1160 0e40 9f30 a4bf e85d 02dd f3bd b5bf
00000730: 9179 58f7 d12c bfbf 64e9 008b 9a69 b53f
00000740: 7565 dde0 5109 903f f35e 8fc8 b064 85bf
00000750: 0dca 9637 93a5 8c3f 98dd a78b 3a14 8f3f
00000760: 1a5c fe16 66ac aabf 4f5e 2d34 4baa b33f
00000770: 9cf0 9cf9 3c16 bebf 661b ccbf ec45 c4bf
00000780: ebd8 b524 acc8 b1bf 1382 785e e652 91bf
00000790: 6278 58eb 668c 7abf f27f 66f5 9281 86bf
000007a0: 85b8 5b4a 57d4 c3bf bd0f 1518 a1e7 6c3f
000007b0: 16ca 6c35 eec5 ad3f 541d 5051 fb14 a23f
000007c0: 870c ee56 9b40 bdbf 8914 8264 0d74 adbf
000007d0: f314 7dbf 449a 9cbf cf98 0977 878a 98bf
000007e0: 654d 889a 38a6 81bf f1b2 a98f 6be1 95bf
000007f0: d137 5876 a77f 7cbf 566a 6e8e 0cae 953f
0.09916523002569447 -0.02949331441070902 0.06422475058908426 0.015229566976443175 0.010623541856492776 -0.015174036103500656 -0.028843642532435213 -0.08158809339374297
-0.0912875510070275 -0.023311592034360118 0.0016192258828718572 -0.0067878073110625905 0.07489694134216446 0.018345033992543634 0.06833990749923595 0.058544466332437456
-0.004022842827167091 0.03855647355139499 -0.09542962113724283 -0.02409699389314485 -0.01524344858160145 -0.06952937438121333 -0.025734749586135825 -0.016739565191537634
-0.1931253153125382 -0.06922141246843791 -0.015540703327889458 0.02007450902779047 -0.11790568045801574 0.019330620863876616 -0.07868514013043851 0.025793028896702645
-0.007225812365407084 -0.090016027422259 -0.03365047371564503 -0.01539350251662413 0.03446016381760987 -0.05177897525002267 -0.027177904720668028 0.021621879398967536
-0.0056931625780250236 -0.06990637116085709 0.043666869623187436 0.0003976137889206018 -0.017156189691534752 0.047060153678537074 -0.02743609080746573 -0.1660641679887829
-0.05701321102767886 0.15769119999649148 0.058711572857872325 0.06403249823596248 -0.08105391700352736 -0.06279180100161737 0.014841598763134458 0.07470886643464317
0.17353042982770317 -0.023727640795601395 0.07501648495258564 0.03864866277033403 -0.051139314178880804 -0.034174459089022696 0.1008805589882791 -0.06587267371444046
0.026138985956055988 0.04029866413490335 -0.05926978623302619 0.03510422779697014 -0.1439627613082803 -0.25154448312457284 0.16834995528212734 -0.03645423565787749
-0.032820554141815284 0.00099606120370246 -0.0037145116773688413 -0.028123377736469442 0.01999191110471488 0.057827758851214675 0.06585173551199416 -0.0035113051203999033
0.020748041127440265 0.03511751590323449 0.06194035575647241 0.05287093348507203 -0.16956576815357133 0.00858823382775306 -0.08699796575224183 0.022968693422333736
0.010056129593421954 -0.045852187744818265 0.008367630744057313 0.0706015016994898 -0.012257468906285788 -0.008740623956642022 -0.020193243117619296 0.004479598480022459
0.031144658385889507 -0.0018529540271330122 -0.05443420668393486 0.012380654993261016 -0.0062414936667323 -0.011756534797392715 -0.03269605671846977 0.0032659896395634087
-0.06672023984575506 -0.018351345686809833 -0.018141210676478992 0.07108159628548083 -0.02492172864916262 -0.03583663814152705 -0.020800605553434628 0.19727626207500312
0.0008980286279410149 -0.018344680145600433 0.025542538174271153 -0.01451352966828177 -0.020940681449987404 0.026928456040208455 0.11640374235455898 0.0737695532324507
0.0461202724080708 0.02850139397603998 0.052846338036428145 -0.025871240075949837 -0.16759719060362102 -0.1241732490203425 -0.11891684128511924 -0.013419038433913962
-0.015883610318472706 0.004579377530410919 0.006131233735564711 0.055216025876960936 0.10200518080610212 -0.06472726442391073 -0.03460252995827219 -0.019558715667857444
-0.0466557992773361 -0.08653437267823105 -0.23349791244366883 -0.1779339384908434 -0.002319595037841027 0.005770092494829716 0.02606318583417528 -0.05742982940009707
-0.016358949821654464 -0.03817415323635644 -0.036080093374607373 -0.1935613524563664 -0.2069771273404469 -0.08338144008727863 -0.06047213282335193 -0.11748126760149295
-0.05754634205939138 -0.28075616064919917 -0.044496316888352386 0.05292845609119629 0.010238628151423568 -0.026834827622884364 -0.000954499616430928 0.0010153711325308872
0.06527491380581203 -0.04621959995084978 -0.03959298460136161 -0.004766118024451499 0.03862917246555413 -0.013087953971144138 0.02093647430525184 0.10692391934640699
0.02510787207418291 -0.03283887273269754 -0.0007536821298393478 0.014385067277319996 -0.034234489698677595 -0.06792785227749783 -0.04287633289589665 0.03102379007398313
0.006661586023413476 0.0532057610611931 0.04500408834037321 0.01847645943025775 0.04313838869342965 0.1046838215737093 -0.0025421418124194207 0.05152664040440979
0.04461436004569218 -0.02442526834871329 -0.019839133972676812 0.0353261290536579 -0.03464167796569564 0.06697035961130243 0.05188493639517999 -0.025179320212558132
0.036822670618240336 0.008564912636059222 0.0307278046723632 -0.08063575348505467 -0.08915667183429998 -0.002558886064930598 0.044023524441687195 0.029497842294641856
0.03666817825813318 0.05996131655766275 0.0699771750309699 0.028837135658472176 0.011957271174017039 -0.02887154471583916 -0.029834952370331867 -0.028654964540781945
-0.024478562889389235 -0.17810393371164635 0.10542482491815118 0.0060379465883995355 -0.027471900711229773 0.012351920419194872 -0.05216279303415232 -0.01239518268137248
0.01368328528717436 -0.00480364373373305 -0.06861442749943256 0.10965005832839192 0.00561926322186554 0.01670736671157152 -0.021988988498271404 -0.07996435850509825
-0.17123839259946974 -0.20023017279550048 -0.09127813996457554 -0.06522332794840552 -0.03943345696387735 -0.08492969651921778 -0.12177765167914446 0.08364263433114655
0.015660552358303065 -0.010445958252531784 0.01398768437761524 0.015175301920847414 -0.05209654837306506 0.07681722663743894 -0.11752682775562778 -0.15838393559553338
-0.06946826835869373 -0.01691780044177633 -0.006481554058636348 -0.010989330400491302 -0.1549176323964653 0.003528418194635534 0.05815071489486827 0.035316327739617265
-0.11426707145987978 -0.057526033896501856 -0.027932237803970982 -0.023965946808311153 -0.008617822853045973 -0.02136772217129396 -0.006957677983804048 0.021171756928746475

n_convs.2.bias f8 [64]
00000000: 121f 6390 c949 ac3f 3fa6 b1df e116 9c3f
00000010: 4a87 4e4d f2ba bd3f bf37 7d81 6b2f 8a3f
00000020: f756 8bf9 9c52 a2bf f8ae ee9b ee03 ac3f
00000030: fb99 ca24 a725 40bf 7837 ab79 f95e 9fbf
00000040: 8e0e afce c6b3 43bf 4ca5 c367 fbcb 47bf
00000050: dcb8 ff9b 5530 bc3f 5641 b684 1334 b33f
00000060: 51b8 5828 a897 b63f 2a11 a211 1d51 953f
00000070: b603 0ec6 b014 aa3f 755c 2acb b814 b73f
00000080: 1dc5 4551 50a2 a73f 750d f214 be59 c33f
00000090: 13a9 9faf c0ae 9dbf 000a 63ae d491 8d3f
000000a0: 6d44 c3c1 cff8 abbf 4323 accf 42b6 ab3f
000000b0: e768 9507 da39 933f 5ae7 5248 215a be3f
000000c0: 8020 0b96 3545 953f dd39 670a 5211 97bf
000000d0: 1add 896d 3533 a33f 4950 050a f96d b13f
000000e0: 49a2 0a05 b73e 8fbf 9956 fc38 fd85 b73f
000000f0: 6efc dd1b c0cf c03f 843c a7e4 cc08 95bf
00000100: 0af7 6b8b 021b 9f3f 8b93 7300 520d a33f
00000110: dcc2 2ddd cf7d ac3f ec6a 3d41 4804 9e3f
00000120: 5283 3cb4 503a 643f 8d94 6cff a0ed c03f
00000130: 304b dd67 0a24 c13f e36e 2041 6973 5ebf
00000140: 679f 42c8 284d b33f 9a8a 50f1 9298 b33f
00000150: d619 c79d fb0e ad3f 1ec1 6b75 cbe2 963f
00000160: a67f 3ea9 e6c2 c13f 9880 c61c 9ffa a73f
00000170: 3855 e369 0d23 a23f 7b0a b3ea eb4e 9d3f
00000180: be72 84ed 0554 c13f 63c3 9492 46fc 373f
00000190: a987 b12d ff12 b13f 01a8 51ee d99e a63f
000001a0: 4aaa 5e8e 4245 a03f f904 6da9 9b5c be3f
000001b0: 5384 c94d 4915 c13f d3f4 b09f 2ce3 b03f
000001c0: bd7c f7b7 4eef bc3f 55d2 e757 589b b5bf
000001d0: 4900 e2ae b470 a1bf 071c cc03 6778 a03f
000001e0: 974f 6fab bd00 b63f 973f 2b89 a9f8 b03f
000001f0: d181 b0a4 64d2 c03f 41cc 1a64 efa2 c03f
0.0552504528764627 0.027431039121813546 0.11613382708904144 0.012785758866495798 -0.03578653856463448 0.05471749928923758 -0.000492769826071548 -0.030635736514163153
-0.0006012650240951477 -0.0007262208523829776 0.11011252459113358 0.07501337041890585 0.08825160012267587 0.020817236138570262 0.05093910615597201 0.09015994033903658
0.046160230561222294 0.15117622397165645 -0.02898694106981121 0.014438306400170298 -0.05463265648143865 0.05412491593421589 0.01877537413870636 0.11856277480810942
0.020771825106550512 -0.02252700985428101 0.03750006639614352 0.06808430189750071 -0.015256337968211702 0.09188826218845704 0.1313400398321138 -0.020541383224380386
0.030376472243907528 0.037211000971900075 0.0556473691457364 0.029313210470131176 0.0024692131281799723 0.13225185844308776 0.133912373271039 -0.0018585708498965396
0.07539610757032521 0.07654684440107432 0.056754935274102955 0.022349528352550434 0.13876040710328857 0.04683396555196956 0.03542367856577261 0.028621374320901154
0.13537668321159474 0.00036598895038069383 0.06669611802638421 0.044180689183875195 0.03177841174995828 0.11860058676122155 0.13346210764123842 0.06596640490257082
0.11302654258132612 -0.08440162798053426 -0.03406300196456919 0.032168597425020144 0.08594880519313929 0.06629428480959941 0.13142068902472073 0.1299723852913264
