model_checkpoints/cnn_performance_analysis_epft_cj.pth (torch, 693718 bytes, 10 tensors)

y_convs.0.weight f8 [16, 10, 9]
0	0xbfa03b699f286ac5	-0.03170328204961018
1	0x3faf699b81d6e984	0.0613525959010586
2	0xbf9964618e4e856a	-0.024796985922539795
3	0x3fb1d46359917457	0.0696470349953001
4	0xbfb333cfe0bdcf9f	-0.0750093387303523
5	0xbfa9ebbaa8bd1134	-0.050626595590559736
6	0x3fa0c67cbe581c43	0.03276433776414269
7	0xbfa5907614c7d86f	-0.04211777690572737
8	0x3fb6882fd13b7bcb	0.08801554544650896
9	0xbf9885b6156370d8	-0.023947567992636504
10	0x3fb1014669662627	0.06642570565431836
11	0x3faaf66133ce9a2f	0.05266097791109236
12	0x3fa3772797f5dba0	0.0380184529303087
13	0xbf8d47dbbe718f03	-0.014297215222718323
14	0xbf921472256017d7	-0.0176561198532211
15	0x3fa3107d542d5188	0.037235180402293955
16	0xbfac1f563666d4f6	-0.054926580563383995
17	0xbfa33ef9d8a2e850	-0.03758984345900329
18	0xbfbe05ccac5594a7	-0.11727599341755256
19	0xbfae48eb0ded1787	-0.05915007157322721
20	0xbf95040abfc74895	-0.0205232314636495
21	0x3fac4aecd5e02105	0.055259133441781606
22	0x3fb15747f4acd63f	0.06773805354608785
23	0xbfbbd84d901871bc	-0.10876927154499233
24	0x3f9867fec8e47ae4	0.023834210406785142
25	0xbfb223b8c9dc2394	-0.07085757187100078
26	0x3fb34f3e30f3b1cd	0.07542790122142336
27	0xbf8c0ffa0f21de75	-0.013702348315049332
28	0x3f64f82d5ede687f	0.002559746374527327
29	0x3fac02c918863675	0.05470875191086303
30	0xbfb3cdf15f0269be	-0.07736118859830918
31	0xbfa0d122deccbe07	-0.03284558267329989
32	0x3fa919eda854cefa	0.04902594261002764
33	0x3f79d7bb434e3aa2	0.006309253211738282
34	0x3fa7ff027c36c822	0.046867444670525296
35	0x3fb4dbe9f53ff64f	0.08148061978860109
36	0xbfa9ef444f390c50	-0.05065358607364401
37	0x3faf5fbf566c7685	0.061277369785085724
38	0x3fb2674ee503b52d	0.07188885775731953
39	0xbfb4cc62541789b1	-0.08124365380311961
40	0x3fab5442ffdc33b4	0.053377240879945914
41	0xbf72febd52a622fd	-0.004637469808934422
42	0xbfb15757a1f97c3d	-0.06773898796517215
43	0x3fb3b99b7c534d61	0.07705089364326546
44	0x3faddb6fc1baa0ea	0.058314793013154745
45	0x3f7be3ab12111ca3	0.006808918232372427
46	0x3fb91ced0abe3215	0.09809762489585012
47	0xbfac142b4f1bc0bb	-0.05484137859991863
48	0xbf94b2a39b576bf8	-0.020212704044620694
49	0x3fb49d18acc5effa	0.08052210062118084
50	0x3fb716b1a593ba18	0.0901900319329133
51	0x3fbe991730b339a9	0.11952347697226763
52	0xbfad8ce0e5177739	-0.05771544262436951
53	0x3faf8998f49ae083	0.06159666047955261
54	0xbfa442598ea3490d	-0.03956870905098429
55	0x3fafde99bd45ddfa	0.06224518237553052
56	0xbf90178e06c74c38	-0.015714854396559924
57	0x3f7f253ae4836fc9	0.007603864716852323
58	0x3f9862629110f987	0.023812809089798683
59	0x3f89f49c646874b6	0.012673589529237677
60	0x3fb14b9dafd18e77	0.0675600580448704
61	0xbfa7fe8707eb67c8	-0.04686376544641707
62	0xbfb339292c2d733f	-0.07509095505288331
63	0xbf6b59df8d731cb0	-0.0033387533436300618
64	0xbfa3b2ae3ce9126e	-0.03847259992156614
65	0xbf8d771582f66c9d	-0.014387291011010378
66	0x3fbe73dc20d0aa8c	0.11895538140439949
67	0xbfaa8019bb5a9902	-0.05175857936892393
68	0xbf9cd14736ced48d	-0.028142082901201838
69	0xbf5105d9a8c5ea17	-0.001038992460137172
70	0x3f956959b2402847	0.02090969229178821
71	0x3fc10b76cea0d24a	0.13316235627429968
72	0xbf8a4f43177e9b23	-0.012846492914673718
73	0x3fb1f453e0527aa7	0.07013439394584485
74	0xbfb47fa0a61003fe	-0.08007244161855451
75	0x3fba299132cd7af1	0.1021967648534703
76	0xbf9f53129380dce8	-0.030590334179774553
77	0xbf941a9b1de33ee7	-0.019632743548583156
78	0xbfaf31195961878d	-0.060921470795405865
79	0xbfa981504e51ad86	-0.04981471019786014
80	0xbfab1215f1123d5e	-0.052872358014719664
81	0xbfa0f46fed197aa7	-0.033114907925427865
82	0x3f7604d34cb5f0b7	0.005375695599806266
83	0xbf80e1c67cd9ebe0	-0.008243132290990773
84	0x3fa84b1b706e5236	0.04744802234123251
85	0xbfbe33dbd2ac4c57	-0.11797880071053278
86	0x3f7229dde93e5439	0.004434458580267858
87	0xbfbab80f18c8b166	-0.10437101702763626
88	0xbfa132f7b42f64c4	-0.03359197687650231
89	0xbf8a809b8b14ba70	-0.012940612012781488
90	0x3f42a81112a54999	0.000569351517052663
91	0xbfbc2df75323e674	-0.1100763872126665
92	0xbfbac63165a6245b	-0.10458668452896928
93	0xbf9cf6c0710491ba	-0.028285033128797578
94	0xbfc1ed6dd111cbea	-0.1400582571837668
95	0x3f80f3b6c04a8cd0	0.008277347319852885
96	0x3f87db807576c6a3	0.011649135193553766
97	0xbfa804b39a265147	-0.046910870139216736
98	0xbfba89961884c443	-0.10366190050696482
99	0x3f9a8a94aeb4dd40	0.02591926876376971
100	0xbfa36459ef7557fe	-0.03787499473644117
101	0xbf92e9776296e553	-0.018468728439733195
102	0x3f9725a46de1c79c	0.02260453148523532
103	0xbfbd0c446fa720ba	-0.11346843458079806
104	0xbfb8f57f022b1fbd	-0.09749597361508129
105	0x3fb0686a272b7f42	0.06409324127480168
106	0xbf84aeb374b29b75	-0.010098840712385851
107	0xbfab7860fdfe147a	-0.05365279293531784
108	0x3fa62e8fd5d78006	0.043323988775000585
109	0x3fb1be44a9329343	0.06930951243209642
110	0x3f8eac62100b209f	0.014977232088668578
111	0x3faa70dfdfc910be	0.05164241415744318
112	0x3f946dc53d1c68e6	0.01994999108783526
113	0x3f87d0ea6f80246d	0.011628943946577952
114	0xbfb6a7c6529e911c	-0.0884975387294315
115	0x3f9a7da6510ebfa4	0.02586994046913528
116	0x3f8cdc079a804803	0.014091548349856714
117	0xbfbab733907cb6fe	-0.10435793187636119
118	0xbfbab22dd641007a	-0.10428129654701648
119	0x3fa3612a53b5ecd8	0.037850687712273234
120	0x3faef12a867daab4	0.06043370143637131
121	0xbfb215e08f889939	-0.07064631942975987
122	0x3fa657f5f58b8d00	0.04363983747841793
123	0xbfbc6ef71046322f	-0.11106819293326774
124	0xbfa7617bd0306df4	-0.045665616191595065
125	0xbfad428f18d2ec8c	-0.0571484296610488
126	0xbfb7cd68d9d92813	-0.09297805136262154
127	0x3fb636e5d2065b6b	0.08677517297324548
128	0xbfb28b354767c6af	-0.07243664735122012
129	0x3fa7bb41d2a82d28	0.0463505334519943
130	0x3f8ebdbd329c7f99	0.015010336024317715
131	0xbf97d62d7ef84998	-0.023277960657716784
132	0xbfb43a9101350f9c	-0.07901865272020675
133	0x3fa2539413da6e38	0.035793902801028954
134	0x3fac7112f468e4da	0.055550186476873
135	0xbfc1420e1419d309	-0.1348283384465037
136	0x3fad98ea5a8ed7d8	0.057807277254525224
137	0x3f918aff49e33136	0.01713179481957746
138	0x3fa5bc5bd47281ba	0.042452687915332146
139	0xbfb5494428d39021	-0.0831492042230484
140	0xbfb52741c2b91d48	-0.08263026241285332
141	0x3f914d7f6fa4e02a	0.016897193135463486
142	0xbfa713ff9d4b7606	-0.04507445139982384
143	0x3fab202ba305e82c	0.052979816103246286
144	0xbfb39b9bb0c3c2d2	-0.07659314218086458
145	0xbf8fc312bf446fdb	-0.015508791410461178
146	0xbfadcbceac837c9a	-0.05819555145148421
147	0xbf930f8bb42c29df	-0.018613989707810915
148	0x3fa16efc219ba591	0.034049872496164764
149	0x3fb27bf72253bb24	0.07220406139434182
150	0xbf9319f23235d521	-0.018653663935272683
151	0xbfb1010f70a63ab2	-0.06642242908695087
152	0x3f78ca6fde7b98fa	0.006052433956688081
153	0x3f97c2f014f1e9fb	0.023204566267375864
154	0xbfb459b74ef66ff1	-0.07949395826148
155	0x3fb5f62e21017db2	0.08578766160780196
156	0xbfbac4450dce6416	-0.10455733859124935
157	0xbfbcdea1c971d348	-0.11277209442216674
158	0xbfb43814e8d2b280	-0.07898073848873288
159	0x3fb5f4bf7b504c1a	0.08576580772960121
160	0x3fa8b1a6d7162385	0.04823037505690934
161	0xbf99dd2f9bffce20	-0.02525782003063004
162	0x3f939e0373eb251b	0.019157461118799107
163	0xbfb46c2f3e2dea58	-0.07977576511431417
164	0x3faa57b50ea1e2cf	0.051450403248002645
165	0xbfbd55c0ee606efb	-0.11458974666350834
166	0x3f962bf5eb7e007b	0.021652071474364192
167	0xbfadc48a82933a19	-0.0581401142495574
168	0xbfb2f18fe9b339b8	-0.07399844604080996
169	0xbf8a124feec0538b	-0.012730240319834404
170	0xbfb0822cb0a19a34	-0.06448630630766489
171	0xbfb744718eb82fc6	-0.09088811621057777
172	0x3fa6e35bcb8a7d99	0.0447033582652196
173	0xbf51b466509bece1	-0.0010806082886450285
174	0x3fb82020d42c1315	0.09424023799881483
175	0x3fba501562bbe776	0.10278447781084118
176	0xbfab980f1cdf88f8	-0.05389449336486679
177	0x3fb2686909275e6f	0.071905674681483
178	0xbf640646e5d7e2cf	-0.002444399330439807
179	0xbfa75153c8ac4524	-0.04554235291119316
180	0x3fb36dca5307c4f8	0.07589401747806679
181	0x3faa1cf3240b0d1b	0.0510021192071923
182	0x3fa71fd248f84830	0.04516465321297891
183	0x3fa520e05becbae8	0.04126645204666152
184	0xbfb9d36b9b0a57a5	-0.10088226828733456
185	0xbfb3dfb91f547c45	-0.07763249411480995
186	0x3f99fa61d7ea4375	0.025369194796954504
187	0x3f7a5c8f2ef5322b	0.006435927686947933
188	0x3f926bbe16913e9d	0.01798913014164204
189	0xbf7ef77b9e9b23f5	-0.007560236824880375
190	0xbfbac3ac446de745	-0.10454823179852919
191	0xbfb8ab3775c819ac	-0.0963625586083256
192	0xbfbae500dffdcc2c	-0.10505681484737356
193	0xbfbe4be8c1a00a94	-0.11834578253914635
194	0xbf976825ab6ab4eb	-0.022858227336361486
195	0x3fa47d3995f3cae7	0.040017890505529334
196	0xbfbb6139f989d658	-0.10695230810400724
197	0x3f8b4404d758a2de	0.013313329526753955
198	0xbfb9d5725f3b380d	-0.10091318917258736
199	0xbfc19ce2b0458c8c	-0.13760026556983396
200	0x3f7134012ebe11bb	0.0041999860949357105
201	0xbfb399fa70dc1c37	-0.07656827216497751
202	0xbfbcfc2774a7da66	-0.11322256658591243
203	0x3f9eb1c90c705d5d	0.029975072273456294
204	0xbfb1c4cd7d3a787e	-0.06940922076543818
205	0xbfb692c037837bd4	-0.08817674022019101
206	0xbfb44bebb5e8aa33	-0.07928345862516366
207	0xbfa4d68ed816323c	-0.04069944751526974
208	0xbfb5f79bb303ad3d	-0.08580945129840685
209	0x3f648ac0697eb009	0.0025075681732769123
210	0x3fad1a9b3d699466	0.056843615767129305
211	0xbf9fa96635be5554	-0.03091964438461521
212	0x3fa0982c680b7343	0.032410991383335495
213	0x3fb0fc5c549cf28b	0.06635071817158626
214	0x3fa33fac7d539737	0.037595167444847304
215	0xbfa1c6c4b8f5ef3b	-0.034719607904632764
216	0xbfc00015b3ff9fe2	-0.12500258721342933
217	0xbfb75a3619cbae46	-0.09122026567245553
218	0xbfc11bb572ce8794	-0.1336581049518456
219	0x3f860584ada83650	0.010752712773889034
220	0xbfa9eab5de99e03c	-0.05061882345484078
221	0x3fa4ea69ad7b633f	0.040850927760124105
222	0x3fa8196b36b95dd8	0.04706893008249907
223	0xbfac453dc9fd5f95	-0.055215769679022454
224	0xbf75d815598a128c	-0.005333026311408983
225	0x3fa3f47ff3826523	0.03897476050878825
226	0xbf9a562e6d755ff3	-0.025719380789581647
227	0x3fa7dd3d61f9e684	0.046609800538999685
228	0xbf82080e39172552	-0.008804427258740564
229	0x3f72dbb77eec2f82	0.004604069500384502
230	0x3fa205c1dc080f7a	0.03520017443591335
231	0xbfb31f2107e613a3	-0.07469374125328314
232	0xbfb778e2f1f10958	-0.09168833166862578
233	0x3f5a13e0998a2b9d	0.00159165319033392
234	0x3f8a4c1e2ef2ca8a	0.012840495879890019
235	0xbfb0d3d51a625177	-0.0657323064245413
236	0x3fa8907987b70b6f	0.04797725469281643
237	0xbfae79a3092a594f	-0.05952176558382637
238	0x3fb4cf3dddea5e71	0.08128725688799833
239	0x3f810b1d20737fc5	0.00832197909625155
240	0xbfac6a9d58f21de9	-0.05550090513957768
241	0xbf91abe5e669ea8e	-0.01725730151017984
242	0xbf9906c8fe9a4ffe	-0.024439945735664985
243	0xbfa5430e3b4b2ab2	-0.04152721856879306
244	0x3fa6dd4bb68c58c7	0.04465710261699623
245	0xbf9bae04e5765cba	-0.027031017785330326
246	0x3fa0dde3136c7249	0.0329428635797951
247	0xbfa5866305c3023c	-0.04204091496786019
248	0xbfba4e8596c6c9e1	-0.10276064807002384
249	0xbfa86d9f4c27d591	-0.04771135143884487
250	0xbfaf673f4562fadd	-0.061334588260697244
251	0x3fa43c2325b9f46d	0.039521311145087924
252	0xbfb017181e3ff255	-0.06285238970299052
253	0xbf8334903f44a1aa	-0.009377600603856024
254	0xbfb431f10f230ad7	-0.07888704890778385
255	0xbfba0e4c93b0bf7b	-0.10178068738673389

y_convs.0.bias f8 [16]
0	0x3fc1c9d903182d59	0.13897240305991934
1	0xbefea6a392adf52c	-2.9231007981679925e-05
2	0x3fa8f8f7d4781d4a	0.0487744757520497
3	0xbfa7ead633d3ab67	-0.04671353705074104
4	0x3fb02ca68001d4f7	0.0631813108937712
5	0xbfbad4b8664caa7a	-0.10480835435434158
6	0xbfc3d906653f9010	-0.15506057685627228
7	0x3faddac28909dde8	0.058309630611741714
8	0x3fb5f5bfd1bce0fc	0.08578108664085343
9	0x3fbde2f86ae4cb34	0.11674454316816424
10	0x3fa7a5991103e1d6	0.046185286833807446
11	0x3fb3e8584619f8ec	0.077764050593007
12	0xbfc318e6316448aa	-0.149197363011415
13	0xbfb00197385b58af	-0.06252427221201871
14	0xbfabe85ea0fdafdb	-0.0545072146913694
15	0x3f90a9c111e989e7	0.01627256080463182

n_convs.0.weight f8 [32, 4, 3]
0	0xbfd2d45f338e5634	-0.29421215090528396
1	0xbfcfc0311d23a515	-0.24805272982420293
2	0x3fc842aeab340c91	0.1895349822953887
3	0x3fc1343c322991d2	0.1344065899785521
4	0x3fc541d4867ade93	0.16607147756962046
5	0x3fd22e81d8bcb340	0.28408857503636753
6	0xbfc5a85872ad0dd3	-0.16919999694265062
7	0xbfbe73d93521870f	-0.11895520732062102
8	0x3fc8ef1ff2dc08b2	0.19479750975012206
9	0xbf6274d991f48174	-0.002252983991312069
10	0xbfd63aea7d3f55d8	-0.34734594565574417
11	0xbfb296891133b056	-0.07260948820084087
12	0x3f80249a0ce7d092	0.007882312315793425
13	0x3fc4da79eb981667	0.16291736606233373
14	0x3faa5c868a3171de	0.05148716389587425
15	0x3fd3461d4b1d126b	0.30115444503125016
16	0xbfc4b5bf1927a0de	-0.161796462328545
17	0x3fd048f4d434bcf5	0.25445290301554674
18	0xbfbe5b0af417e07a	-0.11857670268352818
19	0x3fa88110934b87e4	0.0478596858790892
20	0xbfc06b0a2b342c76	-0.12826659307060922
21	0xbfcdd506514ef269	-0.23306349725853018
22	0x3f90d1c7f195c931	0.016425251121696852
23	0xbfd1fdeb4262764e	-0.2811229847228319
24	0xbfcd2c4cdc78dfbd	-0.22791443600885755
25	0xbfb82eea16bb156d	-0.09446585707617823
26	0x3fb8af52cfe76ea7	0.09642522407323871
27	0xbfd45ff826bdd951	-0.31835750373229127
28	0x3fa47b5bd39c44f0	0.04000365217337698
29	0xbfcb2351a9865376	-0.21201535012792377
30	0x3fc5d1ed97f99ad3	0.17046899719863137
31	0x3fc685bd073f3a28	0.17595637182098867
32	0xbfd13cd7989cf14f	-0.2693385115014921
33	0xbfd25f552c221593	-0.2870686465251648
34	0x3fcc1c4af222bbff	0.21961342642813972
35	0x3fc1172e3ef44a24	0.13351991723955436
36	0x3fd0484f49ec4889	0.25441343516389076
37	0xbfc26b6fa80b7853	-0.14390369134247524
38	0x3fc0046c0d7fc8e8	0.1251349512018074
39	0xbfac6e37ec3ebd2a	-0.05552840002871513
40	0xbfb87cd1febc6518	-0.0956546065248357
41	0xbfb77957fd446a32	-0.09169530804903372
42	0x3fc408d7faeeae30	0.1565198874717324
43	0x3fcc6a18cd9d2505	0.2219878200506075
44	0xbfd1da0fb58992ee	-0.2789344094110636
45	0xbfc8c054a0cabf1e	-0.19336946345492206
46	0xbfba75059da96701	-0.10334811305201798
47	0xbfc7a78ac7b20fe4	-0.1848004794193222
48	0x3faae8fc104b42c5	0.052558781613361506
49	0xbfd2c49043cf8009	-0.2932472860538842
50	0xbfa775cc644d6374	-0.04582060551064773
51	0xbfb1f0d156354e09	-0.07008083681767387
52	0x3fcc7bfaa124b156	0.22253353946997362
53	0xbf9817c3b0485cb7	-0.023528154024543748
54	0xbf98e16b3a7094ad	-0.024297404710655602
55	0x3fb586f8d41417ac	0.08409075906464974
56	0x3faccb43f1e0c722	0.05623829200375342
57	0xbfc588c7f2d1b26b	-0.16823672634508866
58	0xbfc9f84e2e17acb9	-0.2028901791630682
59	0xbfd6d3f76c56bab8	-0.35668740825614575
60	0x3fd0395ac47f5eed	0.25350064458096605
61	0xbf6e4c88011e8a3a	-0.003698602326907688
62	0x3f989390e2d2d136	0.024000419468124444
63	0xbfb1a0dd348b1c9e	-0.06886084111021026
64	0x3fb2cc192b9ad826	0.07342679323741716
65	0xbfc8c94073a4a58f	-0.19364171644819492
66	0xbfce34de8ecb211b	-0.23598844501817315
67	0xbfc3ee94427524f8	-0.15571835751533292
68	0x3fca2284b5bf0301	0.20417841791461203
69	0xbfc6ba904688e372	-0.17756846851423408
70	0x3fd31809be104c24	0.2983421665277908
71	0xbfcf4f32e9874c1b	-0.2446044578815368
72	0xbfb748dc55b4981a	-0.09095551578920472
73	0xbfc4f91b8636021a	-0.16385215810079573
74	0x3fb4e9cea3ca834c	0.08169261454396554
75	0xbfbc9ffc991d7140	-0.11181620348128707
76	0xbfac3d39c5b556b6	-0.05515461481506405
77	0xbf7b3c5124e0ff05	-0.00664931961915705
78	0xbfa6f2a585f1b316	-0.044819996452906505
79	0xbfc3f31c96a64fb4	-0.15585667949619408
80	0x3fd42e9ddde42bb2	0.31534525555678805
81	0xbfb460e61e0b01c7	-0.0796035598132284
82	0x3fcd54a8eef14c8d	0.22914611498945128
83	0xbfa050ca04eb8aa4	-0.031866372204395504
84	0x3fc3ea06b1065d08	0.15557941097061012
85	0x3fb1c1a1e48f3b56	0.06936084585252664
86	0xbfc81f3c42a9ad4e	-0.18845322852153362
87	0xbf9c6cbc76694738	-0.027758545615433422
88	0xbfbca4514bf6d7fd	-0.11188228706927812
89	0xbf94469ed207162c	-0.019800645417282478
90	0x3fcaadff885a7609	0.20843500287894326
91	0x3fc0be20f3c5d207	0.1308022680565417
92	0x3fbece35d5d4c46b	0.12033401937948589
93	0x3f775f7b6886afc5	0.005706293166820535
94	0xbfcb1696ea70b04e	-0.21162687728190338
95	0xbfc0ed96014a6a52	-0.13225054801007957
96	0xbf8ed78cc2140c09	-0.015059566185760447
97	0x3fc90acd3c6ad687	0.19564214181962233
98	0xbfcc64bed5370a72	-0.22182450686348748
99	0x3fd0157c53c5abb2	0.25131138020395405
100	0xbf9b87d96439e53d	-0.026885411016768435
101	0x3fcdff2be0d32e58	0.2343497131135901
102	0xbfcf767ab36bcd17	-0.24580320130153474
103	0x3fca475dff78902c	0.20530295347373462
104	0xbfd3a884820ea230	-0.30716049862761263
105	0x3fbfa04c2f6b91d2	0.12353969724387717
106	0xbf9df9a5eae3d70a	-0.02927264448313508
107	0x3fb70d0fd07bc964	0.09004305686884134
108	0xbfb483df8e30e0fa	-0.08013722630937883
109	0xbfa55971fc6accdf	-0.0416980381609393
110	0xbfa1bc381fe5e7ee	-0.03463912381535282
111	0x3fce18a113572593	0.2351266235767012
112	0x3fc8bae6a71b5f2e	0.19320376548307067
113	0xbf99513b61b26e5c	-0.024723937833739704
114	0x3fc011f79533664b	0.12554831299967115
115	0x3f7f3e1e91352e55	0.0076276010543768384
116	0xbfd29ef32ce6431b	-0.2909515322181037
117	0xbfc1c878c95ee33d	-0.13893041451026447
118	0x3fb5bf62376e702c	0.08495153287225382
119	0x3fc2fee499aa1e9d	0.14840371611739026
120	0x3fc69a86ca09e936	0.1765907751576578
121	0xbfc0c4c123d7291b	-0.13100446939490315
122	0xbfb042fc7ce1a8ef	-0.06352212952484469
123	0x3fa821c66515cc96	0.04713268264722463
124	0xbfc6e10e13097757	-0.17874313287296204
125	0xbfb2d2d7f0b0c4b7	-0.07352971674187612
126	0x3fbc7af87aba1a0d	0.11125138279212639
127	0xbfd17341549e421f	-0.27265961898322816
128	0xbfb2b3258375b5b2	-0.0730460592219149
129	0x3fb61781ebdc9565	0.08629619606343437
130	0x3fc53567db1bf225	0.1656923122281039
131	0x3fc44fdc4660eac2	0.15868714748815732
132	0xbfc666205d20729a	-0.1749916510315373
133	0xbfa3fd5f056934e7	-0.039042443666952135
134	0x3fb2df20bcfc57bf	0.07371716131123572
135	0xbfc379f312f3167e	-0.15215910363456325
136	0xbfce7a52442b6185	-0.23810795143687016
137	0x3fcb7abc57b329c8	0.21468309671611352
138	0xbf7e46818e2f1076	-0.007391458583644197
139	0x3fc7d066913a885f	0.1860473832248912
140	0x3fb8d2adee6058c2	0.09696471280799115
141	0xbf87ce60c5e28b21	-0.01162410358330629
142	0xbfbefdf87aa69212	-0.12106278414155039
143	0xbfd2a7f2244763c6	-0.2915006021772196
144	0x3fc585bfb0654ab2	0.16814418900556444
145	0xbfccae087afee4a0	-0.22406106954239124
146	0x3fc339395130bc5d	0.15018383468984356
147	0xbfd40623c950f800	-0.31287474307816865
148	0x3f860045badc9eb5	0.010742707028455237
149	0x3f87e509b0e06879	0.011667323789925842
150	0x3fa34d83223170d1	0.037700746463743
151	0xbf909fbeb789e43a	-0.016234378769216053
152	0xbfb038243c5c8c4f	-0.06335665200872252
153	0xbfc609ee9bc0c374	-0.17217810254217236
154	0x3fd63cf749778ebf	0.34747106718553405
155	0xbfb6da66328034c6	-0.08927000744752708
156	0x3fbb680389cc14b5	0.10705587495984299
157	0x3fc9c25aa610c250	0.20124371632256777
158	0x3fce062727672a1c	0.2345627729794878
159	0x3fd048735d9926e0	0.2544220365567593
160	0x3fb739ac63f6cfc0	0.09072377625017136
161	0x3fcf423b36713350	0.2442087188559534
162	0x3fc0fb61940e12b6	0.13267154435393075
163	0x3f9d730cdc49fad8	0.028759194321987674
164	0x3fc2f81c6d9b12a8	0.14819674827426366
165	0xbfb895466a064d4d	-0.0960277565812266
166	0xbfca472769c624f4	-0.20529644646402512
167	0xbfd10d637b5bdd4d	-0.2664421753574587
168	0x3fc6b72e3e0fa028	0.17746522932361697
169	0x3f77831dca3d0460	0.00574027668682317
170	0x3fc44df1048e97d2	0.15862858507642713
171	0x3fc5b828297ada2a	0.16968252206216167
172	0xbfa10e03c300449f	-0.033310048631514315
173	0x3fca3c8edd0532d9	0.20497308532721695
174	0x3fc27c51c0da40a6	0.14441892544391982
175	0xbf69d1d3a17da022	-0.0031518109716906087
176	0x3fc9e28c731df4c9	0.20222621556232515
177	0xbfb5e9a300b00fdb	-0.08559626356878829
178	0xbfd2b5389ffee6ac	-0.2923108637292937
179	0xbfb771bbb7ca3474	-0.09157918202454757
180	0x3fc9bacf795aeb03	0.20101350236458168
181	0x3f8ad52c1b682169	0.013101906381977018
182	0x3fc359c85e9a8118	0.1511774503642378
183	0x3fc5233e9f045ca3	0.165138080258406
184	0xbfd720a7b498fcf5	-0.3613681090973409
185	0xbfabf434175f11b4	-0.05459749970717401
186	0xbfb7577f606cae94	-0.09117885688891142
187	0xbfb99da520432fb7	-0.1000617221608867
188	0xbfc76fb33e937bdf	-0.183096318773976
189	0xbfcc42e273653a9c	-0.2207911551908709
190	0x3fca7d85d85d4d62	0.20695565285368916
191	0xbfc536b608d211cc	-0.16573214941685277
192	0x3fb993d4b91a69b8	0.09991197127457141
193	0xbfb54ab1056507cf	-0.08317095166879017
194	0xbfa7fd57aacf13bb	-0.04685472450322644
195	0xbfa54e3b12c1ad9f	-0.04161247829400882
196	0xbfb13752288b1274	-0.06725038041902015
197	0xbfc01b30b2bbcee4	-0.12582977988460364
198	0x3f90dc79a2a62751	0.016466045906361974
199	0xbfad9c0883c30b1c	-0.05783106430455673
200	0xbf92eed304282ec9	-0.018489167336197796
201	0xbf9893cbcd4e6c2c	-0.024001297384170936
202	0x3fd4b01c83248de5	0.3232489853564558
203	0xbfbc244eeee5d6ad	-0.10992902119127264
204	0xbfcb31e57c47d439	-0.21246021812808794
205	0x3fc1bbe55c11040f	0.13854662890847222
206	0xbfb59dd4642a1925	-0.08443953938885736
207	0xbfb9020c6b50b4be	-0.09768750782014288
208	0x3fbc6888ed0e39d3	0.11097007548799036
209	0xbfcec9d95be383cd	-0.24053494440798176
210	0xbfa73bc942140ec7	-0.045378007236676114
211	0xbfcdfebb52361d87	-0.2343362952635568
212	0x3fc1d644b424296c	0.1393514518352491
213	0x3fc13dbce960dd12	0.13469659228733427
214	0x3fc0a3ca5b752eb9	0.12999848809919515
215	0xbfd549a75de3ccef	-0.33262046975069287
216	0xbfb3a6e71e74fa99	-0.07676548474862911
217	0x3f9e1bfd00c7e1e4	0.02940364186540191
218	0xbf9dca0972c258de	-0.02909102213796976
219	0x3fb7415b00865fe9	0.09084099543395009
220	0x3fd41ce085d2ec28	0.3142625147699527
221	0x3fd56fc53484a92d	0.3349469197152242
222	0xbfbd1e5e6fbcf120	-0.11374464252452698
223	0x3fc197fa95b58ea3	0.13745052633304508
224	0x3fb3963e559eca8c	0.07651128378237554
225	0xbfcd14e1ec0d329c	-0.2271997835727192
226	0xbfc4f725719fc150	-0.16379230545090673
227	0xbfb1e746de7d3642	-0.06993525440085427
228	0x3fb9413b2d3d56c4	0.09865159849627064
229	0x3fced14a3ea28a74	0.24076202448221162
230	0xbf9412577c1c4ee5	-0.019601218175991603
231	0xbfbd4a8d8281e5bf	-0.11441883503166304
232	0xbfc966a390ff265a	-0.19844479160228695
233	0xbfb10d5b2d4c3354	-0.06661004882716998
234	0xbf9446850945bedf	-0.01980026120275979
235	0x3fc98afa6d304a02	0.19955377894855536
236	0xbfc9a4d4d6a17451	-0.20034275512708402
237	0xbfd2926b08b0fabc	-0.2901866516948919
238	0xbfd28204bdf191c1	-0.2891857008856072
239	0x3fb3be94c4fa5d25	0.0771267872718125
240	0xbfb444960c4c0ab3	-0.07917154121609364
241	0x3fb8642fdfa8b77a	0.09527873239923493
242	0xbf8633cc50262bbe	-0.010840984531361172
243	0xbfbc4ca2ff5e4ca8	-0.11054438337878258
244	0xbfb55d620b0d420f	-0.08345616121119569
245	0x3faebf60bd95e379	0.06005384744907522
246	0x3f9e7aa435bcd4e3	0.029764714984783402
247	0xbf999bd20314a505	-0.025008469999339606
248	0xbfb7e35afa3b4088	-0.09331291779676765
249	0x3fd3643e6af17f3a	0.3029933971756581
250	0x3fc77b94ec1d5d9d	0.18345891503370818
251	0xbfc8970d373c5dad	-0.19210972973881493
252	0x3fcd4ca411aaecee	0.2289013944881399
253	0xbfd2d5064e2ff9d4	-0.2942519916104207
254	0xbf98c626c11695bd	-0.024193387541932888
255	0x3fb7675d1e4a0b4d	0.09142095555766368

n_convs.0.bias f8 [32]
0	0x3fcb04dc12898477	0.2110858049882471
1	0xbfb9987be8eab3f4	-0.09998297153897778
2	0x3fcc2288e35f1c1f	0.21980391599774493
3	0xbfb3082c952b34c5	-0.07434347764793177
4	0x3fc72e45adb7cdc3	0.1810996149284688
5	0xbfd0f8bd284c8268	-0.26518181739269275
6	0xbfaef1b5d8839f6e	-0.060437853507948044
7	0x3fb5183fb3f04525	0.08240125792533044
8	0x3f9999cdf4668d77	0.025000780145672388
9	0xbfb0d467a8eb636f	-0.06574104188929451
10	0x3fb1af115b2e1293	0.06907757259439
11	0x3fc7b8d397a52584	0.18532795815034941
12	0xbfb8fa4751191b65	-0.09756894807752088
13	0xbfc8ebf99fccf3e5	-0.19470138838542464
14	0xbfb40d8967c8bb09	-0.07833155425826645
15	0x3fc56d7ebc5e5130	0.1674040241019923
16	0xbf87603e76c10504	-0.01141403961094279
17	0x3fc1d5a77735c4e3	0.13933270760347857
18	0xbfc59004febe6f0a	-0.16845762671152215
19	0x3fbc8da1450c9633	0.1115361016823833
20	0x3faf90c57a6c3063	0.061651393121878305
21	0x3fb799a032b6a36d	0.09218789327736739
22	0x3fb5206f46e0bc21	0.0825261638681103
23	0x3fb6d8fcc644a2fe	0.08924846497087555
24	0x3fbdb7094c58f1cc	0.11607416261626397
25	0x3fb50520aa0cf41a	0.08210949088693589
26	0xbf9d3ed0e8061bfc	-0.0285599366775635
27	0xbfc5539fbc632739	-0.16661450098609423
28	0xbfcd459f476d0c80	-0.22868720042797364
29	0x3fcc3af05dd82fbb	0.22054867346048276
30	0x3fb62c06739a8339	0.08660927126267105
31	0x3fa39197b257393e	0.03822015811930378

n_convs.1.weight f8 [64, 32, 5]
0	0xbfa0aba3922ba19b	-0.032559501259871136
1	0xbfb076fa5d51564f	-0.06431545999779441
2	0xbf76a8a931f9501c	-0.005531941336432335
3	0x3f9884c6c3134101	0.023944001823850595
4	0x3f959b19e84436a9	0.02109947662488901
5	0xbfa6ea31a73fffe7	-0.0447555081045719
6	0xbfbb2c869197e38a	-0.10614815763973531
7	0x3fb2e222a44953ea	0.07376305113696416
8	0xbfa1e8694d7548b4	-0.034976282792415075
9	0x3fad0e4638e9108e	0.0567495293112482
10	0xbf71e99bbd4d6528	-0.0043731769154303005
11	0x3f78d40efa917529	0.006061609755389421
12	0xbf749671a7eeb040	-0.005026287049002376
13	0xbfab5d2f565856a1	-0.0534453194524478
14	0x3fa636a11b119664	0.04338553862980346
15	0x3fab1df983981327	0.052963063539243564
16	0x3f951ae613f55d36	0.02061042305771573
17	0xbfa91ceb59e3aa2a	-0.04904876205712967
18	0xbfc0668dc10327d0	-0.12812969135694496
19	0x3f9da0ed5d63f16e	0.028934201073739833
20	0x3f7dc1252e936188	0.007264275781573189
21	0xbfbcaa32e364180f	-0.11197202731645482
22	0xbfb744b429776924	-0.09089208614696936
23	0xbf9856a04fc098d1	-0.02376795279283145
24	0x3fa83208c2069414	0.04725673073270556
25	0x3fa334335b5bccf5	0.037507634069607144
26	0xbfbdb65a7aa83f70	-0.1160637425857638
27	0x3f87eecbb4eae29a	0.011685935457863384
28	0xbfb586a60996c61c	-0.08408582433801154
29	0x3f9cf25c86d6e199	0.028268285493795984
30	0x3f72070b09369f81	0.0044012480824803255
31	0xbfa808497bada986	-0.04693822512384131
32	0x3fb0328e1c741d33	0.06327140993754625
33	0xbf88d604aa54f405	-0.012126957367053501
34	0x3f869df3ab016e5e	0.011043456703354323
35	0x3f92e9c7c76c135a	0.018469926401866267
36	0xbfabf60c9db2be97	-0.05461158204104526
37	0xbfb7d658e4d934ba	-0.09311442935104966
38	0x3f90a09c51a5c5bb	0.01623768089615905
39	0x3f761bd367103572	0.005397630492564575
40	0xbf9adaab43024e27	-0.02622478100290784
41	0xbfa02cb44660f4c8	-0.03159106597056788
42	0xbf98ec7a2f625930	-0.024339589254475047
43	0x3fabe2fabf9a4eed	0.054466091050157185
44	0xbf82a3e01d5cddff	-0.009101630111771007
45	0xbfb4325eb53d98f7	-0.078893584488103
46	0x3f9497e4294db187	0.02011066915604112
47	0xbfa4b47549c26f3d	-0.04043928647408144
48	0xbfb7ade32955d86f	-0.09249706038630888
49	0x3f825b40fa4027b1	0.008963115345995339
50	0xbfaa55527a86ceba	-0.05143220658956467
51	0x3fa1b5cac327cf7a	0.03459008819837002
52	0x3f8ac797769d5b6c	0.01307600336774125
53	0xbf90c2714dc98beb	-0.016366739628562426
54	0x3f8bc63c62567b06	0.013561698676139777
55	0x3f829138d5626f80	0.009066051494577954
56	0xbfb4b70bd2ee4482	-0.08091806316066832
57	0xbf94e5b6a68a2c6e	-0.020407537379054146
58	0x3fa090d0b4b59889	0.0323548527328948
59	0x3f9ab817f56f374d	0.026092886309746977
60	0x3fb573e031249e8b	0.0837993736246238
61	0x3fa6008c19005da9	0.0429729252356837
62	0x3fadd1d4fdd5e949	0.05824151609972945
63	0xbfb31b093ed73fd6	-0.07463128837775854
64	0x3fbbd4985d309788	0.10871269488469981
65	0xbfb2a9b947d327c6	-0.07290227893386633
66	0xbfc5db333642db06	-0.17075195455046116
67	0xbfb7ef6f091010e1	-0.09349721881159524
68	0xbfaa8b44657a2c4c	-0.05184377421127148
69	0x3fa418300a034094	0.039247037145856783
70	0xbfa2cc1e71ef69ae	-0.03671355381785034
71	0xbfc86aa6ca2f8f1f	-0.1907547461734049
72	0xbfbd5e6a2cba5658	-0.11472190467824228
73	0xbf9e3ef0e0f5de5d	-0.029536975603575367
74	0x3facca1330679667	0.05622920957447946
75	0xbf94b3c7705a99d6	-0.020217052681482738
76	0x3f84f64a5e718d79	0.01023538685530555
77	0xbf9d994affca7d96	-0.028905078756563528
78	0xbfb4e67b975a8703	-0.08164188809544375
79	0xbf7baf882c559c18	-0.006759197165002305
80	0xbf8539bb97bb9c22	-0.010364022796649112
81	0x3f70b70158efba51	0.00408077741938813
82	0x3fa66a05b0413d2c	0.04377763535068832
83	0x3f9bb31fc46de3c0	0.027050491680231437
84	0x3fa2435ed452e158	0.035670245569635994
85	0x3f8f6e230c5e23f0	0.015346788229878755
86	0xbfbec60946caa973	-0.12020929315864297
87	0x3fb7edc4d962db19	0.09347181613234702
88	0x3f958d8d5f02d021	0.021047791408548847
89	0x3fa2f6eb8c308a98	0.03704010092066773
90	0x3f717cb619de477f	0.00426932461950169
91	0xbfbe6d226c48f783	-0.11885275977780733
92	0xbfb94e687d0a4d64	-0.09885266354313199
93	0x3f7ccfdaa8f2662c	0.007034162655281711
94	0x3fb6157bbb47b051	0.08626530954615076
95	0x3fa724b00ba842b0	0.04520177976894979
96	0x3f8fef0d4e22001a	0.01559267420475412
97	0xbfa3918f2f668eee	-0.03821990445729094
98	0xbfa906b1e01435d7	-0.0488792024644728
99	0xbfa607b7910fde59	-0.04302762647415354
100	0x3f9c959db4079f80	0.027914489853997804
101	0xbfa12929af1dd7dd	-0.03351717245725159
102	0x3fa2b0f38db7e022	0.03650628190001749
103	0x3fb174c7f86a7dd7	0.06818818869441344
104	0x3f8ccee387594e0d	0.014066484039324778
105	0x3fb0e1ecd88452cb	0.06594734464699596
106	0xbfb33aa6d645e0d8	-0.0751137040259694
107	0x3fa9d551f0957632	0.050455628030914204
108	0x3fa0afedc7518846	0.03259223039710028
109	0xbfa26718283deae7	-0.03594279757722579
110	0x3f9d8ff5aca25c21	0.028869475042110907
111	0xbfa68de1c2dd4f85	-0.044051222836656335
112	0x3fa73f165b362f2f	0.04540319312499574
113	0x3f6b83bb07f93b1b	0.0033587124778827865
114	0xbf8568e25097976d	-0.0104539566845678
115	0x3faef50ae18ba071	0.06046327594032242
116	0xbfbcb16060493120	-0.11208155012827037
117	0x3fa796a3adb1b7b7	0.046071162178903995
118	0x3fa82b681df6275b	0.04720616689435416
119	0xbf973445ac978c11	-0.02266033998411038
120	0xbfb5d5b9ef8c7b98	-0.08529245470388813
121	0xbfb442aeddabff09	-0.07914250289831783
122	0xbf913372797b711d	-0.01679781786411737
123	0xbf9393bcc1688f0b	-0.019118260674203785
124	0x3fb1e0874e36a18d	0.06983228358752154
125	0x3fa1ade0b1fe478d	0.034529706695265984
126	0x3f92502a74941a9a	0.01788393341578374
127	0xbfb6387329b89220	-0.08679885643557173
128	0xbfb09d8dacba14e5	-0.06490407435383679
129	0xbfa7e46bbe83d4ff	-0.04666458798048189
130	0xbfa29a62c2d6f751	-0.036334120067734184
131	0xbfab0178cef237b3	-0.05274560476492187
132	0x3fb6b2ba56777d71	0.0886646710491641
133	0xbf9ed88ae4215c9c	-0.030122919248552024
134	0x3f9c1656a5ae4e5b	0.027428964483603085
135	0xbf909fd407cbc188	-0.016234696365189843
136	0xbfaf6bf3ca8694d9	-0.06137048575627952
137	0x3f8e68e0f9171f3e	0.014848477937348666
138	0xbfc297a4bc768b54	-0.14525279238031408
139	0xbf610c60077f0564	-0.0020810962268746225
140	0xbfa3e3b6a341038c	-0.03884669058653065
141	0xbf9fc037c344fb02	-0.03100669030504389
142	0xbf3c7f4715faabc6	-0.000434832434602125
143	0x3fa28b03efdbfdca	0.03621685317011332
144	0x3f99553e2e6c44a5	0.02473923834174187
145	0xbfa4f45bd4ed8f3e	-0.04092680906504008
146	0xbfa7701a23efdfe7	-0.04577714623150069
147	0x3f9782e95feb2c4e	0.022960325698289367
148	0x3fb139d5f456bb8f	0.0672887536554596
149	0x3fb65f43081115f9	0.08739108035032207
150	0xbf88e85f41e895b0	-0.012161964606160008
151	0xbf7511d9c33c1a24	-0.0051439768174135515
152	0x3f9b627ab607275a	0.026742856369117753
153	0xbf8cbfd1843df00f	-0.01403773960895907
154	0x3fac9bc8eaf1a2a5	0.05587604396788962
155	0xbf89f85728be73e5	-0.012680703097254617
156	0xbf896aeebe979713	-0.012410988990221783
157	0xbfa8043cf00a22c0	-0.0469073336617547
158	0x3f660ddad72b098a	0.0026921533802532526
159	0xbf9ac434c95eaa7c	-0.02613909224570897
160	0xbfa1e5eb1a7e1aed	-0.03495726297756172
161	0xbfabb1e1bc7f3a58	-0.05409150529850554
162	0xbf92a8ee987ee42f	-0.018222549493405345
163	0xbfb0c8d09f931b2c	-0.06556419273247788
164	0xbfbb2e716f6cc9b3	-0.10617741556487807
165	0xbfac4f3a58a8f3ae	-0.055291961024045974
166	0xbf93a84465e74bd7	-0.019196575851150612
167	0xbfb1e32b06fb8709	-0.06987255974265962
168	0xbfbdce5d9a28c0c3	-0.11643013967182285
169	0x3fa916a83e990e67	0.049000985757200514
170	0x3f805aa365c42a45	0.007985378783378691
171	0xbf9a5e57dafc6abd	-0.025750515690655663
172	0x3f65e0d630566207	0.002670687043700551
173	0xbf9517c45c2758e8	-0.02059847652875471
174	0x3faec4f2b0d67fd5	0.06009634407678247
175	0x3f9df87029af8750	0.029268028778353383
176	0x3fbe71cb1d0b21f4	0.11892384966916564
177	0x3f4f27f473560576	0.0009508079153165833
178	0xbfa8f10bf2ef25a5	-0.048714040188836884
179	0x3f7501145fb86ea4	0.005127982698038078
180	0xbf817daddd9c4f24	-0.008540495229261653
181	0x3fb52ebf94bd7abb	0.08274457341529289
182	0xbfa67360c3bafdd8	-0.04384901418006465
183	0xbfb47b7a0e7bf5a7	-0.08000910619371969
184	0xbfbdf45495b05b92	-0.11700943617357343
185	0x3fb35b1b4acaf8e5	0.07560892654416625
186	0xbf929c343c093c15	-0.01817399612837896
187	0x3fa79413d2b6ba97	0.04605161616506342
188	0xbf899005c231c75a	-0.012481732357830278
189	0x3f80f3a997f40c8e	0.00827724928831788
190	0xbfb89606e254e65f	-0.09603922868418512
191	0xbfb03b26856e7133	-0.06340256459811115
192	0x3f74f28c045b5150	0.005114123288610564
193	0x3f4600cce484d198	0.0006714821293259286
194	0xbf805c6d4a33c15c	-0.007988790347071166
195	0x3faa786649a1f757	0.051699825752605726
196	0xbf9b51414bf14426	-0.026677150974425377
197	0x3f96ef3d108f54ae	0.02239699758122942
198	0x3fa10cd7f3438e29	0.03330111355333216
199	0xbfa0133e48004153	-0.031396814622101
200	0xbf9793cb40a69d92	-0.023024726696943505
201	0x3faa954459db66a7	0.05192006680381427
202	0xbfc11b2a7e2f2573	-0.13364154015861693
203	0x3f9b40fc23d83bce	0.026615085304054813
204	0x3fb367c1c3b724d4	0.07580195453842303
205	0x3f71045f25a58494	0.004154559772673445
206	0xbfa7f4c8f07e3a90	-0.04678943572718197
207	0xbfa1c4ae370ca63b	-0.03470367834081541
208	0x3fa52579e488c356	0.041301545283551164
209	0xbf88edc3e1181342	-0.012172251040291852
210	0xbfaedeed26f490fd	-0.06029454327134152
211	0x3f8979e06bd69eed	0.012439492503133443
212	0x3f78e3938da3ff53	0.0060764087486403105
213	0xbf7d7ec68c56477c	-0.007200980738518822
214	0xbf8c6105f509dac2	-0.013856932201844589
215	0xbfa68be8e6f8a51a	-0.04403617686723234
216	0x3f9f311cb4688481	0.030460785399672567
217	0xbf9027fd119ef6fe	-0.015777544212816068
218	0xbfb9cb4c5d57aa1c	-0.10075833586567068
219	0x3fa11691ca5f9611	0.033375316575796295
220	0xbfa386c90603d07b	-0.038137704834213935
221	0x3fafe612cb80f340	0.06230219587494057
222	0x3fb003a57cbfb246	0.0625556401789221
223	0x3f6b6b5cd74ccedd	0.003347092943295367
224	0x3fa4760e0a0b0ab9	0.039963186956375414
225	0x3fa2653923d072bc	0.03592852174935987
226	0xbfa0d27f9e2db206	-0.03285597616090645
227	0xbfa800a5fc59ceca	-0.046879946760694916
228	0xbf80e233ad249512	-0.008243945809747664
229	0x3f9cfb4dabf6c3df	0.02830239641270171
230	0xbf8aad1df5fd9083	-0.013025507039579281
231	0x3f841bb235842fcd	0.009818451173963095
232	0xbf8210e41b22a941	-0.008821279600245037
233	0xbfbd3d548c0b74c4	-0.11421707552968302
234	0x3f82e2639ee68003	0.009220865523104754
235	0xbfa101022d402e33	-0.033210819267051404
236	0x3fa1953433c496f2	0.03434146053250044
237	0x3f9b35728e3203bf	0.026571073464314084
238	0xbf84ce14e80d29b3	-0.010158694583556427
239	0xbf9e6899b8e953f4	-0.0296958941565499
240	0xbfc540cc7f9ee766	-0.16604000312309636
241	0xbf7983e8a8fc679f	-0.00622931368686777
242	0x3fa01ab4381267e0	0.03145373520347028
243	0x3f8284af17821df7	0.009042137055316408
244	0x3f82a1822ce67231	0.009097115512127637
245	0x3fa8c95eca3588a7	0.048411333259325055
246	0xbf88f6b40b6cbd5e	-0.01218929920068373
247	0xbf91fe61e77e9bc5	-0.01757195449286166
248	0xbfb0bd0cde29cd25	-0.0653846781149708
249	0x3f42a56e908ee1b4	0.0005690374247171921
250	0xbfbba0e780491f99	-0.10792395479177087
251	0x3fa5f5ee34409ff4	0.04289192569586922
252	0xbf83fd450094d624	-0.0097604170610835
253	0xbfbd343bce64f768	-0.11407827176023277
254	0x3fb03a1774885e77	0.06338640780483638
255	0x3fa14fda2836ffd4	0.03381234875587294

n_convs.1.bias f8 [64]
0	0x3fb1fb6754a44053	0.07024236504025909
1	0x3fb446d7fabda852	0.07920598861315511
2	0x3fb017fb6d5e6849	0.06286593837867928
3	0xbfa71eee092d095b	-0.04515785085688392
4	0x3fb54e91c6eb8acd	0.08323012453505925
5	0x3fafd46e84b25bab	0.06216760034401799
6	0xbfa3f96132937ff2	-0.039011990951394085
7	0xbf9e4f1ae0091c78	-0.029598636554763108
8	0xbf8d5df1e526a2b3	-0.014339341931944949
9	0xbf8efdbce1cb08c9	-0.015132403984697966
10	0x3f96b3f309464cb6	0.02217082733257022
11	0x3fa4fb068b8a09f8	0.04097767308578065
12	0x3faea88e2f9c269a	0.059879725753558335
13	0xbfa1a8ab7eaad0b7	-0.03448997422438665
14	0xbf80b806128a4f18	-0.008163497391513938
15	0x3faca7d5155d9182	0.055967959268659065
16	0x3f930872c0a83beb	0.01858691502462399
17	0x3fb4e3a8373deafa	0.08159877155950915
18	0x3fa29616dce9fa90	0.03630134054855205
19	0xbf92515364f602ee	-0.017888358151597332
20	0x3faaddb2b267bc33	0.05247267177389183
21	0xbfae651d9c69470c	-0.059365201323670375
22	0x3fb535e934e7e589	0.08285386602064738
23	0x3fa39fd8c6c6a4e2	0.03832890917267108
24	0xbf9ba6ac4e3f6a8f	-0.027002994800435828
25	0x3f96dbd30ff849e5	0.022322938775752994
26	0x3f8a5d1f0edfcbea	0.012872927323746414
27	0x3f98b9c98d1d5ec2	0.024146222341498776
28	0x3fa43dee171ce474	0.039534988709825664
29	0x3fa4ce10f2574c13	0.04063466032280174
30	0x3fa57bdb883737b5	0.041960583093540484
31	0x3faa896251075e72	0.05182940711136731
32	0x3face89460951a1a	0.056461941518637995
33	0x3f70a12decd646f1	0.004059962649437075
34	0xbf8dd3f7be2b1ae9	-0.014564452639559149
35	0x3f9dec7a594e292e	0.029222404194606692
36	0x3fa3d0548e361173	0.03869880901314362
37	0xbfb0994342ab59f0	-0.06483860376042805
38	0xbf9d7084d2c443d4	-0.028749537815261864
39	0x3f8764db4952ad6c	0.011422837424410935
40	0x3faf5be39ec9ecb7	0.06124793351497131
41	0x3fa9c7021ee83a4f	0.05034643771442814
42	0x3f9f3a872cdfe2fe	0.03049670421021044
43	0xbf7489ec0b2e4731	-0.005014345212559766
44	0x3fb023345b2ee2ba	0.06303717828894664
45	0x3f7a3fbcccdc611c	0.006408441067627526
46	0xbfa9b3bbe1c28bf4	-0.05019938593729725
47	0xbf98861191833d85	-0.02394893122328547
48	0x3fa3c5203f3262e7	0.038613326754050985
49	0xbfa9514bc556beac	-0.0494483641044757
50	0x3f8a496fd24eff0f	0.012835382085426809
51	0xbf905f16144cd6f4	-0.015987725247405174
52	0x3faf9faa5e4b98b8	0.061765026102692244
53	0x3fb28c92dd3b481d	0.07245748425637584
54	0x3fb7b20d30495628	0.09256060055607718
55	0x3f900829e67229ff	0.015656141939453857
56	0x3f9468220f27efb2	0.01992848603730097
57	0x3f8eee96b4f83ebe	0.015103509328610595
58	0x3fbd9c545f8f5ff9	0.11566665013322099
59	0x3fa61ae6f3710cae	0.04317399713229385
60	0x3f8789e6cebd3191	0.011493495163130503
61	0x3f9c65e86dfa89b3	0.027732497894825858
62	0xbf9c37889472c141	-0.027555593548357796
63	0x3fb1f78d542e046b	0.07018359475297735

n_convs.2.weight f8 [128, 64, 9]
0	0x3f84b5b5cb3f6a3e	0.01011220957291414
1	0x3fa59d05a4560289	0.042213608084243744
2	0xbf623fdcb514046b	-0.0022277174654168805
3	0xbfa0d30822bccec8	-0.03286004470865361
4	0xbfba5a33b7c82813	-0.10293887364255765
5	0xbf7f9e9c700ec0df	-0.007719622692931887
6	0xbf7de3ddc7480e6b	-0.007297388383907237
7	0xbf9890c8827711b3	-0.023989804232557876
8	0x3f845e2fde2b14b3	0.009945272414720518
9	0xbf8edc1cbbdb545c	-0.01506826828282664
10	0xbf97b92b3e9ee5c2	-0.023167300889076044
11	0xbfacc901b6035123	-0.05622105929220058
12	0xbf8699b7664483ba	-0.01103537827344946
13	0xbf7f588acda6842c	-0.007652799797512915
14	0xbf99834e6fe173a4	-0.024914956644682143
15	0x3f6a379756a2e8a3	0.0032003360584812054
16	0x3f6489482e7046b7	0.0025068673890097054
17	0x3f73f33e42e8173b	0.00487064667550446
18	0x3f905852f8aa73de	0.015961929728849238
19	0x3fa7c731d52e9cdc	0.04644160964317631
20	0x3f57ad968d51feaa	0.0014451952204409904
21	0x3f5e89b2f89f1136	0.001863884712734421
22	0x3f969604546bbd84	0.02205664410842935
23	0xbf96fb8e32159a4f	-0.022443982893856348
24	0x3f957db670f0ac4c	0.02098736824352114
25	0xbfa8529120feb0fb	-0.04750493552941922
26	0x3f97c81ed84b8ef8	0.02322433657799558
27	0xbf8d980d679734dc	-0.014450173114619984
28	0xbf70eebcf9b44cb5	-0.004133928475556538
29	0xbf988f0526811562	-0.023983078456031655
30	0xbf8fa83f44b47f7d	-0.015457624706470824
31	0xbface6a2b59787e3	-0.05644710985849579
32	0xbf7df6600e5562cd	-0.007315039843285032
33	0x3f9e920504af1c33	0.029853895579233302
34	0xbf9aab33a60b28b4	-0.026043707856651735
35	0x3f80009393284f2a	0.007813599518193454
36	0xbf898829069a7123	-0.012466736330047972
37	0xbf844b89b3f1f8f3	-0.009909702114097451
38	0xbf8215670fe54397	-0.008829884693712304
39	0xbf573b9d2bb2f7d4	-0.0014180216665375849
40	0xbfa71a435cebf12d	-0.045122246830916125
41	0xbf7d998680c64261	-0.007226491358225035
42	0x3f9cdf9c5fe60877	0.028196757653411866
43	0x3f9b2704498829db	0.026516024578123392
44	0x3fa1fa9db7809f15	0.03511517395992151
45	0x3f91918e4e90d8ef	0.017156814141537188
46	0x3f93d75764249e4f	0.01937614964222539
47	0xbf97f37338f14251	-0.023389625883569135
48	0xbf840ca9c7bfb330	-0.009789778145170652
49	0x3fa601f169df715f	0.04298357407944552
50	0xbfa2b88d27480610	-0.036564265294156795
51	0xbfa51c5b7c887377	-0.04123197455576293
52	0xbf60cbd118b9d29c	-0.002050312415855805
53	0xbf9994f241cfb48c	-0.02498224760704608
54	0x3f9029b537bcc7bd	0.015784102942411716
55	0x3f82c7374decf91d	0.009169036927798186
56	0xbf9aa6ba91c47abd	-0.026026644846860892
57	0xbf98fcda321bb9f0	-0.02440205508076504
58	0x3fa71c82d17babf2	0.04513939673582702
59	0x3f951bca5ee39ffd	0.02061382488400908
60	0x3f8f1f1b486bd349	0.015196049831027418
61	0x3f9c9e2e3aa7ea5e	0.027947161035607564
62	0xbf939cdfe45b72a9	-0.01915311652452326
63	0xbfa9d0e436dbdc8a	-0.0504218403784132
64	0xbf6118378977cc30	-0.0020867428499911286
65	0xbf825de5c9edd2f4	-0.008968157982715642
66	0xbf92d6f593552f4a	-0.01839812957523116
67	0x3fa20276c4b46730	0.03517504836254515
68	0x3f677799dfaa4da0	0.002864647421412861
69	0xbfa25862696f1106	-0.03583056962045998
70	0xbf9eee25aaa50fd1	-0.030205334225015982
71	0x3f9bdc3070525c8e	0.027207142692159673
72	0x3f87d2e2bffbfdff	0.01163270138158534
73	0xbfa434fa9e79fb93	-0.03946669754531409
74	0xbf88c367192f4b24	-0.012091451126172333
75	0x3fa6f22f78e00a08	0.04481647825743457
76	0xbfa194cf21c4cb94	-0.03433844840255698
77	0xbfa337ae469e6690	-0.037534185524419006
78	0xbf689001996be72d	-0.0029983550297147028
79	0x3f74f99003b2eac8	0.005120813900414141
80	0x3f74698e85a68b16	0.004983479239316654
81	0x3fa0e5596cbc5645	0.03299979641284926
82	0xbf596d511d3d96c7	-0.0015519420748772315
83	0xbf78ca3e05f3e2a8	-0.006052248266535422
84	0x3f8934e9d17e024c	0.01230795546121146
85	0x3f9c2e28064c155f	0.02751982248721185
86	0x3f664e8807f2e535	0.0027229935509153432
87	0x3fa30367e0c0b99c	0.03713535898747297
88	0xbf7b31e5aad1d748	-0.006639382493735919
89	0xbfa848cb03f4ac61	-0.04743036673820523
90	0x3f83bc66948a8b97	0.009636689575307318
91	0x3f9786ce02bd42d6	0.02297517673224799
92	0xbf80586ebb4d4c5d	-0.007981171694757256
93	0xbfa38668e2ca31b4	-0.03813483971052581
94	0xbfb614255bfd36dd	-0.08624490257099234
95	0x3f7ddbd4a2296a57	0.007289724921600702
96	0xbf8c2d9fc65696c2	-0.013758896103193922
97	0xbf849c889d558e62	-0.010064189244707925
98	0x3f8c5f73323ff69b	0.013853931399349142
99	0x3fa40623e02b50fd	0.03910934554520116
100	0x3f868e5b3ff6ecff	0.011013710870307223
101	0x3f84aff57c90bfdf	0.010101240028319523
102	0xbfa603ae40f71156	-0.042996831350623196
103	0xbfa08ff22ab43a9f	-0.032348220551388744
104	0x3f99e8697eb237ff	0.025300644262237878
105	0x3f79e1908feea83e	0.006318630882484353
106	0x3f8503342bae6773	0.010260016997381638
107	0xbf9bc297e101abe2	-0.027109501941975263
108	0x3fa3ef2f415700ec	0.03893420860868155
109	0x3f8c553c6310c2a2	0.013834449551809517
110	0x3f9b3a69f7f8aae6	0.02659001899716431
111	0x3f97f6eeca602343	0.023402911283514582
112	0x3fa506ff772e1c6a	0.04106901483378851
113	0x3fa132bca5ee0489	0.033590216879937414
114	0x3f84b4b5ef997420	0.010110303282255428
115	0x3fa266adf446e1a2	0.035939632481532216
116	0x3f8fbbbf73f88bb2	0.015494819380426825
117	0xbf978186680393fb	-0.02295503625727589
118	0x3f888d2ceefab5c0	0.011988020937986898
119	0xbf7bbf49df8d1684	-0.006774223868722399
120	0x3f34001ad1d0a5b4	0.0003051820256723917
121	0x3fa2214e1abd64e7	0.035410347713602346
122	0xbf9bbe906b6d9e3b	-0.02709413200082465
123	0x3f975146643c57bf	0.02277097689428564
124	0xbf8c958d3942a716	-0.013957122144649097
125	0xbf92db7b0bb2621b	-0.018415377224842638
126	0x3fa024cbe54c2d50	0.03153073476831969
127	0xbf7643513b4f915e	-0.005435292540799301
128	0x3f92c5fabc410fd8	0.0183333566094602
129	0xbfae4bf441209986	-0.059173233938326894
130	0xbf955bde0b07bc6b	-0.020858258651000144
131	0x3f91f4bfca63a084	0.01753520653520059
132	0xbf85158bf5fae2e9	-0.010295003360952975
133	0xbf95bdba4b8675f3	-0.02123156629533258
134	0x3f6c7f63d9fd19ca	0.0034787130570379287
135	0xbfa406aaa77ff8d1	-0.039113362261547054
136	0x3f76da4774d369cb	0.005579260946627372
137	0x3f94d214e72b480b	0.020332647904815853
138	0xbf8616b90848c074	-0.010785527768433868
139	0xbfa0ecb07c18c11c	-0.03305579676487211
140	0xbfa239af8764b1b5	-0.03559635665655795
141	0xbfa79f0f36cab325	-0.046135402143909134
142	0xbfa734ab985abcac	-0.045323717449144624
143	0x3f9051d9336ccbb4	0.015937227023822678
144	0x3faa8db994d8c6ec	0.05186252538659439
145	0x3f818c5874ed78a4	0.008568469112727968
146	0x3f69359c7caf3f09	0.0030773216617275873
147	0x3f402872dcd114f5	0.0004931031086320691
148	0xbf9ba49c70b1c441	-0.02699512899238621
149	0xbfbc983ad14eaed3	-0.11169784174006318
150	0xbf84939d3822c8f1	-0.010047176623946249
151	0x3f6539ac1704b430	0.0025909768229639626
152	0x3f84bf241633bdf2	0.010130197455935328
153	0xbf6f1fdf42ae9399	-0.003799377494447542
154	0x3f53c6c254cc8bbc	0.0012070558324885758
155	0xbf9b9786b4342d9e	-0.026945214031952262
156	0x3f9a00be529aca3a	0.025393461028850185
157	0xbf9585105287a3f7	-0.021015410458776498
158	0x3f8cff68d3e0e9f4	0.014159029928227242
159	0xbf6438bf3cbd7fcf	-0.0024684653380262277
160	0x3f7e35e85182500b	0.0073756289422313255
161	0x3fa8b1cae09f66b6	0.048231449050672934
162	0xbf92d4b99932e7cb	-0.01838960645248004
163	0xbf6ee354d9c25764	-0.003770509456510961
164	0xbf71e7bba30f042d	-0.004371388394191417
165	0xbf987e3df90940c4	-0.02391907532211303
166	0x3f8cec3a11e13bd8	0.014122441931389604
167	0xbfb2aa441352dc19	-0.07291055175561247
168	0x3f93f16b151e43f5	0.019475625194505814
169	0xbf7c81b61314a129	-0.006959639767309769
170	0x3fa0aeb612253406	0.03258294078350592
171	0xbf7bb85aaac7d600	-0.006767610710530558
172	0xbf8116817e002015	-0.008343707711915763
173	0xbf994274b7b87e3b	-0.024667571748180555
174	0x3fa13e0ccedeacd9	0.0336765291716234
175	0x3f9ec4a4e5f12db6	0.030047012838890295
176	0xbf98a98d7def5a78	-0.024084292231999233
177	0xbfa1302ca3479ac9	-0.03357066624794453
178	0x3f5dbc7af8cb0301	0.0018149567505789113
179	0x3f840f2c145de75f	0.009794563647790687
180	0xbf70b26558901982	-0.0040763815714001134
181	0x3f9d74a54e5981b2	0.028765280634958486
182	0xbf9fb94cc7f87374	-0.030980300622207094
183	0x3f9b2223c66b148a	0.02649742029713712
184	0x3f708ecc47bdd254	0.004042432756126663
185	0xbf9084744d1ea885	-0.016130273062721762
186	0xbf628ed2f10b875f	-0.0022653694107796353
187	0xbf9932d29827be4e	-0.024607935463733015
188	0x3f7fa10124d41dfc	0.007721905201158116
189	0xbf3c635b33d40454	-0.00043316818830880133
190	0x3fa0f7845687e431	0.033138404429287845
191	0x3f8287ea96b25968	0.009048302387139898
192	0x3f8f274d06e9e6f0	0.015211679242600223
193	0xbf86a4c55d126a11	-0.011056463148908542
194	0x3f7f5e7f5d55b83d	0.007658479230810808
195	0x3f9f9af3bc5551c8	0.030864532823516005
196	0x3f8712a5aab9ab97	0.011266035339948561
197	0xbf97882cec2841e8	-0.02298040572537899
198	0xbf6fab6ef830643c	-0.0038659255383320084
199	0x3f9f3ff02d69e75f	0.030517342349845374
200	0xbf676adac1826dfb	-0.0028585693908789156
201	0xbf91564647675a78	-0.016930673702371085
202	0xbf9c7b91b6ba1c4d	-0.02781512906815591
203	0xbf8819236f555057	-0.011766697726365445
204	0xbf74194b133d88a4	-0.004906934034666719
205	0xbf7d67dcd63c0753	-0.007179129260977596
206	0xbf907b1144f55d30	-0.01609446509732243
207	0x3f7fc4364a2c6f8a	0.007755481786059346
208	0xbf83d4d84f9b4847	-0.009683313302421349
209	0x3fa21f6ae11f77a1	0.03539594648439893
210	0xbf9ae8add64543e2	-0.026278225138700047
211	0x3f7e0bfb0a94df4a	0.007335644369326941
212	0xbf91b0a4e0332ba5	-0.017275406059336657
213	0xbf93c02763168ab2	-0.019287696287970398
214	0x3f722820323be141	0.00443279816294534
215	0x3f915e0673b83525	0.016960240185700876
216	0x3f8c8a74803bd91e	0.01393595711077161
217	0x3f7dfab2f6c7214f	0.007319163396865071
218	0x3fa065ca9fe489da	0.032026607530742005
219	0xbfa28cc464907b9c	-0.036230218196798364
220	0xbfa46c37d06de891	-0.039888138001473845
221	0xbf5ce05a6e0fbbdb	-0.001762474356151725
222	0xbfa050fd35a55266	-0.031867897795255826
223	0x3f94fd49f92eba9f	0.020497470697302785
224	0x3faeb0d3ab817b0b	0.05994283169342481
225	0x3f96a117a28dd74d	0.022098893448365065
226	0x3f954215fad61e68	0.020759910044516522
227	0x3f9389282531a770	0.019077899236811857
228	0x3f99cf07366b27e9	0.025203812309690852
229	0xbf442b7b1afb289a	-0.0006155348873673361
230	0x3f6b8a867b1fe509	0.0033619524556313157
231	0x3fa2a3a8b20538db	0.0364048688230569
232	0xbf7290d11b68cf55	-0.004532639336094342
233	0xbf8d3796fccf2316	-0.014266185369608258
234	0xbf6dca29439bf10e	-0.0036364370288294373
235	0x3f8ac94816db0b50	0.013079226682185002
236	0xbfa0df228bef56be	-0.03295238454999837
237	0x3f9d6c990db2fe77	0.028734580479748275
238	0x3f9e3cea0cff6f1d	0.029529244464227767
239	0x3f9ddf4aaf206407	0.02917210286986818
240	0xbf87f266e081557c	-0.011692813612323098
241	0x3f7516a6f6df2f64	0.005148555950608234
242	0x3f85a9f27489afe4	0.010578054601147309
243	0x3f9f41236db8b8e3	0.030521920749543418
244	0xbf9bbde642fdd155	-0.027091596449694794
245	0x3fa29dbf81af31d3	0.03635977228222811
246	0xbf938dee25ddf4f1	-0.01909610849496785
247	0xbf906f25375a1789	-0.016048985961354432
248	0x3f87a2ca13338979	0.011540964804628061
249	0x3fa9bfa643e44806	0.050290294444622005
250	0xbf8fb4ea9c67449c	-0.015481789491703694
251	0x3f88be0cb2a1cb69	0.012081240846077273
252	0x3f93a4b65a5ee3c2	0.019183015123164678
253	0xbfa0f7ccd9a13317	-0.033140565458415754
254	0xbfa1a1839bb6186b	-0.034435379750946314
255	0x3f79ae098d98e68a	0.0062694905441788105
