model_checkpoints/cnn_1.pth (torch, 693499 bytes, 12 tensors)

y_convs.0.weight f8 [16, 10, 9]
-0.08813685802946426 -0.015225409006109232 -0.08676840668520401 0.0586530288281436 -0.013803984922374455 -0.06597901175483678 -0.13038276113130323 0.010524983332272453
-0.016128191759784045 -0.151656580465299 0.04336520768740232 -0.14444672147393595 0.031095785803514808 -0.05731518202178938 0.01991090343068295 -0.0830351696508995
-0.13795489513255887 -0.1443840031089203 0.08502435708362541 -0.06950629241874472 0.007122150433134828 -0.007050724625892643 0.011807047045345314 0.0835679183596834
0.06423856728171191 -0.05215292854437721 -0.10581351783828778 -0.12231181083990385 0.04476239525824361 -0.06641293006420194 0.01240724892141834 -0.10579296281330507
-0.05856323007112916 0.04007263458363998 -0.15000296608210378 -0.12780675381548107 0.0038871676648444572 0.007505881881758252 -0.002104102347821145 -0.06159421612901234
-0.05268647777819331 -0.1343742898324889 0.06397404966752082 0.012628189393076975 0.03177028057398493 0.012085335622146984 -0.04970444853741837 -0.0962184829904136
-0.10984181280469389 -0.09084719791180187 -0.010536774745907697 -0.12615669070525729 0.017707617958049038 -0.020432271865885823 0.0467967609083371 0.0030002315634755352
0.06611698247505475 0.030793089279011074 0.03227230477101308 -0.024948669757989622 -0.0675691724145677 -0.023222980452373754 -0.004655319168307852 -0.01423868639392709
-0.07334120581149653 0.1203369595977866 0.006881256635259659 -0.07084607743244868 0.11287369213563095 -0.009340562254542452 -0.062011284521024425 -0.13034536632284502
0.10227848580912956 0.11241012621126222 -0.0340534592295393 0.08191472162739175 0.06976345573846651 -0.04685593813349623 -0.056907598577039115 -0.03093109365166347
-0.05223881644470237 0.05533604127450189 -0.0579854956526635 0.061298155955601896 0.17801708221779577 -0.07545398274496422 0.23852401836728995 0.008190678677227196
-0.09965231523355053 0.009178480490435941 -0.03985586739063539 -0.03711500035559308 -0.05913803641146867 0.009606469292338946 0.03785596604858981 0.0333916904286352
0.050720397517369994 0.09644220585972593 0.04306767491732938 0.02565378249841944 0.01869036606952114 0.09169562168289655 0.011720628892636007 0.030478317595929606
0.05607131678751378 -0.03214828526426805 0.056363661065630885 -0.0031542795459591124 -0.15023900752987104 0.032860416209715165 -0.11262258733000588 -0.13913528998859329
-0.15260451349105705 -0.1437484295441092 -0.0995414570975603 -0.1093012577814271 -0.14018425919060337 -0.06481282283700338 0.06183893904389238 0.007054941404583173
-0.05156039705944851 -0.09922373662656632 0.005857920340523483 0.003318881552806882 0.059855518452989316 0.005726274010897021 -0.06349038564070582 0.09711521935751945
-0.025444892647932614 -0.0062334679756405964 -0.08410014224009718 0.04591256857947805 0.013129900662564276 0.09790010950455554 0.021080161239264785 -0.05202170102524383
0.0018318852851635207 -0.061951722875070676 -0.04998149845147283 0.005921819139484539 -0.041269708151037324 0.05200767491991316 -0.034500101016419524 -0.004128239228303737
0.03337394435883378 -0.024552004621314773 -0.022961941820572544 -0.0065984572923509744 0.0767700145483648 -0.05930976471320418 0.027569371031573697 0.04060902661988735
-0.059776445313537666 -0.09812849961920558 0.06686959699577615 -0.02430743981891737 0.0808229687120557 0.0518155036874788 -0.04124177809668462 -0.060635835403100996
0.05265808367902931 0.06558250197467665 -0.0077229872052240476 0.0798479741914242 0.007995894198305738 0.01512202735087817 0.05499451602951313 -0.03310473439093185
-0.055275956587628426 0.058159553646832805 -0.036731202277798254 0.17073793755985917 0.062054347974845776 -0.14978632217054022 -0.1635375710651763 0.01416483860525096
-0.08527884000461015 0.014420959352069477 -0.044566216480918984 0.002211664006926641 -0.010532265437089261 0.09208693267986973 -0.021906825133772363 0.07423681400784767
0.0038147552277699036 0.047770252636385804 -0.04917902705861515 0.020980975600858928 0.021234165599030606 -0.02370635527341009 0.027671802957575917 -0.049303570776152446
-0.06954061752903117 0.12465095727631421 0.12000090878525752 -0.0650874700176171 -0.013300898572313135 0.03302831771169152 -0.04379426808457264 0.01578608253171859
0.08196068776713504 0.006205156268580356 0.020410074998975902 0.0842312702595843 -0.06774107531581434 -0.06820003253049656 -0.019224436094193526 0.10168930865211157
-0.03197020842921093 0.0024234555044290447 0.07257944340190786 0.1042444639170423 -0.06903230302740894 0.030377546643529627 -0.01962651149837339 0.0868996743381568
-0.025177374166757423 -0.13907746913410088 -0.006039571850559199 -0.08246032067426717 -0.05504593115589141 -0.1445213225889072 0.01600678169800443 -0.11960557117187938
1.4852302022675249e-05 0.05803914324434783 -0.00960787807774182 0.07002155357171128 0.06861250668190912 -0.05071640847703754 0.031343271520484745 0.11416391914630292
0.04328679049482747 -0.06734858856519256 -0.04484423349480212 -0.08941836575534415 -0.039376649292650646 0.02204412537998983 -0.07945378435499158 0.046178990346636424
-0.07229735646691364 -0.016251698184054968 -0.0369163714814422 -0.05254700636188553 -0.10376196798117536 0.011079222982180238 0.06386216536000296 0.06705107339159863
-3.3072012631133706e-06 0.03876030602333996 -0.10030729702013616 0.09343907778520295 -0.0499618209132599 -0.01627377539651149 -0.01985282886597916 0.001856230311059525
00000000: d909 cf1a 2390 b6bf 77e6 fecd 7f2e 8fbf
00000010: 87fa 094d 7436 b6bf 4fa6 4111 c507 ae3f
00000020: c55c 5e7e 4345 8cbf c89c b521 00e4 b0bf
00000030: 4db4 82df 61b0 c0bf 73db 9f59 1f8e 853f
00000040: d588 9ba0 e883 90bf e22b a99a 7b69 c3bf
00000050: a870 9ae9 f633 a63f 5e5b 5fec 3a7d c2bf
00000060: 832f 47dc 92d7 9f3f 5a1c b260 6a58 adbf
00000070: 6a3e 461c 8663 943f 4f84 11fa ca41 b5bf
00000080: 006f 7589 81a8 c1bf 508d b5cd 2c7b c2bf
00000090: f69f 0901 28c4 b53f 3702 ce14 2acb b1bf
000000a0: a106 00b3 1d2c 7d3f 16a6 e67a 38e1 7cbf
000000b0: 8971 6007 4b2e 883f e381 5904 b564 b53f
000000c0: c5e9 9d51 f071 b03f 2a3a fae4 c9b3 aabf
000000d0: a314 973e 9816 bbbf 19d0 78ab d34f bfbf
000000e0: 9916 73bf 18eb a63f ab43 a812 7000 b1bf
000000f0: 507c cec2 f868 893f 571a 6e63 3f15 bbbf
00000100: bda7 ceeb fffb adbf 62a9 007e 6684 a43f
00000110: be14 d014 4c33 c3bf 8a36 ecc1 f85b c0bf
00000120: 4790 d33f fbd7 6f3f 6c4d 5bd3 7cbe 7e3f
00000130: 64b9 ae58 9f3c 61bf b931 cbef 4689 afbf
00000140: ea5e ffd5 b8f9 aabf 607b 203e 2d33 c1bf
00000150: c65b 1d73 9a60 b03f c290 9be3 cedc 893f
00000160: d49a 19b8 3144 a03f 4502 114a 32c0 883f
00000170: ac2b de89 dc72 a9bf 52ed b645 c6a1 b8bf
00000180: 73c1 bad1 971e bcbf cae4 f60f c341 b7bf
00000190: 610e 83f7 4d94 85bf dd15 6006 e725 c0bf
000001a0: 305c 1420 f221 923f 04b0 c98d 32ec 94bf
000001b0: a5f0 51bb bef5 a73f 3efb 410e f193 683f
000001c0: e3c8 70e5 0aed b03f 2cab 953d 3988 9f3f
000001d0: 33b8 1ddb fe85 a03f e8cf c1e2 248c 99bf
000001e0: be04 bd99 364c b1bf b0ff 3bd6 c3c7 97bf
000001f0: f801 49b9 7411 73bf b207 3323 2c29 8dbf
00000200: 6ada 6840 7dc6 b2bf 23fa f829 67ce be3f
00000210: 27dc 4243 852f 7c3f d34b 9ff1 f722 b2bf
00000220: 7a22 4d50 4ae5 bc3f 27ae 460b 2521 83bf
00000230: 6d62 006e f1bf afbf 5d58 c52e 28af c0bf
00000240: e775 a23f ec2e ba3f ef0c d1f7 e8c6 bc3f
00000250: b2bf 697b 746f a1bf f659 73fa 5cf8 b43f
00000260: be47 da90 04dc b13f 9443 d063 80fd a7bf
00000270: e486 9025 fe22 adbf 6154 a78e 66ac 9fbf
00000280: ab69 6cd0 0bbf aabf a3d0 206f 0155 ac3f
00000290: 9bea f05e 46b0 adbf 68d2 44ce 7862 af3f
000002a0: 809c 2085 43c9 c63f 0b19 3ec4 f350 b3bf
000002b0: 8358 197d f487 ce3f efe7 6748 46c6 803f
000002c0: 9616 e66a d082 b9bf 5665 44cc 2acc 823f
000002d0: 2e34 fefd fc67 a4bf 1ac5 6fc1 bc00 a3bf
000002e0: 2480 ac38 5747 aebf e565 867b 8eac 833f
000002f0: 673c 4670 db61 a33f 0ec3 b234 b718 a13f
00000300: de89 2721 06f8 a93f a622 1fb8 6fb0 b83f
00000310: c8c2 915e f70c a63f 63cb 6533 fc44 9a3f
00000320: 6450 133c 9123 933f 6e7e 5040 5d79 b73f
00000330: b267 422e fc00 883f 0d19 3f45 b535 9f3f
00000340: 832a b12f 61b5 ac3f c03e aa73 bd75 a0bf
00000350: 865f eba1 b2db ac3f ac37 c1ef 00d7 69bf
00000360: 434f f623 083b c3bf 1448 e899 14d3 a03f
00000370: 3a8f 5f79 d5d4 bcbf d538 1c68 2fcf c1bf
00000380: 2342 5571 8b88 c3bf c224 df39 5966 c2bf
00000390: 8d88 d486 8c7b b9bf 9a38 95cf 2afb bbbf
000003a0: d39d 51cc 8ef1 c1bf 6645 72ba 9297 b0bf
000003b0: 912e a079 5aa9 af3f 76e1 b969 a4e5 7c3f
000003c0: e438 47d6 1f66 aabf 054b cc0f ba66 b9bf
000003d0: 9bdb 8f84 79fe 773f c6b7 50f7 3230 6b3f
000003e0: d13e 7bec 61a5 ae3f 2e01 adf9 6e74 773f
000003f0: 3df0 efe9 e740 b0bf 099c 1503 8bdc b83f
00000400: e6a7 17d7 390e 9abf e960 89d1 4388 79bf
00000410: 369a 8240 9687 b5bf f665 0c29 da81 a73f
00000420: 0d44 906f d9e3 8a3f 71cd 9848 fb0f b93f
00000430: b7db 77ac 0996 953f 6fe2 2ba1 96a2 aabf
00000440: b57f f2d8 7b03 5e3f 11cb 5bdf 22b8 afbf
00000450: 0220 82ca 2c97 a9bf 0b32 9738 7a41 783f
00000460: 9af9 a59d 4d21 a5bf da13 d8fd bfa0 aa3f
00000470: eeff 254b ffa9 a1bf f92c 9cc7 c5e8 70bf
00000480: ef92 1ebf 6316 a13f fa61 9923 2924 99bf
00000490: 6124 b0d4 5583 97bf fb2b 65e4 fb06 7bbf
000004a0: b475 cc1d 33a7 b33f 44a7 8d77 d95d aebf
000004b0: 90be ce2b 253b 9c3f 6776 82d2 b4ca a43f
000004c0: a2b3 62ab 049b aebf 8287 ab08 f31e b9bf
000004d0: 0b8d 31ac 5d1e b13f c275 49ac 0ce4 98bf
000004e0: f547 6267 d0b0 b43f 03e8 86cb 8f87 aa3f
000004f0: b1ec 4e70 a41d a5bf 0c3e 0b04 a90b afbf
00000500: 1afd 8a16 00f6 aa3f a9cc 2bcd 03ca b03f
00000510: 21f2 9497 23a2 7fbf 30d4 cdb5 ea70 b43f
00000520: d107 acc0 2660 803f b0b2 5e27 4cf8 8e3f
00000530: 03ba 9cbf 3d28 ac3f fe87 1a8f 1af3 a0bf
00000540: e313 9953 214d acbf d3e8 b9c9 16c7 ad3f
00000550: 5143 0da1 6ece a2bf 66c7 00a1 bdda c53f
00000560: 51cd 4066 96c5 af3f d027 8ebd 322c c3bf
00000570: e033 b293 ccee c4bf b859 8074 7402 8d3f
00000580: 6751 dc84 d5d4 b5bf 9548 5a66 bc88 8d3f
00000590: 7381 9514 62d1 a6bf 1e2f 8b12 321e 623f
000005a0: 2d39 d7bc f091 85bf 14be 3f5c 0293 b73f
000005b0: f5f3 0826 be6e 96bf 39ac 5210 2f01 b33f
000005c0: 61ac 411e 1f40 6f3f b201 97b1 5775 a83f
000005d0: d750 bb51 fe2d a9bf 6fea 2c70 097c 953f
000005e0: 6905 39bb 68be 953f 9236 6d92 7a46 98bf
000005f0: 2c86 e542 ff55 9c3f 6183 1e50 513e a9bf
00000600: afe4 07f6 69cd b1bf 85b7 ea08 20e9 bf3f
00000610: ea13 b92a 61b8 be3f 4be4 1a8b 92a9 b0bf
00000620: 1905 0163 803d 8bbf 09c5 d370 16e9 a03f
00000630: 9eda 59ca 336c a6bf ef9f d210 3a2a 903f
00000640: af7b 8429 60fb b43f 308a d7f3 936a 793f
00000650: f09d 84f2 60e6 943f 76c1 1037 2e90 b53f
00000660: a3c9 13a7 7a57 b1bf 80fb 4dad 8e75 b1bf
00000670: 7802 3c11 92af 93bf d07f 037f 4f08 ba3f
00000680: eead 4c2f 665e a0bf 3f8f 50c4 5ada 633f
00000690: 64e8 c5ff 9094 b23f 4d10 50e3 c3af ba3f
000006a0: e1ca dedb 19ac b1bf 7979 77a5 4a1b 9f3f
000006b0: 4a90 14e4 f818 94bf 47c0 509b 0e3f b63f
000006c0: 12de 94fa 18c8 99bf 034d c55e 4acd c1bf
000006d0: bfa7 4739 f3bc 78bf 947e 839c 1e1c b5bf
000006e0: d151 2ff4 fa2e acbf ee08 0cb9 ac7f c2bf
000006f0: 68e9 a0ef 1464 903f 7545 9a80 789e bebf
00000700: 21d4 bdd8 c425 ef3e 77a2 3e7c 4eb7 ad3f
00000710: 9cd9 0591 4bad 83bf 6209 9bba eeec b13f
00000720: 199e 4bd8 9690 b13f 8414 8f47 80f7 a9bf
00000730: 6ca0 42ac 390c a03f d4d6 1dbb d839 bd3f
00000740: 3755 0cab af29 a63f 21bb 51d1 c13d b1bf
00000750: 4b79 8cc8 d2f5 a6bf 6aba 943c 1fe4 b6bf
00000760: 0541 e019 2d29 a4bf accd 4d36 bc92 963f
00000770: bd1e 594d 1557 b4bf 312a 9aca c5a4 a73f
00000780: 83d6 9c5d 1482 b2bf eee5 d100 49a4 90bf
00000790: bd49 66e0 b3e6 a2bf d86c a7f3 70e7 aabf
000007a0: 2b39 0cf3 2490 babf c70a fd22 b4b0 863f
000007b0: e546 ac57 4559 b03f b6ec 6057 422a b13f
000007c0: a892 411f 29be cbbe 08a3 810d 64d8 a33f
000007d0: ae6b 4030 bdad b9bf 2d7f 4197 9feb b73f
000007e0: 98fb bd85 9894 a9bf 131e 7194 12aa 90bf
000007f0: 7e90 d9ca 4c54 94bf fdc5 b51e 9869 5e3f

y_convs.0.bias f8 [16]
0.1645745188334845 -0.15147077093659386 0.012796068356384237 0.07596764775005681 0.06779587162999413 -0.03579077288361835 0.01220242958541281 -0.2276552075893187
0.19986954445122507 0.12415340980669565 0.11049784174440223 -0.020140987422898254 0.02698144290147185 0.10461066435460536 0.06512986056283895 -0.004391524052878097
00000000: 3c87 1220 c710 c53f 6f7d bceb 6463 c3bf
00000010: b949 dd38 d334 8a3f 8ffa a3a2 9d72 b33f
00000020: 3963 74fb 115b b13f b541 110e 2b53 a2bf
00000030: ec3b 0260 96fd 883f 851b ae4b ce23 cdbf
00000040: 0035 7142 5395 c93f 3080 ce92 84c8 bf3f
00000050: 5f1f 9228 9649 bc3f 9b77 29c9 d69f 94bf
00000060: bc5e 71fb 05a1 9b3f cc42 37b6 c3c7 ba3f
00000070: 5e45 1cbd 59ac b03f 5ec2 fcc2 d8fc 71bf

n_convs.0.weight f8 [32, 4, 3]
-0.10412520463287095 0.05243405169843128 -0.13732347787518193 -0.12910617672861682 0.13521850706996885 0.06713068304989982 0.06912712163267921 0.10194516351780232
0.2077251519035475 0.4201403086809649 0.011993939737455103 -0.06045228557367255 0.2558510909301373 -0.32392341148555887 0.04080663475422885 -0.20450760343885846
0.07788405563743633 -0.22424349903705484 0.19690923684904435 0.09587678934411197 -0.1814869316907321 -0.17567802248326947 0.1366218664685539 -0.1571728039239497
-0.021103074791289787 -0.12096135752791143 0.03441241023035542 -0.23309006643748797 -0.27887817192675685 -0.08688253941376914 0.11377801237294173 0.0977863416717028
0.20742826182954538 -0.1691071164029034 0.07433567565022275 0.015868169304235385 0.1310162054406756 -0.20424600052613254 0.15893252716076944 -0.38738815018999057
0.0004975333952274925 0.13685749009690198 -0.21455282857103003 0.20574758614155328 0.26986727738992905 0.28235467232725886 -0.11321810533841174 -0.1826046036516805
0.21056412683123754 0.2788880886415995 -0.28724597176317956 -0.016984007297098206 -0.016711911242909137 -0.28544358113263235 -0.15504786961293465 0.07371566484194374
0.2604455753024205 -0.0700928811336931 -0.26909714809577373 0.2917939348526405 -0.0959858343337651 0.09770148075990943 -0.15703317621378018 -0.15023067157236097
-0.12979181973543055 0.06404297124883487 -0.28804224729561156 0.14074192830883514 0.11888221171285501 0.35337032803543267 -0.0029536733782357387 -0.08704226149549045
-0.2545445034049234 -0.2963112585531508 -0.09421545576078623 -0.010968463543192902 0.18552863927881616 0.019383588266806865 0.1825180954493035 -0.1027507336020123
-0.1835560927563243 -0.1793723650032495 0.2860418339895497 0.02786700551529413 0.04572969592744871 -0.0028486554348056935 -0.236313748465626 0.15527765142666694
0.06598668307616276 0.06811257036483172 0.15668370918402466 0.2588151015859195 -0.07560303113596156 -0.18147010501027855 0.17091925523838883 0.17071234207458286
0.08744823543682466 0.2034541945458579 -0.20288342542319235 -0.17718901696765066 -0.1721003578459832 -0.035132091314537456 0.05701638509547648 0.26334369006619157
0.21572117005171018 -0.24218066226280344 0.06976740113897566 0.10766200996659372 -0.17704940165503052 -0.09527569108545307 -0.22662865242502866 0.018535702521830795
-0.09177874770744521 -0.0047311763985985 -0.00953673566789226 0.3171831611141394 -0.18350564022432625 0.07150220806981517 -0.06787398763600193 0.42136331511725944
-0.13257119404221984 -0.011649730187354476 -0.123885174631786 -0.09962639788948095 0.276229448251467 0.1394755585522741 -0.18764627008822043 -0.09103193734657455
0.0465994702378527 0.028823384697663303 -0.11067745611661942 -0.2816955865227339 0.18948207143581886 -0.0009046275235798635 -0.012697891460753738 0.02487050021851971
-0.24761618747445074 -0.09289034217797544 0.19676171481770385 0.13833588796164026 0.07128588250052895 -0.16304391900269513 0.03405048501561171 -0.3456975703840191
0.19111406187280847 0.08763229619439597 -0.029960378174733838 -0.13468084928805868 0.18352983254513852 -0.37553038888523477 -0.029002562912646718 -0.10815684197501149
0.15812062883339847 -0.031364825755160954 0.016740847700811693 0.05100704896820324 0.026737056699563208 -0.18254166419975354 0.10457969300590314 0.26270934135459273
0.06968248698963585 -0.03408458967497918 -0.24078766875896415 -0.021727192201333723 -0.19577799679452512 -0.3146861170819913 -0.04020113691096743 0.2192408561777256
-0.10523574588953467 0.0009038292620694909 -0.2696364507081047 0.3068680167007851 0.06559180091047846 0.14014035251024962 -0.21077531576136824 -0.06919738472099299
-0.20762178019458757 0.20617572415167515 0.0019195015390158373 -0.24861870388691165 0.011410809585657516 -0.08259463969751149 0.10441105783537477 -0.055224820226709846
-0.030985316209063793 0.09462409685476113 0.10672044921718475 -0.0933622361529219 0.1292545747718684 -0.19854155890701675 -0.41283619197289995 -0.27769817789690115
0.12712480361462714 0.1538287545359413 0.06304541669092825 0.26038133638984545 0.15138869300895905 -0.06974903451651238 -0.1240912499568768 -0.2124171975560483
-0.12447860513061158 -0.27692580223089924 -0.09559056274991173 -0.1122720167706597 0.1648079301260969 0.15463095581924596 -0.007489690958024293 0.11514149086400748
0.09504177853454406 -0.054831875636221696 -0.27196232624586675 -0.12190543862376899 -0.2661622270845643 0.2261392274915637 0.10733721307953678 0.34208963039479
0.05534226114473438 0.11266844887748464 -0.022892889240581728 0.2620198013094267 0.21255508867851913 0.19660206592715457 0.13075642884815397 0.054781246392352996
0.07907593243408668 -0.10421628135756354 0.009547052358239225 0.31207137496334497 -0.018602991688115914 0.20983075408722207 0.25626121770592436 -0.015241236285165001
-0.013112451707972962 -0.3450423677494019 -0.08444702037480675 0.11697614520329983 -0.16109120809887825 -0.35937614747158575 -0.02860895722961291 -0.18654502340550166
-0.24037372578736263 0.2962297027909147 0.11566997059162433 -0.30662030843371973 0.024147202030238176 0.05829529652372104 -0.15007497058814384 0.36298096136482527
0.01890315612165927 0.08212684445214921 -0.08043758571160169 -0.035351244632441624 0.16889002146338683 0.16336805370778298 -0.18993858128230967 -0.1713578738368113
00000000: a465 960c f3a7 babf 8eaa 7bd2 a2d8 aa3f
00000010: 8f33 39d3 d093 c1bf a168 611b 8d86 c0bf
00000020: 94f8 d60c d74e c13f fbe8 41f8 792f b13f
00000030: 11d1 ada6 50b2 b13f 6d59 4b07 1419 ba3f
00000040: 42be fdde bc96 ca3f 9b07 612d 94e3 da3f
00000050: 7e69 6157 4790 883f d0c6 031b 9af3 aebf
00000060: 1537 0c41 dd5f d03f 7b4f af42 29bb d4bf
00000070: 9f5d 7573 9be4 a43f 61d0 461e 4e2d cabf
00000080: d4b6 d79f 35f0 b33f 8335 5acf 02b4 ccbf
00000090: e702 4666 5234 c93f 63ae ad9a 618b b83f
000000a0: 9eac 21ba f63a c7bf 3086 9810 9e7c c6bf
000000b0: 4851 3348 d37c c13f 1f45 560a 3d1e c4bf
000000c0: 1966 4b60 0b9c 95bf 3482 a9d2 52f7 bebf
000000d0: aa25 08e1 809e a13f 988c 2f32 e5d5 cdbf
000000e0: 8d98 ffd4 23d9 d1bf 5225 6021 ef3d b6bf
000000f0: 814a 254a 8e20 bd3f ccb6 7993 8608 b93f
00000100: 9279 6960 028d ca3f b754 3c4f 4da5 c5bf
00000110: 5401 d8af a907 b33f 9b19 d6d0 be3f 903f
00000120: 588e ce96 23c5 c03f e59c 4ca2 bb24 cabf
00000130: a48b 36ab e657 c43f ed21 fbaa f7ca d8bf
00000140: 4e37 a1d4 9c4d 403f 29e4 16d6 8b84 c13f
00000150: 060a fd92 7776 cbbf b3bd dad8 ef55 ca3f
00000160: 9b9e a966 8145 d13f 062d e154 1912 d23f
00000170: 0b5a be9b dcfb bcbf ab39 6470 965f c7bf
00000180: 1ab9 39eb c3f3 ca3f 656a fd6c 4dd9 d13f
00000190: ae5b a8ed 3c62 d2bf 5191 956f 4164 91bf
000001a0: 99c1 f760 ed1c 91bf 7c56 7427 b544 d2bf
000001b0: cea8 a6cc 9bd8 c3bf a3f4 b2a1 07df b23f
000001c0: 8ef4 13eb 23ab d03f 0bd1 2668 9bf1 b1bf
000001d0: 772a a13e e338 d1bf 6a3f d777 c0ac d23f
000001e0: 6bc1 5713 8792 b8bf 1d74 a2d8 f602 b93f
000001f0: 0fd3 1cc2 a919 c4bf 4234 a136 c23a c3bf
00000200: fda7 86b2 049d c0bf 026b 0dc3 1e65 b03f
00000210: 5210 00c0 486f d2bf 1897 a1dd d403 c23f
00000220: 2403 628b 106f be3f 927e 9294 9e9d d63f
00000230: 41b9 0052 4d32 68bf 0136 7ed2 6648 b6bf
00000240: 940b 6007 754a d0bf 5308 3b7f c3f6 d2bf
00000250: 2533 450d 811e b8bf 369f a441 a276 86bf
00000260: 3d42 1607 67bf c73f a181 bd96 4ad9 933f
00000270: ff04 71c1 c05c c73f 3bed 7540 df4d babf
00000280: b35a af1b c47e c7bf 7860 bf74 acf5 c6bf
00000290: 7578 9168 824e d23f 8d74 4d15 2b89 9c3f
000002a0: 03c8 edf8 e169 a73f b813 c33d 1056 67bf
000002b0: f3a4 a066 873f cebf 38af 5659 23e0 c33f
000002c0: 5a9c c8d5 80e4 b03f edd7 294e d36f b13f
000002d0: 4574 6137 360e c43f b16f 4137 6d90 d03f
000002e0: c819 3562 b85a b3bf 3a44 1c93 693a c7bf
000002f0: 15b6 c0a1 aee0 c53f 60f0 1deb e6d9 c53f
00000300: 2f48 4bef 0163 b63f 507c e77b c90a ca3f
00000310: 97e9 8b86 15f8 c9bf c010 8b34 21ae c6bf
00000320: d808 4a70 6207 c6bf 24d8 785e d5fc a1bf
00000330: 1276 a46a 4031 ad3f df4d 1c7e 9fda d03f
00000340: 4ba6 3655 c09c cb3f ec38 12a4 c6ff cebf
00000350: 2b04 38c2 46dc b13f 6201 d4cb bc8f bb3f
00000360: a63e f106 8ea9 c6bf 8fd9 50d9 fc63 b8bf
00000370: 2643 40ed 2a02 cdbf e2ff 8ef0 05fb 923f
00000380: 500e dfdf cf7e b7bf 4a18 757e ff60 73bf
00000390: 40fd 6efe fe87 83bf a9ef f499 ba4c d43f
000003a0: 2090 b2e1 1c7d c7bf b46b 40fd f74d b23f
000003b0: ff4e 258d 3060 b1bf da6a 8ad6 9df7 da3f
000003c0: d8c8 66c7 17f8 c0bf 3898 4b51 d0db 87bf
000003d0: 84b5 8055 f0b6 bfbf 33ec c098 1d81 b9bf
000003e0: c2a8 9b47 bead d13f 8b63 49c9 55da c13f
000003f0: a865 9f00 cb04 c8bf f888 cb79 de4d b7bf
00000400: fe70 5dc1 e2db a73f 3ac4 8b9a e083 9d3f
00000410: 1ae4 6c96 5b55 bcbf 47bb e2ec 4c07 d2bf
00000420: fc61 ffd1 f240 c83f f1ba 7dd0 90a4 4dbf
00000430: c5b0 6a24 5a01 8abf cd78 4b04 a777 993f
00000440: 3adc 9421 e3b1 cfbf 81c6 c455 a9c7 b7bf
00000450: f79a 1fe5 7c2f c93f 4e45 5489 fdb4 c13f
00000460: f29a 01a6 ca3f b23f d9d0 f685 9fde c4bf
00000470: b227 1caf 106f a13f 09c9 c6b3 e81f d6bf
00000480: d153 c6f2 6c76 c83f ea72 3af6 116f b63f
00000490: 9dbe bef1 eead 9ebf d87b 8bd9 383d c1bf
000004a0: bb94 4fd2 e77d c73f c3a3 ba9c b008 d8bf
000004b0: 480a d70c d9b2 9dbf 760e 1fb3 2ab0 bbbf
000004c0: 8fc9 d4f8 4b3d c43f 6def b9e9 0c0f a0bf
000004d0: 717a 8745 8324 913f 9828 5e8e 981d aa3f
000004e0: 2cb4 7680 f560 9b3f 029b f276 865d c7bf
000004f0: 243c 4919 bcc5 ba3f f12f 5ed7 3ad0 d03f
00000500: 5774 b922 b6d6 b13f 103a e70b 8973 a1bf
00000510: 4bc7 4c5d 21d2 cebf 6d29 c12f a73f 96bf
00000520: ec22 c1de 400f c9bf 11d5 573d d123 d4bf
00000530: e7d8 9650 3e95 a4bf cc7c 9d99 1510 cc3f
00000540: 4939 f7d6 baf0 babf adb5 958f de9d 4d3f
00000550: ee73 663e b941 d1bf acc4 fabf b9a3 d33f
00000560: e9d6 cbcf 9fca b03f d1d2 707b 1ef0 c13f
00000570: 25e4 ff7f affa cabf ce6b 5878 ebb6 b1bf
00000580: 3dc0 efb9 5993 cabf b3f3 3a54 f763 ca3f
00000590: 46a3 6b15 f972 5f3f f820 2fd9 bcd2 cfbf
000005a0: 7025 eeef 8c5e 873f 1262 531c ec24 b5bf
000005b0: 1263 bede aeba ba3f a336 9a79 6d46 acbf
000005c0: 2cba 185f 9dba 9fbf bf9c 67e9 4839 b83f
000005d0: d3c5 3307 0852 bb3f 754e f566 96e6 b7bf
000005e0: b474 c0f5 698b c03f f084 334f cf69 c9bf
000005f0: fb3d c87d e86b dabf 7776 0e94 cec5 d1bf
00000600: f282 0425 a045 c03f a648 f51e a9b0 c33f
00000610: a2a8 d992 be23 b03f 4f1f 127b 16aa d03f
00000620: b394 ba66 b460 c33f 100e 2d9e 12db b1bf
00000630: 17d8 48b4 71c4 bfbf c13b 4e9a 7c30 cbbf
00000640: d771 1672 d4dd bfbf 8604 0000 27b9 d1bf
00000650: e82d d184 9f78 b8bf d233 49e0 dbbd bcbf
00000660: 46ab 011f 6d18 c53f 5eb0 1879 f2ca c33f
00000670: 61be 8c9b 82ad 7ebf b770 aca9 e979 bd3f
00000680: 1d3e 8f72 a854 b83f 2d96 4571 ec12 acbf
00000690: cb15 3eac d467 d1bf aef7 17e0 3135 bfbf
000006a0: 048f 304b cd08 d1bf d1a0 3555 21f2 cc3f
000006b0: 5605 d29b 737a bb3f 9c2a b6e7 cbe4 d53f
000006c0: 4e1a 6823 d255 ac3f ba47 38e7 d6d7 bc3f
000006d0: 7aa1 65ca 3b71 97bf 66d1 61b3 eec4 d03f
000006e0: cc7e 3c51 0135 cb3f 58d8 bda9 412a c93f
000006f0: 5881 d26c a0bc c03f 89e8 609b 490c ac3f
00000700: f581 b4ff 513e b43f 5f37 2410 ebad babf
00000710: 65f6 36ad 678d 833f 7b0f 5f37 faf8 d33f
00000720: d103 a2a3 a90c 93bf 1cf4 3ff1 bbdb ca3f
00000730: daec 5173 9566 d03f 64c3 291b cc36 8fbf
00000740: 548a 0c7a b3da 8abf 20f5 4d95 2c15 d6bf
00000750: 0623 c1e6 519e b5bf 2271 0f0e 26f2 bd3f
00000760: 9999 3aff a29e c4bf 7896 16d0 0400 d7bf
00000770: ca05 b29e aa4b 9dbf 2e0c 6113 b5e0 c7bf
00000780: c185 89f5 90c4 cebf 51cf 656d 6df5 d23f
00000790: b9ff d114 8c9c bd3f dbc8 40c9 aa9f d3bf
000007a0: 2f03 0a4c 0bba 983f 55f6 2890 e1d8 ad3f
000007b0: 16e7 4f19 a835 c3bf ee7b 887f 143b d73f
000007c0: c0b7 5555 595b 933f 5eb0 0bcf 4306 b53f
000007d0: 7b22 00c0 8e97 b4bf 6b72 23ef 8e19 a2bf
000007e0: 802a 672f 309e c53f b56b f18f 3ee9 c43f
000007f0: 9496 6d4d e84f c8bf ff45 0508 0eef c5bf

n_convs.0.bias f8 [32]
-0.14854216190853978 0.02108509727165391 0.19999267058983328 -0.09772526902828735 -0.2097064798462012 -0.10991888906523452 0.08234980567921181 -0.18709776173081802
-0.1358760475298933 -0.15433812451896523 0.2232863290059115 0.016643772273747977 0.13455485079251786 0.19716124435517854 -0.10910674284014772 0.18140306134381387
-0.09918794590417235 -0.05805579844301105 -0.24093360446060666 0.21943708370637632 -0.17712766705052221 -0.15647421908255904 -0.07807027032907708 0.14975997021826856
0.09330053910106886 0.15976996707225163 -0.15565104575212127 0.020968388939271405 -0.0695790965968168 -0.171333757441852 0.021358296331217535 -0.06956607269677234
00000000: 5db6 bcf7 6d03 c3bf cee2 dbec 5497 953f
00000010: 9cbf cf1d 5c99 c93f c623 78f2 8504 b9bf
00000020: 916f 5974 a9d7 cabf 1172 bff1 a423 bcbf
00000030: 3163 397a e014 b53f eff2 e4c7 d1f2 c7bf
00000040: 5aae 39e6 6264 c1bf 08df aa06 5ac1 c3bf
00000050: 68b5 5c7c a594 cc3f b22a 64a6 100b 913f
00000060: e104 d6e5 1739 c13f eba6 4564 943c c93f
00000070: 1d82 4564 6bee bbbf dbd7 ee2b 3738 c73f
00000080: b8da d097 6164 b9bf 26d2 4f57 7db9 adbf
00000090: d535 d58f e9d6 cebf 4635 06ad 8316 cc3f
000000a0: 4971 9990 1eac c6bf b238 d0e2 5807 c4bf
000000b0: 976f dac9 69fc b3bf d72f 2baf 552b c33f
000000c0: 0265 234c 8be2 b73f 27aa ba9f 5773 c43f
000000d0: cbf9 8b9b 5fec c3bf 95d5 f9c2 bc78 953f
000000e0: 7e59 5e88 efcf b1bf 3def 74ba 43ee c5bf
000000f0: fba2 f600 f3de 953f cccf 2407 15cf b1bf

n_convs.1.weight f8 [64, 32, 5]
0.04894299652973368 -0.14798526235598392 -0.019860225767602203 -0.006924522796509296 -0.014159984284013214 -0.061224527236451866 0.028199568789135807 0.0759885667488467
-0.042818036825161096 -0.013431245959734465 -0.08836835637975936 -0.03966566715582241 0.014374124540623751 -0.0011797700105092169 -0.00827489597844575 0.031135003092175387
-0.1160917768360994 0.027037462388409584 0.011219117315536216 0.06436812763184628 0.07953436907504449 0.015005575696548807 -0.005557704563072348 -0.03983243949186282
0.08214380845375091 0.047329011160516105 -0.2383448671759914 -0.06467020832804472 -0.008852437156483593 0.03048969408153152 -0.07189123497159133 0.01908305121716497
0.016148595025638958 -0.11333024367329135 -0.06671929348187074 0.007926551004495906 0.06739325982267824 -0.013449238075853378 -0.13957084354465574 -0.07767277813941242
-0.12544343563593283 0.054329802926919614 0.008119551701842998 -0.10049423124591211 0.08399240793154446 0.07766705842435359 -0.03939974463743981 0.022540318008440433
-0.09284393583724057 -0.029648326946573773 -0.023593749626275747 -0.02116605004694506 -0.04843876687649311 0.024777006844543925 0.0392072616192623 -0.08959894907670701
-0.10897568917196879 -0.017544948781436087 -0.020660351585132308 0.09255981010091885 -0.011071734507410322 0.013981456434665527 -0.020649218467311402 0.030962122566125128
0.02689993180743023 -0.007430025378125536 0.027218650757901933 0.022443799415167737 -0.08787640257529024 0.03802954090881645 0.09224237672242115 -0.0008036269747583764
-0.08822889840937455 -0.029843134646449575 0.09145676778000389 0.06309471497951943 0.030274423575673875 -0.06901388658733476 -0.04096006887216109 0.11780142630055328
-0.011926942271627678 0.09530604216676485 0.10299724920817509 -0.13588844847482479 0.009557326865714208 -0.0018731623697190662 -0.027562948491712126 0.007276417870857582
-0.04502282658706649 -0.05262527740834652 -0.007184112676859541 -0.02272333138592905 0.009564536739984492 -0.1547888671303981 -0.03697743942837166 -0.038397030702952625
0.016899425470231606 0.03439608376977557 0.04566936528210265 0.0034043257366902827 0.056845030192000344 -0.1536254789887452 -0.1152908506403111 -0.020846223477343526
0.04831257667910384 -0.060468413356709536 -0.06204571141401157 -0.02375595886426979 0.01762627556097891 0.026942707015299876 -0.014673222771366807 -0.04513550861899688
0.00591696531397047 -0.041430957668229844 -0.030471079345690048 -0.02264238517809621 0.06628847161844147 0.01775291899631049 -0.11321058838361667 0.014886521771032522
0.011933586422053282 -0.016483781756483632 0.002542662313687452 -0.0673088576054392 -0.06435600583680046 -0.00820158469313345 -0.03446386686908593 -0.015259091107646238
-0.05217240251214066 -0.02070146517024822 -0.030588983786840027 -0.043318138552648565 -0.023585908064843834 0.0021710450958667043 0.0870496997318993 0.033614060362507775
-0.16256973622871948 0.005476344433624313 -0.04764975790134018 0.04007069914735869 0.04857886876996461 -0.03352715984883812 -0.008301640881703811 0.01871619899049459
-0.03508610177656509 -0.047849065140707775 -0.02272052146780759 -0.06530057756281797 -0.04334889799889134 0.056604410180624946 0.035399877384638886 0.09903315319164271
-0.09736815367792914 -0.12751964902440122 -0.017333631162773994 -0.01315948000821282 -0.028554200576884268 0.020435546194013558 -0.08872279713589637 0.0601186950115729
0.016498337596989286 0.010607618297409298 0.0039979405218469434 -0.01260856747830939 -0.0514257881841074 0.006793017501037441 0.01523311387889717 0.059611872688828685
-0.0741702012097487 -0.06000824563502198 0.05080026083622293 0.002455901910744597 0.06042315273404661 0.03709225699485235 0.08453808862614058 0.013451562387815027
-0.025246638104358208 -0.05796464395712962 0.04601566587447797 -0.03430367852547503 0.11442574777833218 -0.03367799542882738 -0.05943103356568922 -0.1970506632381822
-0.056587271753523564 -0.04667613487737808 0.040281242869673356 0.030244205988625705 -0.025627141557073456 -0.01156809994224268 0.04524319098418251 0.03361170534120962
0.05405567682106227 0.00458768739653561 -0.012572306060782577 0.09407269454628657 0.038478561306754616 0.10646339078745944 -0.05206538015652399 0.05869805800751839
-0.026217196522510255 0.06684835618147368 -0.026879729472584858 -0.10443642871009992 -0.007780813910509626 0.04245461850718128 0.047638540906291424 0.08439349947417743
0.02379189490979689 0.08350113486813737 0.0693657303869272 -0.05726056191873328 -0.044936967261985636 -0.002898289686868638 0.026846191072908667 0.039795017053570705
-0.09783363294310977 0.037033789012194625 0.06027621169025507 -0.08376394190866782 0.019383243190294077 -0.01361759694213853 -0.00473710788618779 0.09008055428883434
-0.0524892864608806 0.020931834567252224 0.042578422702297246 -0.02215983319426268 -0.05891902115516048 0.007081022813249704 0.09497098557286951 -0.051886944683975006
-0.12345412883162614 -0.018911537977853495 0.07655670265346706 0.03414616194972723 -0.10497722941506371 -0.49557672530631475 -0.26525291131068063 -0.0398023228198916
-0.04041881388114032 -0.04252838009355699 -0.11791827939439593 -0.47838721284641367 -0.1350622961505654 0.035870299883353614 0.03316729080902267 0.028302762888608207
0.013907876711886744 -0.02694313522692947 0.0010542062465025972 0.05500075498744551 0.07044137984128626 -0.08330628081855589 0.02852517359262541 -0.01395233160893146
00000000: 0349 ed72 0e0f a93f 72f1 0d5b 2ef1 c2bf
00000010: cdf0 a630 3d56 94bf c5fd 386f e35c 7cbf
00000020: ff2e 4beb e8ff 8cbf 6d22 633c d258 afbf
00000030: 2cb2 d706 59e0 9c3f c163 0e99 fc73 b33f
00000040: 769c afe7 3eec a5bf cffa 2151 d781 8bbf
00000050: b7ff a600 4f9f b6bf 7ea3 6aee 0e4f a4bf
00000060: 1d21 7c56 2e70 8d3f c800 2a67 5054 53bf
00000070: f380 d7bc 6df2 80bf 14c1 2ab0 dae1 9f3f
00000080: c177 d8d0 30b8 bdbf 4d73 e662 b5af 9b3f
00000090: 6485 ae6f 0cfa 863f 7762 15fb 6d7a b03f
000000a0: ded6 154a 5d5c b43f 7da0 fe46 3ebb 8e3f
000000b0: ef77 6df5 acc3 76bf 67f9 dfe1 ea64 a4bf
000000c0: 20b4 e06a 6007 b53f 4c41 2c16 823b a83f
000000d0: 4a5d d8a8 1582 cebf a961 cb0d 3a8e b0bf
000000e0: 1fae 9d00 3a21 82bf 71e8 c7bb b038 9f3f
000000f0: f870 12c7 7667 b2bf 10df 8ae3 818a 933f
00000100: 2abe 0bde 4189 903f a778 39fa 3503 bdbf
00000110: fd50 84ff 8314 b1bf 7fd2 acaa cb3b 803f
00000120: 8cc3 e846 af40 b13f 2e07 892d 468b 8bbf
00000130: 4bed 3f18 75dd c1bf 10f3 e5f9 5ce2 b3bf
00000140: 6ff0 c6ce 870e c0bf 75da 89ad 1dd1 ab3f
00000150: cd09 24c8 fba0 803f 644a a36c fdb9 b9bf
00000160: 65a3 2dc5 8680 b53f 16bc e803 fde1 b33f
00000170: 548a 600d 342c a4bf 3432 c022 cf14 973f
00000180: ee88 0dc4 9ec4 b7bf 1273 778a 215c 9ebf
00000190: 0fb4 23bc f528 98bf c3d1 f292 8dac 95bf
000001a0: 96ab 2f4f f7cc a8bf 103f 5cc8 245f 993f
000001b0: e844 d764 f912 a43f 5c59 0aec f4ef b6bf
000001c0: 9a7b 0dad d4e5 bbbf 80b1 e794 4df7 91bf
000001d0: 532c 87b9 fc27 95bf e0b2 4eed ffb1 b73f
000001e0: 185f f40c c7ac 86bf 3f44 1951 4fa2 8c3f
000001f0: e62e 0598 1125 95bf 3052 58df 88b4 9f3f
00000200: a29a 82dd a78b 9b3f 7eb7 1e40 f26e 7ebf
00000210: b4bf 62bb 34df 9b3f e5cb f1e1 81fb 963f
00000220: 0da8 2663 117f b6bf 1a74 f8a4 9b78 a33f
00000230: 0dff 5347 329d b73f a015 92c9 4f55 4abf
00000240: 89f9 3a49 2b96 b6bf 7639 44dd 328f 9ebf
00000250: 78ec 9cf2 b569 b73f b631 63a9 f926 b03f
00000260: 5bad a62c 4200 9f3f e8c9 dce1 e4aa b1bf
00000270: d1e4 7ed8 b7f8 a4bf 4b0e 62f9 3b28 be3f
00000280: eabd fb17 276d 88bf efaa 370e fa65 b83f
00000290: b754 ed18 075e ba3f 3e41 0ded ca64 c1bf
000002a0: 4578 9ab2 ca92 833f e3fc 8dc7 9cb0 5ebf
000002b0: bab6 6929 7639 9cbf 390a 998c e0cd 7d3f
000002c0: e3a4 875f 3b0d a7bf 4cd4 d24a b3f1 aabf
000002d0: 495c f78f 166d 7dbf 978b a2f4 c844 97bf
000002e0: ca3a ff63 9296 833f d112 0e21 1fd0 c3bf
000002f0: 36c1 11fa b4ee a2bf deef 438e c6a8 a3bf
00000300: a203 dd3e 154e 913f b4a6 cd0d 5d9c a13f
00000310: 92a4 a19c f961 a73f 4b4c 8776 63e3 6b3f
00000320: abc3 3ab3 ca1a ad3f 3764 0bec ffa9 c3bf
00000330: 4935 0781 b383 bdbf 9939 5260 b658 95bf
00000340: 12fd a411 6dbc a83f 46bc 9d43 b7f5 aebf
00000350: fbad c29a 74c4 afbf 90ee a069 7b53 98bf
00000360: 93b8 5654 9f0c 923f 3e56 fc75 de96 9b3f
00000370: ea85 709f fe0c 8ebf 8557 d05a 001c a7bf
00000380: 8fb9 3d48 633c 783f 573a 7440 7036 a5bf
00000390: a1e2 0d85 cf33 9fbf 5599 5fbf 902f 97bf
000003a0: cbf9 b301 48f8 b03f a1a2 fd39 d22d 923f
000003b0: 2a26 ab7e 5efb bcbf 6c20 4321 d37c 8e3f
000003c0: 63f0 40db a270 883f 11e7 3bde 1fe1 90bf
000003d0: a007 6d6f 59d4 643f dc7f 253e 273b b1bf
000003e0: 40c8 5e9c a279 b0bf af51 4210 fecb 80bf
000003f0: 395e 317a 3fa5 a1bf 0634 318a 2840 8fbf
00000400: 8737 1655 57b6 aabf 4cc0 8acf c332 95bf
00000410: b9ed edf3 b752 9fbf 737f d088 cb2d a6bf
00000420: 5ece 237f e726 98bf aa9b eaf5 02c9 613f
00000430: f4a1 799d e348 b63f ecae e2b3 dc35 a13f
00000440: 27fa 35ca 15cf c4bf f29e e703 5d6e 763f
00000450: 3f78 b28f 8c65 a8bf fb44 bb8c 2584 a43f
00000460: 9b8f 4959 54df a83f 4d34 28ce 782a a1bf
00000470: 7b6e b860 7300 81bf df45 47da 562a 933f
00000480: bb54 5937 cef6 a1bf c4d6 d833 ac7f a8bf
00000490: 67f4 9b62 0c44 97bf 93ce 0ae5 89b7 b0bf
000004a0: 161d 72a6 d331 a6bf a7ff 11d5 40fb ac3f
000004b0: 9e82 4cc7 ee1f a23f 7688 2d9a 3c5a b93f
000004c0: aef6 b78b 1eed b8bf 2e1f 1459 9052 c0bf
000004d0: a533 dc4b e8bf 91bf 6020 2482 5bf3 8abf
000004e0: 9987 90f6 4f3d 9dbf 0116 514a 0eed 943f
000004f0: b0ba 1b88 89b6 b6bf 07e3 e7a9 e0c7 ae3f
00000500: 6674 abb1 f0e4 903f 7c16 686d 72b9 853f
00000510: 4dd7 aefc 2460 703f f6fe bf47 85d2 89bf
00000520: 85f1 d71c 7b54 aabf 7a39 21c0 fed2 7b3f
00000530: d0aa 68ef 8932 8f3f 4abd 4d87 7285 ae3f
00000540: af9a 887c d1fc b2bf 464a fc98 66b9 aebf
00000550: 33f6 d6e5 7d02 aa3f b64f 714c 661e 643f
00000560: 5cf0 d391 c8ef ae3f 7797 749d c1fd a23f
00000570: 4b66 eac5 49a4 b53f 5e41 4924 7e8c 8b3f
00000580: 59fa f733 41da 99bf 0e85 3db4 8aad adbf
00000590: 08b0 1188 5d8f a73f d47f cc72 4090 a1bf
000005a0: 733d 877c 014b bd3f 885d ec01 3e3e a1bf
000005b0: 2d71 1093 be6d aebf 54ad 21c5 f438 c9bf
000005c0: 373d 1ac3 01f9 acbf dea2 9a31 efe5 a7bf
000005d0: 2cf3 8839 be9f a43f d062 754e 56f8 9e3f
000005e0: bea7 825b 003e 9abf 652a 6e17 04b1 87bf
000005f0: 1199 4993 1d2a a73f d214 68ae 8d35 a13f
00000600: 801e 3888 2fad ab3f 187a 51f5 89ca 723f
00000610: 1f50 ee5a 82bf 89bf abdc 85ea 2515 b83f
00000620: 9cbc d144 76b3 a33f 9d45 a74d 2f41 bb3f
00000630: 155a 0d42 50a8 aabf f345 f6fe ab0d ae3f
00000640: 10c1 a046 aed8 9abf f13d 974f f91c b13f
00000650: 3a52 0a1c 5c86 9bbf 7627 d285 58bc babf
00000660: 53aa 8254 c6de 7fbf 46e1 1a9c 9cbc a53f
00000670: 0680 712e 1464 a83f da90 3cf8 cf9a b53f
00000680: d295 300a e75c 983f 5002 7093 5460 b53f
00000690: fa99 79d7 f3c1 b13f 0d45 95a1 4151 adbf
000006a0: d615 8b69 fa01 a7bf b302 6c6d 27be 67bf
000006b0: 27a3 b862 917d 9b3f f2e3 9331 0360 a43f
000006c0: b184 f0fd 9f0b b9bf a905 4fc1 17f6 a23f
000006d0: 3c72 df0b 86dc ae3f 04ef 14bf 8d71 b5bf
000006e0: 07f4 5e6e 33d9 933f 58fc 21ec 8ae3 8bbf
000006f0: 2b49 2eb7 3767 73bf a114 adea 840f b73f
00000700: a3ce 7a31 e0df aabf 7f82 a5a3 276f 953f
00000710: 2b13 0bca d6cc a53f 70ac 6a3b 11b1 96bf
00000720: e38e f249 a22a aebf 5971 7b96 fd00 7d3f
00000730: 7eb7 1abd 0450 b83f ec99 03f5 ec90 aabf
00000740: 4b54 e395 b09a bfbf ff1b 87d4 8b5d 93bf
00000750: 42ad 2f56 3899 b33f 854b b711 9b7b a13f
00000760: 4092 29a7 c9df babf 875c f670 87b7 dfbf
00000770: e2e1 cf58 e7f9 d0bf 00ee a155 f860 a4bf
00000780: 9f74 8657 c6b1 a4bf c3af 4ea3 47c6 a5bf
00000790: 397a 9971 e42f bebf fbfe 7f66 e59d debf
000007a0: 0fd6 71a8 b849 c1bf 691e cb89 975d a23f
000007b0: 6cb2 a49a 4dfb a03f dbd8 f843 66fb 9c3f
000007c0: f827 139d bb7b 8c3f 1c00 9b32 fb96 9bbf
000007d0: fca2 8656 a945 513f 724f da17 0f29 ac3f
000007e0: 8614 b43e 7208 b23f 63c6 aa77 8f53 b5bf
000007f0: a1ae c5fe b335 9d3f a8da b43f 0a93 8cbf

n_convs.1.bias f8 [64]
0.06715930117137389 0.007711257015874791 -0.012608571444466886 -0.03390388412709189 0.051187555470242535 0.04663537582568335 0.06254256387266036 0.040057205356279026
-0.029326001331499433 0.054884205002226516 0.047030199172621454 0.025175974316402967 -0.015749406200060833 0.10540250572987885 -0.03286875455622237 0.016020893830850744
-0.020337301865272443 -0.0632278182936278 0.04950534372567592 0.02648780151352833 0.0655779916329972 -0.06503228235059183 0.0631132927269716 0.03399714942061049
-0.03744543603113599 0.004127029873202029 0.0882667898312779 -0.015790596372631076 -0.0432050145221609 0.058760733534596474 0.03198434939682723 0.03561773418214483
-0.002788997425855096 -0.027243841760381457 -0.021348520567015007 0.024982440149136448 -0.027858992218822987 0.05947175438185439 -0.021642021327892298 0.06145710364468459
-0.011308516871418277 0.03768556680702658 0.02220388610107481 0.00030731903893668993 0.11258370554299417 -0.026315013737855376 0.10023427154700709 -0.030468349196224487
-0.033192501274195436 -0.04564703728378587 -0.016172603004083602 0.09946048983053901 -0.014634669248318515 0.008631373186690515 0.05315823592638122 0.0511916465583267
0.043385569334626915 -0.045555466065962294 -0.03878393607118653 -0.02758281029761332 0.11693631952124449 0.02535362921415729 0.008743303895537971 0.033157515132359615
00000000: 663c 271a 5a31 b13f d593 1bcb d695 7f3f
00000010: acaf 06d0 85d2 89bf f003 1193 d95b a1bf
00000020: dceb 6959 4135 aa3f d215 048c 97e0 a73f
00000030: cae9 701a ca02 b03f 35e1 f2c5 6082 a43f
00000040: e1a1 90a2 a207 9ebf 2861 1a53 c819 ac3f
00000050: 46d6 bd9e 5714 a83f 65e6 5509 bbc7 993f
00000060: 2323 3ec2 9c20 90bf 6fba 069b a8fb ba3f
00000070: eb29 c263 2cd4 a0bf 6c8a 39fc c767 903f
00000080: 91d4 9939 4dd3 94bf 79c0 c4c3 b22f b0bf
00000090: 4ddb 8eb0 c358 a93f 7663 f944 9e1f 9b3f
000000a0: 7bad 6621 b8c9 b03f a449 e1a5 f4a5 b0bf
000000b0: 2589 3458 3128 b03f 0f66 d609 1368 a13f
000000c0: b9c0 4656 0c2c a3bf 903b 5c25 81e7 703f
000000d0: 51f3 a5ff a698 b63f cee6 04fc 682b 90bf
000000e0: 96b1 cab8 f71e a6bf 36df a309 e315 ae3f
000000f0: dc52 49ad 4060 a03f 1b9b f0d6 7c3c a23f
00000100: 9114 7297 f3d8 66bf ac50 8345 cfe5 9bbf
00000110: 0afe 9cf6 62dc 95bf 28c6 a82d ff94 993f
00000120: 30de ea51 1187 9cbf a32c 36f0 1473 ae3f
00000130: 0560 4a77 5329 96bf ef87 8534 4e77 af3f
00000140: 2934 0871 eb28 87bf 5b4f efc9 854b a33f
00000150: 5dc8 9792 9dbc 963f 2c72 bf38 f523 343f
00000160: a3a1 5e25 49d2 bc3f bd6d 97ad 52f2 9abf
00000170: 6497 3b06 f4a8 b93f b08d 714d 1833 9fbf
00000180: 29e5 e386 9bfe a0bf 2618 9668 0c5f a7bf
00000190: 7894 f903 8d8f 90bf 68f9 101f 3e76 b93f
000001a0: dc74 790e c8f8 8dbf 8c85 734c 53ad 813f
000001b0: 6c3b a269 8e37 ab3f 48c2 979f ca35 aa3f
000001c0: 5335 d222 a236 a63f a28f d0c9 0b53 a7bf
000001d0: 9961 12f2 7cdb a3bf 9bdc a310 ab3e 9cbf
000001e0: 1ff0 0ee4 89ef bd3f 2026 3d41 4df6 993f
000001f0: e895 5262 02e8 813f 4b60 3896 05fa a03f
