model_checkpoints/cnn_performance_analysis.pth (torch, 693075 bytes, 10 tensors)

y_convs.0.weight f8 [16, 10, 9]
00000000: 7b4a c878 d783 ae3f 18ac 4b6c fdb4 b6bf
00000010: 5f2f de3f 9645 a73f f941 d2f0 8c67 ac3f
00000020: 2d6f bd89 10b3 b0bf aee2 6b61 6842 9d3f
00000030: e2b9 790f c2d0 b53f 7fd5 bd68 d456 9dbf
00000040: 1149 787b 5638 abbf 4bb0 9e45 c6b5 b8bf
00000050: f782 31aa 6b53 b7bf 3e63 2022 d59f b3bf
00000060: ff23 b5e6 2603 b93f e46b 33a4 821d 9ebf
00000070: 668f 698b 56f4 9fbf 5049 280e 9303 b23f
00000080: b76f 7ef5 d7b2 82bf 0563 8d1f 7004 abbf
00000090: d8bc ba0d 3844 91bf 0a88 0113 db1e 5e3f
000000a0: 4294 c9ea 9d9b aa3f b62b 4a26 60fd 613f
000000b0: 6274 8369 2e3d a43f fb40 552c 072b 8f3f
000000c0: fad6 bfdd c7a0 b5bf cc56 68c2 33a4 953f
000000d0: 2070 cfe9 8048 a7bf a3f6 7c77 28cc ab3f
000000e0: 0b35 864f b90f ad3f ec44 08f3 bc95 9f3f
000000f0: d7fc 09e3 2d58 b5bf d784 fb44 a4f3 b53f
00000100: ba51 9c14 c71f b0bf bf2f 3239 fbd4 94bf
00000110: b292 cfce bc39 953f 2295 20ed 4366 bd3f
00000120: 9e5f 8392 4011 b2bf 35c5 877e a619 b23f
00000130: de4e a0d1 c17e b93f 310a 9805 b12e 9e3f
00000140: 591a f384 0623 9bbf acc7 ddc2 4e53 aabf
00000150: e4eb 9a54 5feb aabf a283 2fb2 2d8e bb3f
00000160: 1412 e36c 3355 b23f 415a b3e4 daec a3bf
00000170: c1f9 b357 779d ad3f 14f6 8b8f 39f0 b3bf
00000180: 0d6a 0ab0 98ce b13f e16f 7e59 e416 b23f
00000190: 4660 6ea1 54ab b73f ff75 1292 38b9 b0bf
000001a0: 0159 dbcb 1565 b73f 3c44 260d 9b46 b33f
000001b0: 676c 844a 6fd1 ab3f dd24 65b0 2361 923f
000001c0: 4400 2239 3813 bbbf 7726 43d9 d6f6 973f
000001d0: 2ff1 b1fe f85f 9dbf 75e7 4817 19e3 a1bf
000001e0: e14a a641 2eac a3bf 91b0 7499 4ddb 783f
000001f0: fc69 d760 2531 7c3f 3164 4969 f849 b83f
00000200: cc96 d549 cc65 ae3f 86ef 73c1 f0f9 b6bf
00000210: 6392 3f60 748a a4bf 91f1 30a0 9d26 b43f
00000220: 6738 5dbf e8a8 503f 25fe 407a 0289 b1bf
00000230: e88c fe8f 8717 a93f 2b99 34aa fdc3 b73f
00000240: f4d5 0b46 bdde 07bf e503 2372 b2c4 7e3f
00000250: 4d83 cb6d 782a a6bf be3c b15d ecf4 8b3f
00000260: a3ae ca3d d9b5 b7bf 510e 2085 c0d2 a6bf
00000270: dd4f eda2 6da9 b1bf a4d9 f6d3 105f 95bf
00000280: 0f48 2e6b 4d3e 9f3f 52be 090b 4361 813f
00000290: 407b dd63 76af 9f3f 5c98 40ed d40a c13f
000002a0: 5ae4 e112 ec4d ac3f 5520 7e5a f5f8 b2bf
000002b0: 060f 41a9 8b48 94bf e395 ed41 2c67 65bf
000002c0: c4ad 2c66 c39a a93f 00ea 78e8 df18 9ebf
000002d0: fe44 4b59 0e3c bb3f 6467 7864 25c3 a63f
000002e0: 5ef6 01da ffe1 89bf 15d7 a691 80e8 90bf
000002f0: f723 cd60 0ff9 b23f 9e9f 7b10 8a56 a6bf
00000300: da80 77ab e405 433f 2b5e a581 7906 a8bf
00000310: 4a92 20aa a00e a8bf d486 6263 37cd a7bf
00000320: ded9 fedf 8e67 c13f 5448 ed36 5f21 b03f
00000330: 02d8 d0d9 4754 a63f c145 6137 23a6 c23f
00000340: 2500 6e56 1f75 973f a492 c8fb bc60 493f
00000350: 3d08 8880 f02a 85bf b1d3 57d4 8927 923f
00000360: 8d95 86c3 7f81 babf 3a7e 1cc4 a7d5 c0bf
00000370: 74a6 4467 8bf0 b3bf 8365 d551 5b0e a8bf
00000380: 1de5 6a07 04b8 773f a9c8 15fe 2834 afbf
00000390: 87d5 350d 8e26 9abf fce5 578a fc4a 933f
000003a0: 33da a0c8 9359 4f3f acda c671 8747 a0bf
000003b0: e86b 8044 2965 81bf 477e 504c 8ecf 97bf
000003c0: bc27 8f05 1a91 b83f 5c1c 0259 4df8 5fbf
000003d0: 1f2a 4442 4ea4 aabf e837 5c01 c255 a53f
000003e0: 7439 d27e 7dbd a1bf 85ab f04d 8332 b4bf
000003f0: 61f8 ae03 9eae b4bf 246a 2e1e 4449 a6bf
00000400: eb23 9c79 d21f ba3f db21 3ea2 05a6 af3f
00000410: ea3c 702d 6eaf ba3f 45d1 bfb4 a510 b53f
00000420: 8d55 e6a0 6120 9cbf cac1 43ea 9879 aa3f
00000430: e485 57ab b53f b5bf 84ab 4dce 3fb5 b33f
00000440: 9173 b8ca 7f4c b8bf 5852 e18d 9493 b23f
00000450: be9a 501d c046 a63f a6aa 75ac 5139 ab3f
00000460: 9d02 7297 166e 903f 4dae 990d 51dc acbf
00000470: 4211 e906 9def b43f c066 3448 4701 ac3f
00000480: 8482 c64b fb59 8f3f 9102 8170 f504 adbf
00000490: 6753 356b 2496 a2bf 9ac0 f633 600c ac3f
000004a0: 9d55 8378 b865 99bf 2d0c b963 56b8 b6bf
000004b0: 7241 8820 ac26 953f 75f4 cfb7 f6f4 78bf
000004c0: 7b71 cad0 9eaa 94bf ae5d 88f4 85b2 a5bf
000004d0: 0a0e 3a21 68d2 b13f 181d 3e3b 4719 a8bf
000004e0: 3a00 8e8d d33e b63f 9ee4 8279 2bb0 9dbf
000004f0: 6c09 54a0 b08b 943f 1810 7a0a db51 b1bf
00000500: b2ad 2e21 5e22 abbf 4575 43e8 b94f c03f
00000510: a93c 5722 f5cb b53f 8f44 0ecc 1737 b83f
00000520: 1dce 8f85 a0cf 843f 50e3 dcc9 f6ee a53f
00000530: 0f90 5480 29e4 98bf 642e db7c 4a80 3f3f
00000540: 3db5 26ad 1baf c1bf 9822 175a 6f15 c0bf
00000550: caa0 eb93 dc20 c3bf 7207 b7af c8d7 a1bf
00000560: 2484 6c6f 4753 ae3f 9d22 a9b2 d94d a83f
00000570: faec d675 3001 b53f 063c 974c 85d0 64bf
00000580: a657 0eeb da26 a4bf 02f4 f612 a84f 753f
00000590: edb7 c881 f938 ae3f d228 31f0 19c3 b93f
000005a0: 11c7 fcb5 deca a93f 6174 3801 8c31 ae3f
000005b0: 5173 1354 2996 b63f ff13 a8ca aba2 8a3f
000005c0: eb0a 1575 b0e7 a5bf dbd7 7711 1730 80bf
000005d0: fc7d af4e 471f b2bf 0bcb fa52 d4d7 a3bf
000005e0: 488f e98b fb1f 9b3f 37fa 50a1 038b a8bf
000005f0: 15a8 ed02 eccd babf 9d2e 6070 6cd3 b2bf
00000600: 91fb 50c9 f492 a8bf c870 4d31 0a57 2a3f
00000610: ec2f caf5 1107 97bf c5ce cdea 2e19 6c3f
00000620: 6d12 1eef 14b7 9d3f 08c4 ac14 762a 9f3f
00000630: 1394 74fb 6e83 6a3f ad2b 557c 5047 90bf
00000640: 4b10 c36d db86 8c3f 05c0 bc77 09e9 a5bf
00000650: 4755 a337 1fd5 b23f d98f 136f b143 903f
00000660: f2cf 216b dd4b 723f cad2 e2f3 dd5d b83f
00000670: 0d6b c9b9 2e69 9cbf 88e2 cb7b 106d 86bf
00000680: 0b0d de82 7bc9 983f 97bd b08b 68de a6bf
00000690: 3104 4fa4 4f99 b3bf dcd7 9160 c073 903f
000006a0: eaea 4df5 4072 883f a30a 94e1 3918 9fbf
000006b0: 84d0 9103 baba b4bf b616 cd00 62b1 98bf
000006c0: 8dfd 7fa1 5078 a9bf d704 8353 e7ca 85bf
000006d0: 356a 8cac 1ec7 a93f c859 1cb1 452d a0bf
000006e0: 6c97 2332 3c32 aebf 5ef0 2238 c9e9 9fbf
000006f0: 3551 8a28 f6b6 88bf afcc 6f15 9454 57bf
00000700: a3d1 de64 61cf b93f e123 33e3 b8b5 bbbf
00000710: b530 d6b8 2c1a b6bf 8275 00ef 2694 6fbf
00000720: ddb8 3635 e291 a1bf 7aea 1835 6f52 a13f
00000730: 8306 55bd 44b7 8abf e560 1ad2 8a87 a9bf
00000740: 568e 1f31 157e bbbf 26af a8e1 70fd a3bf
00000750: 5a32 6713 4e9f b4bf ffc5 fff2 de77 613f
00000760: 7741 b7de 6996 94bf 8b7a 2323 0139 65bf
00000770: b473 7361 ad72 903f 6272 811f af7b a63f
00000780: 4a5b a45d 0b3b 89bf 910b b906 0881 733f
00000790: 523d 2e08 de7d 813f 7ad7 2005 7c76 5dbf
000007a0: 096a afde b7b7 bdbf 7541 9374 4635 8dbf
000007b0: b3c8 e507 52fd 97bf fc63 b28a ded4 c1bf
000007c0: d0fa 2890 b225 a0bf fe84 1945 b8e2 ae3f
000007d0: 955f a35f d173 9f3f a97e 1202 c9a0 b13f
000007e0: 4b45 701d a68d a9bf f174 e948 0bfe afbf
000007f0: cb68 52c9 d3c1 a3bf ea55 fd85 80ce aebf
0.0595996222438275 -0.08869918722091119 0.04545278100621774 0.0554775279971444 -0.06523230898659156 0.028573637910968834 0.08521664502925533 -0.028651541607776828
-0.0531641984672594 -0.09652365874961892 -0.09111664681541841 -0.07665760119597295 0.09770434505948343 -0.0294094479294066 -0.031205513247541637 0.07036704154623874
-0.009130179576281578 -0.05276823411140267 -0.016861797178248178 0.0018384112736602475 0.0519685124498115 0.0021960142060541655 0.039529276256623516 0.015218788185535894
-0.08448456920435979 0.021134194126793557 -0.045475033322617486 0.05429197748752059 0.056760588605451266 0.030844642957224375 -0.08337675850815472 0.08574892696516954
-0.0629848885840322 -0.02034370934101992 0.02072806370041986 0.11484169520607115 -0.0705757482240856 0.07070389355773872 0.09959040992572052 0.029474988905358216
-0.026500799049950483 -0.05141683701266628 -0.05257699878480773 0.10763822174295837 0.07161256225942508 -0.03891643563990899 0.05784199662774681 -0.07788429026182825
0.06955866144054586 0.07066180405530488 0.09245804730596871 -0.065326247846734 0.09138618685696899 0.07529610701591677 0.05433223518976931 0.017948682442953213
-0.10576201815456537 0.02340255452216985 -0.028686419053415676 -0.034935745327358804 -0.038423009408821825 0.0060685187557220225 0.00688280678647368 0.09487869806743345
0.05937040711687089 -0.08975128863306567 -0.040118824719489486 0.07871422921102168 0.001016833584305066 -0.06849685177530114 0.04900764115088824 0.09283433347136298
-4.5528556034495684e-05 0.007511803678597472 -0.04329277363081605 0.013650747880232902 -0.09261853941523639 -0.04457666039527609 -0.06899152019224127 -0.020870459496757157
0.030511102358623584 0.008486293577532642 0.03094277367142273 0.13314305862985776 0.05528199892518933 -0.0741113038949391 -0.01980798931641827 -0.002612673225871319
0.05000887510535848 -0.029391764224991235 0.10638513259916135 0.04445759631580762 -0.012638090935293163 -0.016511925592303706 0.07411285508455011 -0.04362899256903961
0.0005805365134925703 -0.046924397540973516 -0.04698659970043602 -0.04648755157655918 0.13597284257202963 0.06300921526897812 0.04361176046261052 0.14569511608219268
0.022907724046945206 0.0007744715472353847 -0.010335806772676754 0.017728952012436575 -0.10353849910332809 -0.1315202434134209 -0.07788916846461708 -0.046984533061457355
0.005790725458319626 -0.06094482518791839 -0.025537700229923323 0.018840738242920083 0.0009567233657950591 -0.03179572357060087 -0.008493730929378843 -0.02325270024095818
0.09596407542917879 -0.0019512896870155427 -0.05203480299868012 0.04166990534405085 -0.03464882062063426 -0.07889576580843823 -0.08078944768837594 -0.04352772587227019
0.102048067750857 0.06181352239133605 0.10423935517632157 0.08228526747536076 -0.02746727509073348 0.0517089639632818 -0.08300338204528362 0.07698439394668638
-0.09491728495818409 0.07256439651366386 0.043508533075784936 0.05317168455333858 0.016044953340044733 -0.05636838236827355 0.08178121012412468 0.05469725376515333
0.015308345079405379 -0.056678457244293 -0.036301744543982654 0.05478191980671561 -0.024802095752269094 -0.08875026640548418 0.020655335889445188 -0.0060929906294379015
-0.02018211507184862 -0.04237764940279064 0.06961680232239345 -0.04706785772492078 0.08689615446019242 -0.028992347041569937 0.020064124856625495 -0.06765526777059028
-0.05299657969529949 0.1274330505465661 0.0851433953132409 0.09459065181569513 0.010161642147045897 0.042838775769672766 -0.024307869393979383 0.0004806691984924115
-0.13815637545250495 -0.12565414332336355 -0.1494403574245154 -0.0348494257446096 0.05922911868243144 0.04746895128170545 0.0820493972486708 -0.0025408366679822185
-0.039358941262590805 0.005202919520738371 0.05902843198087724 0.10063325990737162 0.050375899997005764 0.05897176279925343 0.08822878172527494 0.01300558292587972
-0.04278327397562073 -0.00790422460611844 -0.07078977271111592 -0.038756022576668846 0.026489191450664223 -0.047935594026501986 -0.10470461913578817 -0.07353856795833243
-0.047996186804531445 0.00020095824643363 -0.02248790800744864 0.003429977069055431 0.029018714041301786 0.030435414325612725 0.0032365005132697438 -0.01589704283587039
0.01392909458844129 -0.042793556085939634 0.07356448276853654 0.01588322868782641 0.004466881671863364 0.09518229679344895 -0.02774498948052 -0.010950211313216288
0.024206094610701927 -0.04466559128956787 -0.07655809174959029 0.016066556829592446 0.0119366717205955 -0.030365852730947506 -0.08097422206066268 -0.024114161776444397
-0.04974605533061114 -0.010640914188459067 0.050347288668679026 -0.031595399732555374 -0.05897701370285699 -0.031165260363863793 -0.012067721473876783 -0.0014239736681218964
0.10082062447219768 -0.10824161097401898 -0.08633689415563846 -0.003854824106396649 -0.034316128726787666 0.03383204959069004 -0.013044869449575508 -0.049862230441421386
-0.10739262055681684 -0.039042975946669764 -0.08055580114086905 0.0021323542096005617 -0.020105032175537354 -0.0025906583988296087 0.016062459061561632 0.043912384601502166
-0.012319649501063918 0.004761725761968886 0.00854085409608155 -0.0017982684262398394 -0.11608456789637257 -0.014261770660966214 -0.023427278263121475 -0.13930875561052847
-0.03153760919348303 0.06032348483564397 0.03071524759511098 0.06885963726608203 -0.04990882024152173 -0.0624850775245508 -0.03858815987151017 -0.06016923556914462

y_convs.0.bias f8 [16]
00000000: 7fda 0acd 9759 813f 7ed1 a39b 50fa 883f
00000010: f043 37dc e5aa b13f ac88 a17b 9ea5 c1bf
00000020: 7af3 476e 7365 9a3f 5edd fc86 4b5d abbf
00000030: 3e97 3300 83e7 b03f afaa ddf9 8413 bbbf
00000040: 4d11 5d04 b462 c4bf 546b 3b9c fa2f 6d3f
00000050: 477d 283f cee2 26bf 321f 371f a5ff b9bf
00000060: c58d 7c62 4ec2 b3bf 028f 6ad7 918c 823f
00000070: 1f77 3861 eba6 9c3f 7571 bb19 da85 abbf
0.008471666283509592 0.012196187734368587 0.06901394487728374 -0.13786679302854077 0.0257776294765679 -0.05344615958022801 0.06603258852882463 -0.10576659298173284
-0.15926218236030323 0.003562917206961039 -0.00017460601482442215 -0.10155708324520843 -0.07718362717110157 0.009057177912218165 0.02798049717795614 -0.05375558437455911

n_convs.0.weight f8 [32, 4, 3]
00000000: 1a60 c314 c90c b5bf f69d 875d 02d4 c43f
00000010: 6921 5c0a 7942 a43f 693e df44 9428 b7bf
00000020: b70b af7d 7663 cd3f 06ae 6071 e3e7 b4bf
00000030: 478b 88a3 fe02 c73f 71eb 3035 08e3 bebf
00000040: 9e5a 9163 1307 b93f 9292 81ea ef9d a2bf
00000050: 9205 bc4d 8c67 cbbf aa11 8066 e44a afbf
00000060: a29e 3ffd fc18 a03f 800f c2d7 d5a6 8ebf
00000070: c14d 577a cb09 d0bf 652e 9b7d c6b3 ab3f
00000080: 59b4 fe81 bfa3 c7bf bf46 1504 4fb2 a23f
00000090: 70ce 9759 b457 c83f 3056 a837 aca4 c6bf
000000a0: 9499 b486 c939 bbbf dc05 c928 a590 d6bf
000000b0: 98ba 48bd a7de c63f 7c96 3b44 fa1f ca3f
000000c0: 0b21 3363 3ce2 a8bf c7ef fa05 4dd7 b3bf
000000d0: f23c c4b5 e440 d03f 0663 6302 b568 bbbf
000000e0: 6528 f43b e012 d0bf 7302 a8d9 ef68 cabf
000000f0: b99a ca0e 5f41 bd3f f3a0 0f16 caac bc3f
00000100: 5336 5649 30fe c9bf b689 33da 4b0d c8bf
00000110: b1aa eac8 1f61 93bf 8949 ed6e 3b25 b0bf
00000120: 1630 7df4 fa13 c73f 66ca 91dc e740 c13f
00000130: 54a4 97db cead b3bf 2013 80a0 846c cf3f
00000140: 3d94 cfd2 a915 c23f 4218 c79c 80c5 b4bf
00000150: f154 5914 cee5 c43f f1e2 cdf9 1893 c73f
00000160: a20f 3ee7 fc88 bcbf ad75 9fa3 7af4 bdbf
00000170: 9de7 9219 58c9 bebf f4f2 f7ff f4a0 d9bf
00000180: 1272 bffd 9aef c33f 70a3 11f5 17f2 d33f
00000190: 6920 5be8 655c c0bf 27e9 4382 350b 6dbf
000001a0: b25c f7ae 76a4 c63f fb01 a5fb bab9 d1bf
000001b0: 04f9 8d43 fcaf bc3f 01ce 94da 8235 bcbf
000001c0: 6ac9 d0dd 06bc cd3f 6621 eddf 18d8 b33f
000001d0: 88e3 a0d0 5c46 b43f 17a3 0957 cd39 c7bf
000001e0: 6beb b92c 1cf2 c93f 8073 3828 3e6a cdbf
000001f0: 10fb 15f6 e904 c93f fad0 9aa0 45f3 c13f
00000200: e361 7824 7b36 d1bf e003 d6fa 06ad c1bf
00000210: 5082 c36d cde6 d23f 13e1 e0aa 3f19 aa3f
00000220: f113 22b0 195f cbbf 3158 7d86 b0ff a5bf
00000230: 1634 f3f7 92d3 c83f 3262 1851 1bdc c23f
00000240: 4a5a 68ce 2854 863f dbbc 7f24 e99a c73f
00000250: ea12 903e 70cd a03f 4f55 2a2c c46b ca3f
00000260: 31b2 7bea 7582 ad3f dd85 6a11 1eb2 a73f
00000270: c17d 01b0 e443 b7bf 0379 f2a7 17db bfbf
00000280: 6cd7 47b2 f22e c2bf 1443 5021 fe8c bfbf
00000290: 0d17 120d ecc0 d63f 3ce8 9430 426d 953f
000002a0: 5468 00d2 9749 b8bf 2f11 c94e e3fc 923f
000002b0: 0099 2253 7b34 be3f 10ec a4f6 c600 b6bf
000002c0: 4937 24b4 e371 bc3f c122 0eb8 dd1c 9c3f
000002d0: c43c 01c3 1550 c93f 183d 4da4 c982 923f
000002e0: 11ef 1fd9 0f09 ca3f 118c 0f84 a25b d23f
000002f0: 1df5 d0bb f10a c7bf 6f69 ee54 2422 c7bf
00000300: 66de c39a 91cb b0bf a42e 6f96 2b7e 833f
00000310: 70c7 f559 d06a 2dbf 1e9a 8045 e543 d03f
00000320: c3be e19a 89d4 c13f e849 9ef0 e65a c03f
00000330: d0f4 5a70 3694 b03f 9846 c6d2 28a5 ae3f
00000340: e651 8247 f5cc 943f af4a 5994 41bb aabf
00000350: 6284 2618 bc4f d53f 6060 d303 c5b4 bbbf
00000360: 1624 1f4d 2361 a33f 405a f44b 2695 c4bf
00000370: 93dc d507 f3f0 c6bf 3a0b 61d7 7a16 a33f
00000380: bdf3 7df7 fe2f d1bf 7c88 bf9d 3bab bfbf
00000390: ab55 b7ad 025f c43f 64ec d5b5 3d1a cabf
000003a0: 49a1 9ab4 515c abbf ed49 51ff 5269 b6bf
000003b0: 8d95 d819 0098 d03f 39e0 9f14 62a2 c5bf
000003c0: afc8 deb7 fdc7 d03f 7214 8ae4 cb30 c8bf
000003d0: 9534 7e9b c7c3 b0bf 3133 8390 912a c3bf
000003e0: 6f06 a09d 31bc c9bf 6021 6147 f8d8 90bf
000003f0: 4dc0 66f4 18d8 8c3f ff13 9872 fe8a cc3f
00000400: ea30 08e6 46da 9bbf 43fb 1978 66de cbbf
00000410: a3d7 7b88 70fe d23f 1f8a f7a3 c410 99bf
00000420: 85bf 53e9 7180 a63f c1e1 6a76 a88c 80bf
00000430: d91c 9a2d 979f d3bf cfc6 3c88 fa4b c5bf
00000440: 685c 11a9 6d91 d2bf 3516 431e f369 b5bf
00000450: ca50 9961 4fd7 973f d1ae 6551 04dc b43f
00000460: 7f41 3bff 1b95 b7bf 9a4d d899 0510 b4bf
00000470: e5e1 1827 0c0c a23f 990a cd73 5c67 cd3f
00000480: ca39 95e5 e771 b43f 6913 0909 39bf c3bf
00000490: b6de dc73 95a3 6e3f e437 d250 74be c93f
000004a0: ba2f 905c d29e b33f c12b ed85 0736 bdbf
000004b0: a0f3 cc9d efa3 a1bf 96d5 5ab7 a36f 9e3f
000004c0: 05a6 0e88 7a44 63bf f60c 3eda 6bb0 a33f
000004d0: 3efc d795 af82 c33f 95af 4881 f35c d5bf
000004e0: 2e36 97fa d36f cdbf 7ba5 51a6 3738 d13f
000004f0: c464 3727 f3f4 c3bf 77bc c67b 8a03 cabf
00000500: 1cee 3ee6 7366 b6bf 07f0 79cb b48c a23f
00000510: ebdc cd05 6a8a ce3f 7e51 c9e5 71a9 b8bf
00000520: 2159 4aa8 a0fd a83f 9224 263c 41c8 b73f
00000530: 9842 eb64 633d babf 0ef5 8e53 d2d3 c93f
00000540: cad1 6c27 cd2a 90bf 650b 452d 9cb9 a73f
00000550: dd17 283d 2b70 bd3f aaf7 580f b12f d43f
00000560: bb06 8d5d ff85 d03f 856d 8b77 4e3c 76bf
00000570: 4498 5bfe 489f 95bf f3e1 c964 f5f8 b93f
00000580: f23b ee51 8690 abbf 8fd6 aa1b 0329 c7bf
00000590: 5d53 dedf 2558 b0bf 3292 a5e5 defe cabf
000005a0: a918 4249 5483 d2bf dd5e 5771 9929 c93f
000005b0: 9e76 f7f6 72ed d2bf ae5a 81e5 c02f a13f
000005c0: be53 77d3 33f2 d3bf 8ab2 bf06 8af9 babf
000005d0: a8f2 9cac fa06 c2bf 15ae 67c5 da0a cc3f
000005e0: 4e58 6bfe fa54 c5bf b6c8 9784 a5fd d33f
000005f0: 13b1 e709 6488 bbbf 5ab2 1673 4b21 a1bf
00000600: 0be4 b446 187e ca3f b8b1 74d6 a81c c53f
00000610: 4600 47cd bb80 bbbf 149f 48bc 5633 cb3f
00000620: 784b 8c60 d93d d23f ba48 1b48 23c7 ce3f
00000630: 1127 0592 28e1 bb3f db9c 9fa0 e084 c9bf
00000640: e50e e579 af23 ccbf 16ed dfa7 6b27 c5bf
00000650: 4ce4 92a0 7827 c33f a034 3756 11ad c63f
00000660: c1c6 ba56 ba7b c23f 40b1 f754 fb3c cf3f
00000670: f9b1 2e3d c689 a8bf 32c2 e6c4 9948 acbf
00000680: 1e02 55f0 a3f0 c83f d851 8d1a 06da cc3f
00000690: a821 7f32 c673 bdbf 55e1 98c3 4871 ca3f
000006a0: f193 1c8c e1db ccbf 1add c00a 6cb7 96bf
000006b0: b37d 0eb9 940c ad3f f080 57c0 bf0b c7bf
000006c0: 84bf 0da3 4a64 c93f 5a2f 5412 f6d6 62bf
000006d0: 5aad e76f f322 b43f edde d149 232a be3f
000006e0: 7140 8378 cb07 d0bf 4dc4 9a35 d9a6 9b3f
000006f0: bdcc ec41 d867 c03f afd3 09ea 257c c63f
00000700: 3c38 8516 1ae1 b73f 9964 aa39 37a0 d0bf
00000710: f9da e525 d85a d1bf c49d 2428 5cc9 d5bf
00000720: 1b16 c152 8dc7 cabf 666f b926 8f27 b0bf
00000730: c44d 2bf0 cb36 a63f a39f cf05 3826 87bf
00000740: aae5 68fd 16b6 bfbf 1d2c 802b 615e 7ebf
00000750: f5f0 eb75 3646 7c3f 3bcd ed85 2dfd b73f
00000760: d08b 0d19 5ca7 823f aaf7 3585 d7ce d5bf
00000770: 9885 ad3c f2d3 ca3f d761 2cff b432 c63f
00000780: 6690 b5ed 3c63 c63f e230 2638 a681 c03f
00000790: 8594 7eb8 9241 d0bf f7d4 2ca3 8f60 c03f
000007a0: 4a11 5281 41c8 d0bf aee2 9c20 d09b bc3f
000007b0: 647b 151d 3d95 cbbf 09c8 5f8d 8b70 d0bf
000007c0: 1973 b983 add0 d33f ad6b c0cf 232e cc3f
000007d0: d7a0 0fa1 4829 893f 1843 1909 c677 c5bf
000007e0: c4fd 26fb 6f44 cabf 715f dba2 8f39 cabf
000007f0: efc8 2089 4368 c6bf b82c 1e3e 551e ce3f
-0.08222634083665561 0.16272000853426477 0.039569647326120734 -0.09046293908544957 0.2295978654566093 -0.081663336925594 0.1797788904669579 -0.12065173433886202
0.09776421719412062 -0.036361214996564986 -0.21409753604534082 -0.06111825705741876 0.03144064513599899 -0.014966650626099698 -0.2505978293167708 0.054105952103409995
-0.18468469474229002 0.03651663708536778 0.19017652868898294 -0.17690041272787616 -0.10635051287372327 -0.35257843954977175 0.17866989843738135 0.20410087901761986
-0.048601042851773434 -0.07750398059846396 0.2539607787193311 -0.10706645305925741 -0.2511520944104915 -0.2063274204993096 0.11427873717421279 0.11201155699348302
-0.2030697210397415 -0.1879057708202489 -0.01892518676565186 -0.06306811769653654 0.18029725015583214 0.13479326505656103 -0.0768708501924647 0.2454992088024932
0.14128611367701352 -0.08113864734249979 0.1632630919799918 0.1841765613314901 -0.11146526952330629 -0.11701170439433524 -0.12025976776467791 -0.40044903752259065
0.155749677563009 0.31165121967801834 -0.1278197655249216 -0.003545383939237773 0.17689403098368 -0.27696108412422377 0.11206032418519746 -0.1101915153165507
0.23230062323416273 0.07751613108587704 0.07919864743679572 -0.18145148038754463 0.20270111259363985 -0.22980477298633772 0.1954624606696247 0.1402365717127692
-0.2689502578882907 -0.1380928730759754 0.2953370639716342 0.050973882302459604 -0.21383973217248767 -0.04296638147086219 0.1939567290013719 0.1473421236012356
0.010902708815632729 0.18441499979187523 0.03281737102228084 0.2064137664462273 0.057635960458217624 0.04628080332373561 -0.09087971970574583 -0.12443683481476246
-0.14205774026020934 -0.12324512780493208 0.35552502895767263 0.020924600806417212 -0.0948729407977294 0.018542815860443426 0.11798830775896718 -0.08594935914599966
0.11111281536088059 0.027453865393485048 0.19775650045128235 0.01807704034154964 0.20340154744905495 0.28684294601970445 -0.1800214926787839 -0.1807294287398906
-0.06560621288724064 0.009517994430914563 -0.00022443574287539124 0.25414401805247333 0.13929863035763476 0.1277741122144811 0.06476154559182423 0.05985381672793472
0.020313103189055236 -0.05220990119837176 0.33299162252848735 -0.10822707503700846 0.03785047832895587 -0.16080168446269916 -0.17922819025600187 0.03728088263644343
-0.2685544411577288 -0.12370655633233868 0.15914948923334057 -0.20392581347173 -0.053438714310063924 -0.08754461987817992 0.25927736782099303 -0.16901803977066424
0.26220648723677703 -0.18898914965771813 -0.06548736139503071 -0.14973659092211158 -0.2010557193425941 -0.01645267425217989 0.014084048231637914 0.22299175830281112
-0.027199847974814263 -0.2177246176178987 0.2967797596787653 -0.024478027827976697 0.04394870732528403 -0.008080783952537087 -0.3066156335193689 -0.16638118412224975
-0.290126242738046 -0.08364791382617727 0.023282280284846725 0.08148219096409128 -0.09211897832142844 -0.07836947446803891 0.03524816491375641 0.22971683172552984
0.07986306529094303 -0.1542731565588398 0.0037401122089269724 0.20112470575662578 0.07664217719883384 -0.11410567302406972 -0.03445385743405116 0.029722745958414253
-0.00235198909691259 0.038455362692753 0.1524257165583282 -0.33379829049476345 -0.2299752210223444 0.2690562366684259 -0.15591277518141144 -0.20323306125417037
-0.08750080462680682 0.03622975334016592 0.23859906466871136 -0.09633552417773747 0.04881002477957198 0.09289939611893974 -0.10249921048967747 0.20177678184510522
-0.01578827431804245 0.04633796742066102 0.11499281161385917 0.31541086672575125 0.258178559644971 -0.005428606521231121 -0.021115437054412448 0.1014550562921455
-0.05383701086167737 -0.18093909121460114 -0.06384503093279421 -0.2109030362436371 -0.2892657008563995 0.19658201250307786 -0.29574274175488735 0.033567455306799374
-0.31165786410320695 -0.10537016548887315 -0.14083798817036564 0.2190812553302385 -0.16665589735811398 0.3123563570835687 -0.1075499080831757 -0.033457143591793595
0.20697310879202777 0.16493711921192555 -0.10743306886343004 0.21250423615969594 0.2850249712802717 0.24045220394925143 0.10890439572281375 -0.19936759798949918
-0.21983903362171656 -0.16526551911361115 0.14964206543462166 0.1771566077208364 0.14440087542384641 0.2440485157852752 -0.047926135033183166 -0.055241399083915246
0.19484376177753487 0.22540355965123982 -0.11504782421901061 0.20658216047901115 -0.22546023694408704 -0.022184074550947043 0.056736610021512666 -0.1800460518998146
0.19837315522772425 -0.0022997671209220973 0.07865830881171601 0.11783047249070551 -0.25047575730150756 0.02700366391826874 0.1281690904521379 0.17566369941382962
0.0932785325032634 -0.2597787917271233 -0.27116969777073013 -0.34041503830163955 -0.20921484509214924 -0.06310362525385713 0.043386815135501716 -0.011303365399683523
-0.12387221991311628 -0.007414226121919246 0.006902897583810343 0.09370693702458237 0.009108275904230384 -0.34074962624424165 0.20959308588775794 0.17342245540272813
0.17490350348373623 0.12895658246669145 -0.2540022660926485 0.12794681041274433 -0.2622226488968137 0.11175251766406788 -0.21549190445054045 -0.2568692093474288
0.30961168159210356 0.2201580776607818 0.012285773673241724 -0.1677176994731091 -0.20521354449554796 -0.20488162471769614 -0.17505687900263164 0.23530068905924906

n_convs.0.bias f8 [32]
00000000: 9fbb a5a0 8494 89bf 3e0f 8246 2d49 af3f
00000010: 44a5 8028 ec83 9dbf 7afe 2108 7544 90bf
00000020: 0371 a316 c32e c9bf f835 ab10 246a c6bf
00000030: 22cf 8f17 b062 c0bf fa5f f4ee 6587 c1bf
00000040: 7e46 9b83 99e8 babf 451a 7eab eab4 c53f
00000050: c4ed 5b1b ff12 adbf 0285 e982 a086 c53f
00000060: 042f 4f8c 6778 af3f 1d83 c619 4287 c9bf
00000070: d78f 890d de54 c9bf a22a 89bc 9962 b93f
00000080: c4de acbc 7cda cfbf 8fbf 11f9 e01c c5bf
00000090: be4f 38f2 6cc4 65bf daa2 c873 e3b2 bc3f
000000a0: fa73 921b 85c6 b6bf 73a0 12d5 418b be3f
000000b0: 146a b537 ebcb c4bf d926 5965 3fec ccbf
000000c0: 6a72 a20e d31c babf fd35 db61 e969 b1bf
000000d0: 3d0e f2a9 d992 ce3f acac f63d 425e c0bf
000000e0: 7c15 0fe7 be95 bb3f 3fae 2093 41db a6bf
000000f0: 2a2c e087 4f9f c03f c69d 6337 eaeb 9cbf
-0.012490306999749566 0.061105170113505455 -0.028823556873395675 -0.01588614332331282 -0.196739564947059 -0.17511416257768508 -0.1280117144630078 -0.13694452445702138
-0.10511168921518707 0.16958363889371433 -0.05678555687878942 0.16817098991581508 0.061465488317109546 -0.19944025286260905 -0.1979024473286006 0.09916077473568888
-0.24885520184192533 -0.16494381105030384 -0.002657139573566141 0.11210462166549054 -0.08896667407175576 0.11931239559146593 -0.16247310848378105 -0.2259597058166978
-0.10200232608117124 -0.06802233351773875 0.23885651395913668 -0.12787654901089718 0.10775368825041726 -0.0446415416812127 0.12986177572779073 -0.02824369395321271

n_convs.1.weight f8 [64, 32, 5]
00000000: 404a bfdb 4463 743f 53c9 a7cb d5ed ab3f
00000010: 99b9 2226 8437 7f3f 5b0e 162c 0208 9a3f
00000020: eee8 5be9 a810 973f 927d 2ac8 3e7a 8dbf
00000030: d8e7 abfd 4006 d0bf cbcd 9521 2036 ccbf
00000040: bb06 34f6 1b60 b7bf 0923 f2f7 a4b2 8fbf
00000050: f7e1 d269 d7f8 77bf cd3d b226 e8d3 6d3f
00000060: 5cb5 dfb5 b5fe 92bf 7ad8 7d01 f99c b93f
00000070: 52fb 5e3c 8aab af3f 0d3b 84bc 5413 92bf
00000080: c467 ddc6 a397 79bf 0f31 8187 a5c9 a53f
00000090: 5c15 44ef 2263 a63f 193f 2662 b098 b93f
000000a0: f615 a764 b1cc bc3f 0bef 4be7 2bc4 93bf
000000b0: 231f b976 0c03 a53f dc7c baee 51b1 af3f
000000c0: 6013 c508 3b09 a03f a1cd 9ac0 9f49 acbf
000000d0: fad7 2707 1e09 bcbf 053e 0b29 6e22 a5bf
000000e0: 8a25 b3d1 af6e a1bf 500f fd96 9574 adbf
000000f0: 8be2 9e25 c360 9f3f 5c39 e930 b5d7 d0bf
00000100: 7002 0738 b85a babf 31e8 ead6 6534 bdbf
00000110: c591 3760 4c49 963f ca1f d64e af2c ba3f
00000120: 7e11 5a58 04af a03f c7a7 cd8e 29fb ba3f
00000130: b744 1a27 a5e4 a33f 03a0 80e4 bdc4 78bf
00000140: b1f8 c531 714b ab3f 8d20 d91d ea29 76bf
00000150: d8f5 07aa ba8e 59bf 58dc a647 091a 8b3f
00000160: ec31 8bbe 2484 993f 1917 6647 083e 963f
00000170: 0d2f 39db 0243 b0bf c49d 63ee 9c9f bebf
00000180: 98d0 cefb 38c3 c4bf 6293 5cdc bf85 5ebf
00000190: dd92 51f0 f637 a73f 0ad5 7b53 ad7d 99bf
000001a0: 2292 75d1 722a a63f a644 8ba1 8598 a1bf
000001b0: 1a56 c017 bac2 6cbf 5a8a 89e8 f492 923f
000001c0: 48da 5b59 23e3 a1bf 9b0f 1914 b516 93bf
000001d0: 6049 7244 c362 863f ddaf 14c8 aa32 b6bf
000001e0: 6633 75f1 3fa8 a93f 828b 4fe5 6cdf a23f
000001f0: 3406 bac8 ba02 883f b795 d9f0 98c0 a4bf
00000200: 2bc0 1253 208b a1bf 7e3e 173a 377d babf
00000210: f078 7ed6 8546 6cbf 6faf aa40 9a8b bbbf
00000220: a407 93ab 552f a8bf e858 3b67 6d24 f43e
00000230: 830e 99a0 b809 a03f 15eb 53a8 4653 863f
00000240: 7d99 9607 60cb a33f 8715 135d d7cd 86bf
00000250: bdf3 49d0 6c5d b7bf 96a2 b2b7 4352 aa3f
00000260: 4af7 d119 d39e 7b3f 1746 5988 b62e a9bf
00000270: 7fc3 c376 24f0 abbf a743 1b16 1ed2 c1bf
00000280: 542d cdaa 02b0 b1bf b13d 6405 7252 c0bf
00000290: 805c 3729 9f62 c7bf 9c31 dde7 76e5 b9bf
000002a0: a439 81d1 b4da 8c3f fb5c 8841 3350 9cbf
000002b0: c3d4 1e67 7670 54bf 30ea 606c f33a 963f
000002c0: 9ecc f6e8 eb00 93bf 82c9 d7be add6 af3f
000002d0: 756e f1a8 180b 953f 0355 7d7f fc94 aa3f
000002e0: db33 285e e777 b03f 650c 20fb 100c ac3f
000002f0: 0d73 c69d b505 ba3f 62d7 235a d17c 873f
00000300: a90a bbd5 2485 a8bf 75e8 0abf 2b93 9b3f
00000310: 943c 594f 1573 8b3f 004b 4d87 3f74 5b3f
00000320: 0990 9be0 1b9f aa3f 91ea 9d86 2ed6 983f
00000330: 639b ea07 391d b1bf 66d1 15de caf6 a0bf
00000340: a45e b7b8 5a9b 8bbf c351 6f9d e019 bb3f
00000350: 699c 8e7d 68d8 a83f 7041 d82a 84d2 a73f
00000360: 6b6a 7848 2079 b13f 39a3 1062 dfad 953f
00000370: 097f e8c2 96af ab3f 3fcb b419 d6c2 b23f
00000380: 13a9 d553 9701 aa3f 9e14 1b7a 531b 763f
00000390: f788 b017 b23e 9abf 58f8 ba78 4cec 753f
000003a0: c7dc f2c9 fbb7 a3bf 0711 3104 ff0f a6bf
000003b0: 45a9 f0fc c6c0 8cbf e8dc 64cc d3d3 a4bf
000003c0: 1309 c166 606c 97bf 1877 8d8d 6813 993f
000003d0: 589b e957 0f4c a7bf 1064 b997 c38a a5bf
000003e0: 08e8 395e 6dea 9cbf 8a0b 9d18 3834 a73f
000003f0: cdcf 7c8a c6ce a03f 9306 e338 4ac6 99bf
00000400: 9b8f c381 d872 b0bf 08e5 45e4 8fa2 a53f
00000410: 4c7a 2aed 17e1 a33f b9e2 c116 e207 b23f
00000420: b839 68bb b66c 8e3f be75 d98d c7f9 93bf
00000430: 6ac4 0012 3ba2 69bf 65a5 2fdf 5991 b83f
00000440: 5785 4d90 3d3d 72bf 7c12 5bb0 fc30 a23f
00000450: babd 4377 99f0 b33f 39f8 23e3 def6 9abf
00000460: 890d d50a d235 a53f 413f 6295 a48a b03f
00000470: 9139 f16a 9b1d 90bf a5f8 fb07 68c9 983f
00000480: 2996 7482 9921 8abf 0560 aa8f 0141 a43f
00000490: 2607 a5e2 6a55 b4bf 8547 eecb dedb 91bf
000004a0: c1e5 d68b 48ae b0bf 71a3 8bcb 09d3 a1bf
000004b0: f3de 8b36 a1ab 9dbf 61b9 8aa6 1830 aabf
000004c0: 39b7 9f27 21cb a9bf 1fc9 c1a4 381f 603f
000004d0: 9449 25a1 2536 aa3f 82ea 7f72 f579 8f3f
000004e0: cbd6 e498 b131 c0bf 0cbb 8129 cc27 b3bf
000004f0: 070e c0db 74c0 98bf ffb9 7f60 2b44 a03f
00000500: ce43 af23 c608 b63f aa6f 3c5d 9bb5 853f
00000510: 770b edff 7152 6c3f 1842 577a b9f3 a83f
00000520: 3252 f5ea cb45 70bf 910b edb3 3602 a1bf
00000530: eab4 ca79 ba99 b03f cca5 ee20 e1ea a6bf
00000540: a0fa 58c5 3862 abbf 8ca8 fb2a 6906 91bf
00000550: 3d9b 5604 cab1 c6bf 5a64 9812 8ca4 793f
00000560: c3f2 8252 78ab a1bf ccb0 2ff3 31a5 bbbf
00000570: c5e0 3702 b7c3 c1bf cc88 3318 a68f 693f
00000580: 989a ae07 901f b23f acce ee88 1f96 a0bf
00000590: c47e 4372 f34a 833f 8976 4129 24bc 923f
000005a0: 6ff3 4ffb 83dc ab3f cc2a 3fbc afa5 b6bf
000005b0: cc91 7979 7f1a b1bf d83c b5c6 8d47 da3e
000005c0: d6c0 3742 08df 813f c6f0 ebba 09b2 c3bf
000005d0: d96b f6ea 5ccc a53f 87d3 24f3 a756 a3bf
000005e0: 6406 fb28 eb9a cebf c6c6 2f03 a8aa 8e3f
000005f0: 1288 2f8c fd88 763f b1ff 915e cfa5 b23f
00000600: bd40 578c 83ad a33f a4a8 edc8 b7e9 7a3f
00000610: 4939 3ba8 505e 63bf dd40 6288 a401 c13f
00000620: 1abc d720 d6ea b4bf 24e6 35d6 03e5 9cbf
00000630: 8b79 dd8c 0bca 913f 6dac d474 128e b9bf
00000640: eab4 f77d 8bab 973f 3738 1108 e982 99bf
00000650: cbd8 8d77 49be 96bf 3e22 09f5 2223 9bbf
00000660: 64bd 4da5 a6e1 643f ee44 34d7 1a32 b6bf
00000670: 8238 ed17 24c9 4f3f cb3a b1b1 7ad7 953f
00000680: a8ca 64b8 ebf2 c8bf fded 50d9 4d81 633f
00000690: 2c0b 446b 0513 c0bf f74a 17cb f128 abbf
000006a0: a383 a59f 7bb4 7cbf 33e3 00c9 eb0b c7bf
000006b0: 89d6 6b86 4c8a b1bf 365c 9a92 f3aa 973f
000006c0: e979 786a 72dd a9bf c354 23cc 2e02 b2bf
000006d0: 753c 0472 dd0d bcbf 54aa f814 31b0 7abf
000006e0: 3855 67a1 7cee 7f3f a00a 9c69 fb02 97bf
000006f0: 1104 f267 bcd0 173f 889b 2cde ad4c b2bf
00000700: 8417 c223 f32e 933f 67d0 4079 9ebe 64bf
00000710: 3cc4 cf30 24ab bbbf aaf2 db86 39de afbf
00000720: 6940 c9cf faa4 b3bf cee9 2fb1 5eed b9bf
00000730: 9cec 7e03 7b0a a4bf 41ed b764 9cc7 af3f
00000740: e8f4 db5e 888d 9e3f 21f4 1236 d6e9 a0bf
00000750: e04e 7399 1ecd af3f 5919 537c 95f8 5ebf
00000760: c093 c832 485c a03f f6a3 1dca 09c2 b2bf
00000770: 8af6 1669 2d81 a53f 54c0 d3b4 8e21 b8bf
00000780: ed20 2295 c85e 9fbf d818 a6e3 94e6 973f
00000790: 8f13 d70a 491b aebf 4d4f 0c14 d3a1 9d3f
000007a0: 2cfb fd0a c9ca ab3f 4a10 f1f1 cb60 93bf
000007b0: 3f22 ac74 d818 80bf f575 dfda 7f06 8f3f
000007c0: 201e 44f4 172b 8a3f 5e1b 3675 0ef4 b33f
000007d0: 820a 6206 36f2 99bf dcc0 a28a 5d5d b53f
000007e0: d050 1bd4 1771 74bf 16f4 b38b 0e43 b0bf
000007f0: b248 8c54 d623 603f 2e58 cd7c af20 a7bf
0.004977482774807529 0.05454891310718559 0.007621303755668407 0.02542117494659944 0.022524489634613447 -0.014393320544796837 -0.25038170597656295 -0.22040177955532977
-0.09131026039906491 -0.015477455918032417 -0.0058525480828213105 0.003641084118107796 -0.01854976580209687 0.10005146299758563 0.06185562121344525 -0.017651866918693183
-0.006248130562960644 0.04255406645879322 0.04372510119177761 0.09998609920716851 0.11249836642590325 -0.019303022377228845 0.04103888463265395 0.06189971961179605
0.031320423908744344 -0.05524920679217905 -0.10951411890695786 -0.04127830744766573 -0.03404759821712407 -0.05753009288903732 0.030642556353742505 -0.26316575790851515
-0.10294677131515484 -0.11408077713977673 0.021763985989211827 0.1022443358871207 0.032585273537764955 0.10539493309411717 0.038853798888462014 -0.006047002571030194
0.05330995304665132 -0.005411066549250288 -0.0015599081890508206 0.013233253955020327 0.024918150071970332 0.021721009595714855 -0.06352250911839637 -0.11962300128981612
-0.16220772071176692 -0.001862943042803177 0.04534885104729878 -0.024893482418481695 0.04329260641933198 -0.034366775483826204 -0.0035108217835027157 0.018138720219562955
-0.034936051042610716 -0.018641309119871257 0.01093056252128538 -0.08671061882768023 0.05011176893694973 0.036860850326568176 0.01172395634717125 -0.04053190174162629
-0.03426457418515868 -0.10347314041359287 -0.003451596643528558 -0.10759891585138147 -0.04723613471425317 1.920918880567941e-05 0.0313241668741542 0.010901023876149144
0.038661003996184974 -0.011134798553380744 -0.09126930318048117 0.05140887849240021 0.006743263828978227 -0.04918451704419285 -0.05456651639713694 -0.13922477797907826
-0.06909195585210642 -0.1275160337759025 -0.18269719612610302 -0.10115760002844926 0.014089024203852336 -0.02764968955497425 -0.001247516277073133 0.021709254732039607
-0.018558202833173547 0.06218474344850035 0.020550141631572722 0.051917925417607 0.06432958649402513 0.054779558806352914 0.10164961912091659 0.011468539775232937
-0.04789080723778245 0.026928599868121645 0.01340309761431361 0.0016756649394735201 0.051995154540947004 0.024254538503991233 -0.06685215419075301 -0.03313287697793292
-0.013479908716291185 0.10586360782264763 0.04852606327704551 0.04652798674590286 0.06825448769851909 0.021171083794033072 0.054074012081626384 0.07328546645730415
0.050793389304845026 0.005397153932510749 -0.025629790016076872 0.005352305142592405 -0.03851305809205879 -0.043090790998151766 -0.014039568513983478 -0.04067861433071035
-0.0228743612972347 0.02448809970825669 -0.04550216625357589 -0.0420743105611977 -0.02823801887141289 0.045320275311062266 0.032827572255342476 -0.02517047855577077
-0.06425240676941117 0.042255875220641725 0.03882670183269407 0.07043278747176886 0.014855792612277749 -0.019507520706943053 -0.0031291154591817543 0.0959678811920149
-0.004452934725891331 0.035529991653253185 0.07789000665410742 -0.026332361806446356 0.04142624265889611 0.06461552283348927 -0.015737942125548413 0.024205804335900045
-0.012759398740466459 0.039558457171722274 -0.07942836793247618 -0.01744030112929053 -0.06515935339020641 -0.03481321916280578 -0.028975027994390733 -0.05114819558126516
-0.05037788017931039 0.0019680124587974214 0.05119435875043901 0.015369336659195602 -0.12651653256914694 -0.07482601178501741 -0.02417166320084443 0.031770091561941875
0.08607138034064052 0.010600293906058617 0.003457281737980929 0.04873447054308516 -0.003972813180855671 -0.03322001406060971 0.06484570954735927 -0.044760737676664414
-0.05348374756839758 -0.016626017807461355 -0.17730069362479553 0.006260440024129366 -0.03451133734913505 -0.10798942744412726 -0.13878524406732687 0.0031202549013054966
0.07079410731840097 -0.03239534899276228 0.009420301365423163 0.018295826929139145 0.05441677515771103 -0.08846567483775941 -0.06681057658858619 6.265522738260069e-06
0.008726181526953185 -0.1538707888320287 0.0425747906512794 -0.0377705082231961 -0.23910274029735767 0.014973938557861454 0.005501737995446747 0.07284256037564664
0.03843318069596211 0.0065705470177396565 -0.002364308866027152 0.13286263141026824 -0.08170831968139716 -0.028217372846006353 0.017372303459859444 -0.09982409813226108
0.023115329326107416 -0.024913445584665985 -0.02221026222419979 -0.026501222806731166 0.00254900501243298 -0.08670203928001616 0.0009700227964033611 0.021329800696828365
-0.1949133539543102 0.002380992935767655 -0.12558047998035116 -0.05304675678384812 -0.0070080594108227505 -0.18005130114195253 -0.0685165241410123 0.023113065550742294
-0.0505176310509688 -0.07034580692136942 -0.109586563430854 -0.0065156857740854175 0.007795798147033843 -0.022472313233275032 9.08484453123889e-05 -0.07148253130126936
0.018733786637788366 -0.0025323004902251703 -0.10808016006173288 -0.06224231501798745 -0.07673614094642435 -0.1012782270990222 -0.03914246003793062 0.062069785399183626
0.02983677939390797 -0.03303403291781871 0.062111812812558176 -0.0018903217144710853 0.03195405597606493 -0.07327328857867585 0.04200117023308987 -0.09426204600072313
-0.030635007955908945 0.023340536493855563 -0.058801920483836694 0.028937624071729662 0.054281504241762896 -0.018923937456080155 -0.007859889088210113 0.015149115435572272
0.012777506963643381 0.0779427562866721 -0.025338024272523636 0.08345589289342875 -0.004990666465989516 -0.06352320585934054 0.0019702135217665945 -0.0451712455602976

n_convs.1.bias f8 [64]
00000000: 8e9f 0a19 cf05 73bf 933d e214 1884 a33f
00000010: 3028 1a89 b083 93bf b3db 43d3 a881 bc3f
00000020: 23ca d175 dddf 9a3f 7706 2ca0 5422 b23f
00000030: 8286 fcfd c51d ba3f 7591 413d 7490 893f
00000040: 7eed 693d 7068 9abf d11c 042b 73cb adbf
00000050: 1aab dd3b d83d b53f 8300 8a08 6961 9d3f
00000060: 387d 6774 7249 8a3f 3f51 5127 3402 a83f
00000070: d977 9720 646a b83f 12f6 574f 2d21 ad3f
00000080: 7c56 957d e619 983f 17c3 7136 71f6 92bf
00000090: 446d 747d 5e5a 973f 4675 3a9f 7ad3 b33f
000000a0: 599f c0b8 5646 af3f b964 fff9 34a3 a93f
000000b0: c286 43f2 a406 743f fb92 e523 e084 b53f
000000c0: 8308 b1e3 f56a 93bf 3ca1 83eb 8fe6 a4bf
000000d0: e455 d696 8d02 913f 5af9 d0f4 c28b 9b3f
000000e0: 028b c2be 52cd b63f 1833 d348 25e7 b33f
000000f0: 8dbf f050 86f6 aa3f 8cd0 6dd9 fade a13f
00000100: e7ad 27b7 a0e7 ad3f 9fd8 e59b 5e9f bc3f
00000110: f0f6 47d8 7f26 b03f 812b 6c86 a8fe 973f
00000120: e813 0340 160c ac3f 8c3a ad74 a651 9e3f
00000130: 3a3c 1de3 5fcd bc3f 804a d8f8 9487 b83f
00000140: 64d5 65c1 2f8f b23f a34f c6c2 22ed 913f
00000150: 311a f51b ddf2 ab3f 5926 f2d4 25fb 88bf
00000160: a9d2 6e22 2d59 a73f cbc5 ee09 d155 93bf
00000170: dc53 acef 76e2 973f 24e4 42b4 fa8b c13f
00000180: b50f 4179 2256 b03f 3f23 91bb 51d6 ba3f
00000190: ff21 7e91 4a26 b33f 336b c82a 781d a33f
000001a0: f5f7 57b8 3206 ad3f 3be1 8ce3 907f b13f
000001b0: b193 fadb 052d 78bf 2764 7803 f6b4 b73f
000001c0: 0361 f36b e5e8 51bf 0725 14c7 642c 88bf
000001d0: da71 c214 849f b03f 2a6a 4404 c115 b13f
000001e0: d909 93fd 8867 90bf af59 b08a ae74 b23f
000001f0: c4f8 939a be31 ac3f 9a45 4872 2f3b a33f
-0.004644211746075556 0.03811717276505102 -0.019057043426563947 0.11135344655836725 0.026244602504855174 0.07083634291122985 0.10201680613365663 0.012482555503262141
-0.025789026020431198 -0.05819282436464735 0.08297492467469816 0.028691903253730288 0.012835401704193047 0.04689181308700307 0.09537339969344262 0.05689374536084925
0.023536302008628315 -0.018518227527638844 0.02280566826548848 0.07744566333208977 0.06108351712492661 0.05007329513291254 0.004889149018909302 0.08405876995454868
-0.01896270944804047 -0.04082154989174788 0.016611301738142972 0.026900335495377938 0.0890704837534422 0.07774575260118544 0.052662083988592824 0.034904326478597175
0.058407804830348735 0.11180678659534003 0.06308745413113193 0.023432381824970875 0.05477971583744773 0.029608345862750116 0.11250876707821159 0.09581881594957942
0.07249735328317325 0.017506163728810652 0.054587278044483496 -0.012197776375859325 0.045602236226306055 -0.018882051688427198 0.023324831369865837 0.13708432962246875
0.0638143106489782 0.10483275250693412 0.07480302860324882 0.037334208700676184 0.05668791294372958 0.0683527522604707 -0.005902312171802857 0.09260499558185185
-0.0010931244321935047 -0.011803424191855883 0.06493402010750718 0.06673818926029954 -0.016019955136252626 0.07209292303045943 0.05506702076853423 0.037560923290708106
