model_checkpoints/cnnv2_1.pth (torch, 693499 bytes, 12 tensors)

y_convs.0.weight f8 [16, 10, 9]
0	0x3f6f8b9a87cfee4b	0.0038507478880072435
1	0xbf9aef39c4fe12b3	-0.026303198479143485
2	0xbf9bbdd0a56f336f	-0.027091274354279656
3	0xbf7a55e45d268f1f	-0.006429569288602526
4	0xbf938dcd2c22f565	-0.019095617121583603
5	0xbf868cbd63a38eb3	-0.01101062736820011
6	0xbf9bd77337324d66	-0.027189064258505445
7	0x3f7302b9cb779bb1	0.004641271363175757
8	0x3f7c9be98241eeaa	0.006984626907179306
9	0x3f753d9578046436	0.0051856840730347045
10	0xbfb19380aef53540	-0.06865696212226613
11	0xbfb4408c69f778e6	-0.07910993182256085
12	0xbfb1eb388f434924	-0.06999543664577296
13	0xbfa754629f4523b9	-0.04556568330969619
14	0xbf8148fa61798f47	-0.00843997583360302
15	0xbfb1772b3e02cf9c	-0.06822462333621931
16	0x3f71923e1403bfc3	0.004289858334445232
17	0xbf81a84fabdf3967	-0.008621809418312322
18	0x3f6ada5335a44af2	0.003277933615330902
19	0xbf84b8f578ce8c05	-0.010118406056625071
20	0xbf9452b4f416742f	-0.019846751592570818
21	0x3f758e62688a725c	0.005262741477647905
22	0xbfaaa69c6adcccb9	-0.05205239109491217
23	0xbfa032e6b8fcc7b9	-0.031638345796082
24	0xbf91c964cece3e27	-0.017369818804182337
25	0xbfa3e17bd546d306	-0.03882967928385565
26	0xbfa9bb212b5cd4c3	-0.05025581030205608
27	0x3f916679415407de	0.01699246846420254
28	0xbfa59c8012e0e99b	-0.04220962744189479
29	0x3f96bfbbda4f113c	0.02221578140212553
30	0xbf96f5e7a9af1224	-0.022422427875215103
31	0xbfa1db77244da49b	-0.034877513104967416
32	0x3fa28a87a2adbe54	0.03621314869712636
33	0x3f9e86a5e05fe2d3	0.02981051618550874
34	0x3fa292c89f548228	0.03627612061450619
35	0xbfa75804c07e6d76	-0.04559340333727395
36	0x3fa1421b5903e8ee	0.03370748006450862
37	0x3fab1f8cf470df6f	0.052975087012270154
38	0xbf979deaf215ac96	-0.02306334593360456
39	0xbfb09caea22ce8a1	-0.06489078006134942
40	0xbfa4e4cc7233648a	-0.040808094921609486
41	0x3fa8d6a8af9a833f	0.048512717662794184
42	0x3fb017cf06f15cb2	0.06286329192640741
43	0xbf98a45c6ef537ed	-0.024064487716991257
44	0xbfa0d6d7f34a011f	-0.032889126251577354
45	0xbfb7b18ed83ae541	-0.0925530698686048
46	0xbf93702f58aaad1a	-0.01898263910940754
47	0xbfb57e0c0c24101d	-0.08395457550437908
48	0xbf7292eba9c72215	-0.004534645614008533
49	0xbfb94eb87b4265ed	-0.0988574315000716
50	0xbfb0d90359c375ff	-0.06581135694019478
51	0x3f98e068431cf7a9	0.02429354581476387
52	0xbf7159845db4616d	-0.004235760741061118
53	0xbfb1517efb8bd9a9	-0.0676497806669888
54	0xbf69250fc1665ecd	-0.003069430134200113
55	0xbf7638f39aede4d6	-0.0054254070117789235
56	0x3f7ab1dc25d153ad	0.006517276718189286
57	0x3f7e0267d00714b7	0.007326512830734425
58	0xbf8bca53549eea26	-0.013569499034805931
59	0xbf573a2ff654a0ab	-0.0014176815396443148
60	0x3f6bb92f5032b1a9	0.003384201439607011
61	0xbf4da170767dd167	-0.0009042548308415944
62	0x3f73385ac6b0fed8	0.004692415804185855
63	0xbf9365450bfd4493	-0.018941000801821217
64	0xbf69c1205a210cec	-0.003143847644453515
65	0x3f87e849e23f2413	0.01167352410984005
66	0x3f90973a88bad901	0.016201891513184744
67	0x3f5bdf3f052a2677	0.0017011752540007344
68	0x3f70072aff470158	0.0039130858971819435
69	0xbfa3488cc92a846d	-0.03766288715019859
70	0x3fa13c8355bf643b	0.03366480275844493
71	0xbf83fbb3a772fe2f	-0.009757426784175653
72	0x3fa05f4983e8fa07	0.031976983406355734
73	0xbf9f9dac89fb003d	-0.030874916001949016
74	0x3f6b856cd346c3ec	0.0033595204824554605
75	0x3f940f36b5ba9066	0.019589285699695223
76	0x3f8b0dc55f8bb572	0.013209859827351098
77	0xbfa37795f3a37856	-0.0380217418585153
78	0x3f97da0a448190fb	0.023292694503099103
79	0x3f8a7c7462e1f9fe	0.012932690875683935
80	0xbf92234962c1d3ff	-0.017712732937486205
81	0x3f98d55e30929446	0.02425143405402632
82	0x3f936cdd5fb75b19	0.01896997353272942
83	0x3fa00764b6e48872	0.031306407285470864
84	0x3fd090c67ae88383	0.2588363838458962
85	0x3faa72a82d7f1d52	0.05165601306321811
86	0x3fd08d9bc91376c4	0.2586430991776576
87	0x3f914479e7ec67b5	0.016862778454288924
88	0x3f994f78326d7831	0.024717214658601164
89	0x3f80b4afd9c737e9	0.00815713294369043
90	0x3faa6140d3155c3c	0.051523233191510504
91	0x3fa271ee786ce613	0.03602547855411955
92	0xbf9c80391626a3f9	-0.027832881905542426
93	0x3f9b65ea8a2eb19c	0.02675596683882163
94	0x3fae8e31821230bb	0.05967859947949835
95	0xbf5b51a22af11020	-0.0016674121541351353
96	0xbfa71058a9392675	-0.04504658761704842
97	0xbfa06a3a9e3561a0	-0.03206046277290686
98	0xbfa6bd41a8a5c7f9	-0.04441266235052405
99	0xbfaac135865f24f3	-0.052255318310537556
100	0xbf9cba26492f19d6	-0.028053854195400373
101	0x3fb0299b619660fa	0.06313487179284386
102	0xbfa587880b4ed76a	-0.04204964769398496
103	0x3fb3e4a840e9311a	0.07770778259982017
104	0x3fb68a5dc304d25f	0.08804880152894999
105	0xbfad91127b7bca52	-0.05774743802421213
106	0x3fb48222abcf4f86	0.08011070913863536
107	0xbfa7515ab81366f9	-0.045542559595288475
108	0x3fb0c391e0c55d2f	0.06548415887424562
109	0xbf9c453164f11b30	-0.027607700143813918
110	0xbf9550d0fb416d89	-0.020816102347777785
111	0xbf9aa2909f397d37	-0.026010760992332762
112	0xbf8682e7bdced078	-0.010991869430519538
113	0xbf941cb4d8db68bf	-0.019640756355195018
114	0xbf635b6498f3398e	-0.00236291549626983
115	0xbfa7d582b5b95bd1	-0.04655083149253126
116	0x3fa4dd69f10ead6d	0.04075175349802405
117	0x3fa8740773923f1c	0.04776023183614894
118	0x3fa2cb9962487dab	0.03670958828683565
119	0xbf805ac3e9469ca6	-0.007985621029389666
120	0x3f993ac038ea587b	0.024638179277268506
121	0xbfa4949c6464d55a	-0.04019631124030339
122	0xbfa3bf9343914106	-0.038570978162740174
123	0x3faaf66c1d6d028f	0.05266130313112171
124	0xbfa0b0a6af654207	-0.03259774104174445
125	0x3f92cc1b5b04b403	0.018356730871506254
126	0xbf9111b9e68c0245	-0.016669182487932827
127	0xbf9d379395026c40	-0.02853231999379724
128	0x3fa7cb267194871f	0.04647178780056848
129	0xbfa1337b302f2614	-0.03359589541612365
130	0xbfacf7d27706c4b3	-0.056578232793421356
131	0x3f6922e4269b06e5	0.0030683952398654507
132	0x3f9b0a34c9486971	0.02640612104924273
133	0x3fb2359e1cb8bf4e	0.07113064004147171
134	0x3fa3449c04899fcf	0.03763282351866303
135	0x3fb13d43feb291de	0.06734108894540422
136	0x3f7fd012008ca84e	0.007766790696033322
137	0xbf54388564711876	-0.0012341787967371765
138	0x3fb3ace08c14b6a0	0.07685664577430851
139	0x3f81965681a76330	0.00858752806827709
140	0xbf8b727b5d215ce3	-0.013401950626003195
141	0x3f90dcf65d38c734	0.016467904510313505
142	0xbf98b680cdf4da23	-0.02413369423921997
143	0x3fb95a7b739f6ea3	0.09903689930745911
144	0xbfa224b08b73e95b	-0.035436169646305436
145	0x3fa73581a6b32231	0.0453300968161482
146	0x3f2d251134ff21a0	0.00022235713049513234
147	0x3fa01c5a5f241dcb	0.031466316331769294
148	0xbf9a1177f172f5f7	-0.025457262145883033
149	0x3f62c7f5c952f31d	0.002292614032369035
150	0x3fac24c4d082fa97	0.05496802373226222
151	0x3f912ad2e2440541	0.0167649221994044
152	0xbfb1e01b33ef46f3	-0.06982584016739306
153	0xbf8ed43f95210436	-0.01505326913695813
154	0x3f96a13b05e349f2	0.022099420770993868
155	0xbf6a606aa711102f	-0.003219803148143206
156	0x3fa50e0f75a80c49	0.04112289725528535
157	0x3f69000a84ee3536	0.003051777406148172
158	0xbf849f73d252c934	-0.010069756370601902
159	0x3f44475c78dd733f	0.0006188584827487644
160	0xbf3fea62c5c8882b	-0.0004869929451009082
161	0x3f64c107c7ec14f2	0.002533450314674662
162	0xbf9b8c16d61111e5	-0.026901585403054446
163	0xbf7baef419f287c8	-0.00675864555447165
164	0xbf81d0e970c4f1f2	-0.00869924903292316
165	0xbf7a4982f6ac4b05	-0.006417762352401328
166	0x3f762e7625a5492c	0.005415402900626181
167	0x3f8ad4c06754d5ef	0.013101103928970096
168	0xbf7f84ee52db3a51	-0.007695132209575365
169	0xbf714923d791c8c3	-0.00422014237220675
170	0x3f829f24fe9912a8	0.009092606563293984
171	0xbfa230ddb994380e	-0.0355290688549844
172	0xbfa673b5a2812168	-0.04385154350944981
173	0xbfa1dbdc59ec63ab	-0.034880529381730106
174	0xbfb8ed8ff53a48ef	-0.09737491356853288
175	0xbfbd8810891d36f9	-0.11535743091118524
176	0xbfb5b5644f14900a	-0.08479906969711251
177	0xbfa33157188ed46d	-0.03748581099299817
178	0xbfa23948efe5f6e4	-0.03559329918333079
179	0xbf9deaac255fc9ff	-0.029215516835344953
180	0xbf86dd83652dfe14	-0.011164690518625377
181	0xbf8731b1b726ad77	-0.011325252916171575
182	0xbf84894f26debddf	-0.010027521489830825
183	0xbf8b220f7840cf80	-0.01324855886205234
184	0xbf8909da58764530	-0.012225824188848294
185	0xbf9091915b2a0a34	-0.016180297078344633
186	0xbf8f064459c7a2d0	-0.01514867209421436
187	0xbf8d0fbd7f5010d2	-0.01419017834451389
188	0xbf8c1b6ee4384e8a	-0.013724199619026285
189	0xbf90ca24d0eb07fc	-0.016396117450092604
190	0xbfa87754945e4d92	-0.04778541861665099
191	0x3f666332c5586a54	0.002732848321796136
192	0xbf93cef503902969	-0.019344166128612814
193	0xbf9d380c8ea7b6c8	-0.028534122664430922
194	0xbfa4c5e1e79e3040	-0.040572223209068614
195	0xbf9e5134b8c7c5fb	-0.029606651094530517
196	0xbfa0e9e98beb952f	-0.03303460915575795
197	0xbfaa6ad2e93402a9	-0.05159625145643549
198	0x3f503ffe1dc3b8e8	0.0009918195347001172
199	0xbf9e6b5afd79eb32	-0.029706403466188643
200	0x3f1bde76a2fa9156	0.00010631178951798123
201	0x3f801e806888ba13	0.007870677175643192
202	0xbf86d2231801af95	-0.01114299218189511
203	0x3f76c61afcb57ca4	0.00556002179959517
204	0xbf801cf178ecdc8b	-0.007867704871030298
205	0xbf92c0cb636d48c9	-0.01831357759812916
206	0xbf8326b369075219	-0.009351159708708189
207	0xbf82f744caa91397	-0.009260690149980806
208	0x3f76b210dcdc801e	0.005540910596920438
209	0xbf600338380af9a7	-0.0019546602273685268
210	0xbfa00ad4159cc134	-0.031332614553664234
211	0xbfa0ddae3b3d1fb4	-0.0329412886918016
212	0xbf830a90ef55c575	-0.009297497085500631
213	0xbf84dfb0c0bdbd26	-0.010192280656808505
214	0xbf9d6fb092e11879	-0.0287463750503538
215	0xbf8a81ce9115cd9e	-0.012942899515769931
216	0xbf9266a83d4c5867	-0.01796973108420055
217	0x3f8a92da8a14d854	0.012975413645659163
218	0xbfa31abaf060f7f0	-0.03731331047355002
219	0xbf678b7e5b3e64cc	-0.002874132909664517
220	0xbfa26416c5bec2d3	-0.035919868124784
221	0xbfa3b8b354dfac18	-0.03851852809005879
222	0xbfa6ac77e4683445	-0.044284578925819086
223	0xbf92a7e3d6348f6d	-0.018218574475340633
224	0xbfa5fed7284704a4	-0.04295990339915903
225	0xbf9525162f33db51	-0.020649286871925302
226	0xbf84bfe6940048e7	-0.010131646529803763
227	0xbfb4bcf1e5efb893	-0.08100807059938324
228	0xbf90eacf3e086ece	-0.016520727311315757
229	0xbfb02a4455064b7b	-0.06314494205279957
230	0xbfaaf5ab5e4e678f	-0.05265555883597905
231	0xbfa321b66b02d1ed	-0.037366581499927644
232	0xbf9f64a947982446	-0.0306574296901412
233	0xbfad8dc5e9060717	-0.05772226781392769
234	0x3f89201d9b13526d	0.012268286986377686
235	0xbfa0b57bea14133a	-0.032634613346124344
236	0x3f7ea1d93feee1b5	0.007478569633285683
237	0x3f4c95547782e301	0.0008722937045809455
238	0x3f986f98f56df94a	0.023863210658867907
239	0xbf60424ba4b0f9fb	-0.0019847371491146216
240	0xbf91fa11bacd6c03	-0.017555501009479012
241	0xbf5cac6aef5f41a1	-0.0017500919616289872
242	0x3f72c25da5ca8a78	0.004579892931959699
243	0xbf79d84227b86393	-0.006309755724509441
244	0xbf8824311e3be4fd	-0.011787780509154628
245	0xbf7f923df8f8f63d	-0.007707826690930339
246	0x3f9caff557e8146b	0.028014977922812195
247	0xbf9227e627cb8efb	-0.017730327776816584
248	0x3f9e7fede4fd80dc	0.029784886456923995
249	0xbf7655015e977242	-0.005452161168673588
250	0xbf73dba72b9b9f9d	-0.004848149308351338
251	0xbf85671c9df6a2a6	-0.010450576372776976
252	0x3f998b137b3434e5	0.02494459571339726
253	0x3f69e9d31de15389	0.0031632541058947456
254	0x3f59b3c701d243dd	0.0015687411717275536
255	0xbf8233256ad00d4c	-0.00888661606041432

y_convs.0.bias f8 [16]
0	0xbfd4fc183c5a1a37	-0.32788663762804354
1	0x3fbcb11fdbf0fb0d	0.11207770461713214
2	0xbfc9f39b7379faed	-0.20274680269718406
3	0x3fb33716a65ca0ea	0.0750593334347546
4	0xbf98b17e03ff91d0	-0.024114579195058827
5	0xbfc4d1a4192df075	-0.16264773587670658
6	0x3fc05c764a07c603	0.12782171835674214
7	0xbfb672e5a635ac81	-0.08769069011548149
8	0xbfb2b6d625b1fbbd	-0.07310236377996567
9	0x3f8e361cfc56422d	0.01475165028640032
10	0x3fbc6ff5739cf33d	0.11108335564217682
11	0xbfb5aade37e8a966	-0.08463848938905513
12	0xbfc90a8086f6aab1	-0.19563299741760923
13	0xbfb47b55800dd159	-0.08000692726438298
14	0x3fa8d034b00b25e2	0.048463484277430316
15	0xbfc05ce061f25253	-0.12783436567828463

n_convs.0.weight f8 [32, 4, 3]
0	0xbfc65586285ce54e	-0.17448498698085263
1	0xbfb971c431737ac3	-0.09939218718816804
2	0x3f985c42ab098594	0.023789445580751314
3	0xbf867a34fe0ab868	-0.010975278856985862
4	0x3fd9e24e79ffd2e4	0.404437655582383
5	0x3fba3c7e16109bd2	0.10248554266637136
6	0xbfa754151455305b	-0.045563372356441
7	0xbf8b357f8323645e	-0.013285633267900273
8	0x3fbad0fa39b4d99a	0.10475124272202266
9	0x3fb9e07fb7f557e7	0.10108183137103276
10	0xbfc95171d4ac1b60	-0.19779799351109784
11	0xbfce9fce8847ac2b	-0.2392519154958291
12	0xbfc6f8db9197ad5d	-0.1794695340061975
13	0xbfbbc73f9728f321	-0.1085090393107291
14	0xbfc2bb512ad178f2	-0.14634146300063083
15	0xbfb9b1f95ee87a1c	-0.10037191931812867
16	0x3f7ac9af9c823e3b	0.006539998990902125
17	0x3fe0ca9bf546a813	0.524732569746677
18	0xbfa8318cb95bff73	-0.04725303423583584
19	0x3fb59ce56f65a358	0.08442529649404429
20	0xbfa02d6c077177dd	-0.031596542271230744
21	0xbf96602ba97301aa	-0.02185123655067548
22	0x3fa07ab97e23cc9b	0.03218631424706438
23	0xbfcbad211c4e6ea8	-0.21622098810336365
24	0xbfd8f898de48267a	-0.39017316539011626
25	0xbfd4b17646c72bd6	-0.32333142196574494
26	0xbfa87421250963a6	-0.04776099755390044
27	0x3fce3d1eea917325	0.23624025777362437
28	0xbfd48d6430c19189	-0.3211298442968418
29	0xbf9ac7385ddcd41f	-0.026150589684409305
30	0xbfd151c6f819cbf2	-0.2706162855967583
31	0x3fd5c09d09cd4067	0.339881190845523
32	0x3fd0592c6e60e566	0.2554427221217196
33	0x3fd13ec77589a195	0.26945673445018176
34	0x3f984a19b8b45cf8	0.02372017087790554
35	0x3f966d28868b433e	0.021900780879892105
36	0xbfc6b90c3bce3f80	-0.17752221031377857
37	0x3f97d8dc61f7b954	0.023288196067306657
38	0x3f9601ea800e6022	0.021491684022834197
39	0xbfc789a18162ac06	-0.183887661148532
40	0xbfc82cdeedee6871	-0.18886934869516694
41	0xbfa6d7267c6c62bf	-0.04461021679725751
42	0x3fda0502f62b3cef	0.40655588188106057
43	0xbfd0ac964c95c54d	-0.26053388098724356
44	0xbfcdf860ac1e468e	-0.2341423836156093
45	0xbfc61c235f48b042	-0.1727337088826762
46	0x3fd8e9885563e448	0.38925369585883063
47	0xbfa6bedc0e7a4fd8	-0.044424893157298306
48	0x3fba50dd7f87aa74	0.10279640544437446
49	0xbfd08d6e598e2768	-0.2586322664798133
50	0x3fc3e1a45c6a1e23	0.15532354843547677
51	0xbfb47d3953218960	-0.0800357654530095
52	0xbfce9fa83097665c	-0.23924734470965603
53	0xbfaf01a9354c239d	-0.06055954719165089
54	0x3fd44ebd86901fce	0.3173059286204961
55	0x3fda7775af9a321c	0.4135412421099163
56	0xbfa1a68174d56aa9	-0.0344734625930035
57	0xbfd76a77db1cc8f5	-0.3658733024377761
58	0x3fc44381f95952a3	0.15831017184486482
59	0x3fc27bc446a9536a	0.14440206003441897
60	0x3fb9af779dd777ac	0.10033366778904335
61	0xbfc4665e1a55c6c5	-0.15937401090518769
62	0x3fa98930f9becbfc	0.04987481163643534
63	0x3fc3994ee98078c8	0.15311609651047875
64	0x3fd6d67d188c48cd	0.3568413486219811
65	0x3fa5b66e7475061f	0.04240746661754379
66	0x3fab85d62052cdfe	0.053755465932592714
67	0xbfc70ee80552142f	-0.18014240512653276
68	0x3f9d3744ab961596	0.028531144116205796
69	0xbfca830a7611cc5c	-0.2071240498076773
70	0xbfcb17f3cb6a206c	-0.2116684668765204
71	0xbfd70a96810a9285	-0.3600212345284393
72	0x3fb8552c920aa642	0.0950496536776422
73	0x3fc80ee68dd4194c	0.1879547302743937
74	0xbfd8168cc04069da	-0.37637633108684343
75	0x3f9f37697e8f456d	0.030484817838276102
76	0xbfc63b459d860ba5	-0.17368383590300343
77	0xbfc350c5ea709890	-0.15090249964959357
78	0xbf683683580026f4	-0.0029556813533461127
79	0x3fd26d5994ffd748	0.287924190051275
80	0x3fd1950b3ca6198b	0.27472191736924206
81	0x3fc6ea75eb9911df	0.17903017047696232
82	0xbfd4d3e92b1b3ce0	-0.3254340096436419
83	0x3fb35f76e8e05971	0.0756754225297749
84	0x3fb3998996b2f572	0.07656154565025533
85	0x3fb6457d8ca9c876	0.08699783977661632
86	0x3fc033f77b95749c	0.12658589872709036
87	0xbfc8a58d21b56f24	-0.19255222459730092
88	0xbfd07e2ddd80fa7c	-0.25770136481506944
89	0xbfc34c4b84ac3b28	-0.15076583841479274
90	0x3fd4a0d87cc4fe66	0.32231723961374426
91	0x3fa96900139f3642	0.049629213710073575
92	0x3f84979b9ec87b59	0.010054794104744568
93	0xbfd0cbbdc3c6e3bf	-0.2624353801616585
94	0xbfad07acc39d55f9	-0.05669917953370524
95	0xbfbab744261f9d9e	-0.10435892039060099
96	0xbf6cce381ba806ea	-0.003516301713944671
97	0x3fca352d531f54a0	0.2047478347655316
98	0xbfc98ba70ecd98ed	-0.19957435820396743
99	0x3f983f463bfc6529	0.023678872500657953
100	0xbfc386c56b06f8df	-0.15255038953723152
101	0xbfc1b6b14c529259	-0.13838783480345532
102	0xbfc49c315138a4ee	-0.16101662126428756
103	0xbfd84ebca42f07e9	-0.37980571778837074
104	0x3fd8a834404959e9	0.3852663638876082
105	0x3fae014d5f2ad0f7	0.05860368525228126
106	0x3fc68680ee0b429f	0.17597972510568113
107	0xbfc9a5e8134a9d2d	-0.20037556592908726
108	0xbfd62b1178085a98	-0.3463786766236949
109	0x3fc87457185bbc1d	0.19105042161342647
110	0x3fa0e6fce6da9092	0.03301229780234495
111	0xbfbb1bbd84fa9678	-0.10589203354410326
112	0xbfcccbe787c51aaf	-0.22497266892806553
113	0xbf9686e9570b7f5d	-0.021999021470832648
114	0x3fc4748aab9a2555	0.15980656985292777
115	0x3fba5bbc2b05958f	0.10296226549470176
116	0xbfcf64cdf01e2106	-0.2452638075303712
117	0xbf92471ce95f7919	-0.01784939932246585
118	0xbfd9bfad48472861	-0.40232402857203026
119	0x3fb81b23797aedf0	0.0941641017515662
120	0xbfab21c4b219c0e2	-0.052992007008357836
121	0x3fd0e0c043d310c5	0.26371771453365184
122	0x3fc76d7e8fa24a89	0.18302900327087837
123	0x3fb8cf2532e47f42	0.09691078655714327
124	0xbf9e9610e949e4d7	-0.029869331587609373
125	0xbfc5dc91cea5c2e6	-0.17079374876222814
126	0x3fc7fbf7deada750	0.18737696049657382
127	0xbfc6e92fa4a137a0	-0.17899127520143754
128	0xbf9c782fd6ace56d	-0.02780222652220259
129	0xbfd5d078cd2c4dd5	-0.3408491138117971
130	0xbfd5236edbf5d935	-0.3302876613664865
131	0x3fbf5f3ebc557b10	0.12254707429881884
132	0xbfc6d18a0042c9c0	-0.17826962483156983
133	0xbfd65dff9dfa9041	-0.3494872133981098
134	0xbfa1ba4db8a6cbfe	-0.03462450865790599
135	0xbfc965c818c40867	-0.19841862878098768
136	0xbfd819e579e32293	-0.3765805902772083
137	0xbfc4653d1ab4579e	-0.15933955959252172
138	0x3fccd0f66c3ed735	0.225127032140955
139	0x3fd63bfcdae4454e	0.3474113595594489
140	0xbfb8a7310ed29db8	-0.09630114185221472
141	0xbfdfee72877135a0	-0.4989286730459188
142	0x3fb69eaa396ee5dd	0.08835853483369456
143	0xbfafaa5f59b0bbde	-0.06184671373227223
144	0xbfb5edca9b26b639	-0.08565965927001508
145	0xbf6c6df6f66f3e24	-0.0034704040039981333
146	0xbf93a818c4ea6283	-0.019195925730488127
147	0x3fb333d86a5e8250	0.07500984761146268
148	0x3fd30b7d65249ad4	0.2975762832378852
149	0x3fc0b9b950eb62ad	0.13066784335275852
150	0xbfce5f0af8bcd983	-0.23727547784228528
151	0x3f87da351262c3cb	0.01164666616782197
152	0x3fc06c206b50f572	0.1282997631077865
153	0x3fd80631aa056cf4	0.3753780517924519
154	0xbfc977afcb0f0c45	-0.19896504797915973
155	0xbf7f6c717fbd318e	-0.007671779017823245
156	0xbf9ca0fe3f9f4cf5	-0.02795789016074664
157	0xbfd00f08cb4f23d0	-0.2509176240387747
158	0xbfcbcdfcc08dc4c6	-0.21722373392143463
159	0x3fcfc47f80bf7e0b	0.2481841448452403
160	0x3fd122e01d7068ff	0.2677536284915191
161	0x3fc743d50c65347d	0.18175757508507565
162	0x3fcd677b0bf1cd35	0.22972047885159844
163	0x3fc002757868677c	0.12507503871239212
164	0xbf8feb474e21d670	-0.01558547694387899
165	0xbfc7c5cd90289ca2	-0.1857239679240808
166	0x3fc754c69d8c0899	0.18227465336537277
167	0x3fc477be9f7bce22	0.1599043158272347
168	0xbf91be4ebeccf2c9	-0.01732752837709731
169	0x3fc239547fcdbab8	0.1423745750466503
170	0xbf7d8dc0f3be2596	-0.007215265006274582
171	0x3fd01416d6e80dab	0.2512261484809765
172	0xbf9e70b26699a559	-0.02972677947255895
173	0x3fd2b9d80a481b25	0.2925930118948819
174	0xbfc7b26157b39311	-0.1851312330465125
175	0xbfd1105842b69f8b	-0.26662260546663025
176	0xbfc248f5a84b240f	-0.14285155026871663
177	0xbfa50e0cb22fd41d	-0.04112281489498335
178	0xbfbf81eb71b8884d	-0.12307616735827871
179	0xbfda1e9f593f695f	-0.40811904635997637
180	0x3fb03285874de0d3	0.06327089837384685
181	0xbfd2b89bd3fa7e0a	-0.2925176210501098
182	0xbfbf24b663e830b8	-0.1216539377130087
183	0x3fc28e7592d1d3a2	0.14497251194884792
184	0x3fcdaacc7ddfa523	0.23177486559078728
185	0x3fa30a223ba3284f	0.03718668916697309
186	0x3fb32285c6fbb830	0.0747455225752851
187	0xbfccc98eda4b2964	-0.22490106257312015
188	0xbfc9e86d42d1da95	-0.2024056030529279
189	0xbfdaa36eb63ee9f9	-0.4162251262420394
190	0xbfc40a81700d320f	-0.15657060595766878
191	0x3fc59cc5129e7f78	0.16884673508775072
192	0x3fc18be00e616c67	0.13708115293670461
193	0xbfcbf677475dc7f7	-0.2184590433567448
194	0x3fbc034c02e13b13	0.1094253069906979
195	0x3fc66c760868e8e9	0.17518496904978711
196	0x3fcead0b5eb09e15	0.23965589641123644
197	0x3fc103881f3c3272	0.1329202797427516
198	0x3fbd671dde9a14b8	0.11485468563667467
199	0x3fc5ba50c0327025	0.16974839577312753
200	0x3fb25f1cb0fe688f	0.07176379510056762
201	0xbfd4bb4e30f10ab3	-0.32393221644830844
202	0xbfd130874bacd9b0	-0.2685869444861977
203	0xbfd76d1807520757	-0.366033560894825
204	0x3fc1501491b9c9fa	0.13525635829462584
205	0x3fc0df5535a0db14	0.13181557768413
206	0xbfb0d9084de64db7	-0.06581165220114014
207	0xbfca5e2324256c40	-0.2059978415007624
208	0x3f952505d5acf2a4	0.02064904324218965
209	0xbfad9c654c3c0d48	-0.05783382945630905
210	0xbfad2742b7ecc715	-0.05694015975167425
211	0xbfb0f4f234d76050	-0.06623758115836265
212	0x3fcd73be4dfbe923	0.23009470756353165
213	0xbfa1c172395de0de	-0.03467900228764774
214	0xbfe0c188d37c6328	-0.523624814089179
215	0xbfd05790383bb0f7	-0.2553444432403604
216	0xbfcf14391b716f41	-0.24280465927119546
217	0x3fc2c52823cf6b49	0.1466417479376452
218	0xbfc0995b88311be8	-0.12968010091773796
219	0xbfcdef42d3c5e307	-0.233864167599471
220	0xbfc8dad97338b991	-0.1941787541013125
221	0x3f7d713038d135f2	0.007188022963487738
222	0xbfc64f260062683c	-0.17429041880387952
223	0x3fc3a95a13444bc7	0.15360570851097874
224	0x3fb2523692ee63c6	0.07156697356403105
225	0x3fd81fd9d2202a6c	0.3769440223701739
226	0x3fb112af20442714	0.06669134652852576
227	0xbfca1bb733014393	-0.20397081366038758
228	0xbfb7162e18b61ab9	-0.09018219092659309
229	0x3fc32b5e9c34aaf8	0.14976103427155585
230	0x3fb50a0218832b18	0.0821839628071469
231	0xbfc50090d578ed2e	-0.1640797655435135
232	0x3fc1a2f80ab94577	0.13778591655367808
233	0x3f9dcff766c2e238	0.029113641402292084
234	0x3fcb1c1032f4a3ef	0.2117939232641954
235	0x3fb043d7ce46ca33	0.06353520189330979
236	0x3fd897846743fb0f	0.38424787601972893
237	0x3fb3cf213ef21e22	0.07737930094491977
238	0xbfd52cb6a2e80467	-0.3308540907747272
239	0xbfd251d06e5082df	-0.2862435414590844
240	0xbfce917cb25f9526	-0.2388149138416022
241	0xbfce41a5e2d85619	-0.23637841774386528
242	0x3f96074c033e03e6	0.02151221055783372
243	0xbfceafc9cd567664	-0.2397396328569129
244	0x3f92310c06b51c09	0.017765224370375452
245	0x3fc2a35dba62fa3b	0.14561053849134162
246	0xbf9c2fa7e6806e83	-0.027525542682367742
247	0x3fb21c0fa6e5a773	0.07074067902217766
248	0xbfbf0471863b1218	-0.12116155173414034
249	0x3fdbf1cf76a46390	0.4366339357962312
250	0x3fc5fc4c36d44bf7	0.1717620151253809
251	0x3fb62ee81f505339	0.08665323986526809
252	0x3fbef44f48bed5d4	0.12091537023555726
253	0xbfd56b864a6f855a	-0.3346877791319308
254	0x3fd352aaad4ba73c	0.30192057536497763
255	0xbfb13c9829ba7274	-0.06733084696538488

n_convs.0.bias f8 [32]
0	0x3fb8f38f2f74b638	0.09746642025557939
1	0x3fc4b5954910e5cf	0.16179147784877876
2	0xbfc9cfb221da5acd	-0.2016508736894224
3	0xbfc56b632a4d455b	-0.16733970227736958
4	0xbfca0177f547e2e1	-0.20316981770135725
5	0x3f9ec84cc4b9d747	0.030060958392332606
6	0xbfb6ffd49ec004ca	-0.08984116435751158
7	0x3fc0cf568b83625d	0.13132745563668183
8	0xbfb0374ba82b7ae0	-0.0633437429018886
9	0x3fc2fbabae64b57d	0.14830537810614067
10	0xbfa493f15dc3f2c0	-0.04019121427152106
11	0x3fc7d3e2a6c9f2d3	0.1861537279509294
12	0xbfaba0d43aaa68a3	-0.05396140304692778
13	0xbfc1c456caa3bc2f	-0.1388042916728138
14	0x3f8ed9561e791da3	0.01506297379013583
15	0x3fc9aad6c4496912	0.20052609047235898
16	0x3f95d21cb68f249a	0.02130932678463591
17	0x3fc453d9d4ff6f5e	0.15880892658503404
18	0x3f91be8b5f032210	0.017328431772314856
19	0xbfad1da1a6999d78	-0.05686669501011016
20	0xbfb3a9e175dd47ac	-0.07681092383907523
21	0xbfb6a077141118fc	-0.08838600387489132
22	0xbfc12cc7a01b712b	-0.1341790706418434
23	0x3fc930ffdc54a965	0.1968078447183174
24	0x3f985ae1dbfa3086	0.023784188319539122
25	0xbfb9b7acb762f683	-0.10045890309535292
26	0xbfbe6f605d4d6a6f	-0.11888696935549502
27	0x3fbf1ca092d699c0	0.12153056702536613
28	0xbfb1b826ba5da9a6	-0.0692161755556869
29	0x3fc721f0b25092fc	0.18072327334188987
30	0x3f917ac13a19c1fa	0.017069834872417623
31	0x3f9f2a34efdef628	0.030434443607864875

n_convs.1.weight f8 [64, 32, 5]
0	0xbfa667ea3cd4e18a	-0.04376155846188386
1	0x3f9113dd291f8837	0.01667733729835438
2	0xbfa05ab883b73d02	-0.03194214446886613
3	0xbf9b4e6e1401162b	-0.026666374178850354
4	0x3f78ca882142963f	0.006052524335392883
5	0xbfb3735b052a5a3b	-0.07597893596753462
6	0xbfc2f71570dca661	-0.1481653977473796
7	0xbf6ec00cdf3f5a4e	-0.0037536860854559323
8	0x3f713d5999d6f277	0.004208898547798704
9	0xbf748ab94e0d13fa	-0.005015109870162066
10	0xbfa3d2493055cc07	-0.0387137290480482
11	0xbfbe742e074dee68	-0.11896026304560225
12	0xbfbb9e7e5ad39334	-0.10788717000430098
13	0xbfbf388a6b0fdc2d	-0.12195649255578252
14	0x3fa10582e29d6bf5	0.03324517265601649
15	0x3fb5dc1fcb3c1b1f	0.08539007865702473
16	0x3fa566308b719243	0.04179526998703811
17	0xbfb18643b5dbe1cc	-0.06845496358790298
18	0x3fb5c2b6e3258451	0.08500235601015162
19	0x3fb17a08e12024d4	0.0682683515189127
20	0x3fa3d494939555cc	0.03873123456530045
21	0x3f9b0f0e9438d19b	0.026424625202893997
22	0x3f9ad33aec841a11	0.02619640415744057
23	0xbf85f87fd0959441	-0.010727881005275221
24	0x3f7ace227482bb30	0.00654424151450321
25	0xbfadc5269a39be5d	-0.058144766165125296
26	0xbfaa066c48d0eb8b	-0.0508302534949144
27	0xbfbc5d6817955d94	-0.11080027175682111
28	0x3fa07d0da936f4ac	0.03220408144577766
29	0x3f83c331eafd4b0f	0.009649648650940116
30	0xbf563b048d52af17	-0.001356844373087312
31	0x3f9bbfb7a07fc803	0.027098530932512698
32	0xbf714618c506b393	-0.004217240101223835
33	0xbf82b3272202e160	-0.009130769467774413
34	0x3f701634ec27d455	0.003927427986572492
35	0x3fa6e2da6f7e3368	0.04469950304983322
36	0x3f4a0fdfe0fa5ae5	0.0007953494222928374
37	0xbfa1914107581515	-0.03431132521294892
38	0x3f72dd5039df139e	0.0046055921392892645
39	0x3f6028e91b29adb4	0.0019726326802833264
40	0xbfb7ea4468b0a7f0	-0.09341838413152437
41	0x3f915b707d404215	0.016950376171793808
42	0x3f9a43fd8c15e1ef	0.025649987864626963
43	0x3f8b65f7dbd09c31	0.013378082652776598
44	0x3f6b5740609dffd7	0.003337503182535766
45	0x3fa6e9a45560760d	0.04475129644582063
46	0xbf9687730c76e8bc	-0.022001073489925402
47	0xbfa6122980b14cfb	-0.043107315978568615
48	0xbf9e939b3bf37dce	-0.029859948667647455
49	0x3f7ea55c914e9446	0.007481919853408908
50	0x3f9893bb99fa6819	0.02400105597789812
51	0x3f69b5407743981e	0.0031381854151844154
52	0xbfa2521ae5472130	-0.03578266190339929
53	0xbf8cf3c3d2cc94f4	-0.014136819716052497
54	0x3f88f515f86f7c5c	0.012186214107656017
55	0x3f9e15c2549830ac	0.029379879391897276
56	0x3f95a73f5e2958cc	0.0211458111974359
57	0xbf7feb3ddef9a904	-0.007792703326780396
58	0xbf3b3ac3c95ab21c	-0.0004154899591906362
59	0xbf7e80713727e426	-0.007446710822926616
60	0xbf9fda0c8cedbea2	-0.03110522852096998
61	0x3fafbbcc5e7479d7	0.061979662447118215
62	0x3f6a5fb2f27001ad	0.00321946096983102
63	0xbfa4c61576bb1037	-0.040573759788032175
64	0xbf747ba0d9315d3a	-0.005000713647937355
65	0x3f740e1e5e70c6ee	0.004896277073429307
66	0xbfb9bb8bcb23822e	-0.10051797589722675
67	0xbfbf7b2e38088c49	-0.12297333591463756
68	0xbf6eb0c9788cd007	-0.003746407983635794
69	0x3f9e5d055642ab3b	0.02965172137252668
70	0xbfb539c27e18f81b	-0.08291259363701935
71	0xbfa5054dde82d369	-0.041056092655174244
72	0x3fb49c9039fc3c05	0.08051396766335024
73	0xbfa83de8530a28a9	-0.04734731687229161
74	0x3f99250bfe8a566e	0.02455538502780146
75	0x3f5a456f4d0b13b9	0.0016034686015455725
76	0xbfc122f297a5203e	-0.13387901691953802
77	0xbfb600b83e7acaf6	-0.085948481801818
78	0x3f9ee7df41a7a631	0.030181396848922574
79	0x3f96aad4f1877dc4	0.022136046640182774
80	0xbfa19f2d4dd53030	-0.03441754889590276
81	0xbfb975375e5dc727	-0.09944482854714619
82	0x3f1150ea65942af6	6.605559010012724e-05
83	0x3f87f191f780e32c	0.011691227307993289
84	0xbf872435b28d6ab9	-0.011299533378111947
85	0xbfb1f6d05634e393	-0.07017232994702587
86	0x3f4f34fc9a29eda0	0.0009523614319983283
87	0x3f88c4ce1e23e3e4	0.012094126028829373
88	0xbf700c9dcccd82a4	-0.003918281942646349
89	0xbf919eb5cf364a96	-0.01720699383947507
90	0xbfa7f4377d9639af	-0.04678510101358612
91	0x3fa25c14ce5b3420	0.03585877436635365
92	0x3f86f39553fd0838	0.011206785798666727
93	0xbfbcf03feb0e6077	-0.11304091919589775
94	0xbf5a49e8881ef3b1	-0.0016045351808166958
95	0xbf9675f4caad207e	-0.021934342260721433
96	0x3f966d21bcc51764	0.021900679728126163
97	0x3f8a9d40aca31c47	0.012995248096912116
98	0xbfb028992950fc05	-0.06311948069286195
99	0xbf5373b83399c284	-0.0011872576564223867
100	0x3fa02f59c09b559d	0.031611256372040965
101	0xbfa2877b5b6014c6	-0.03618989458485937
102	0xbfb02593eb07d912	-0.06307339180043339
103	0xbfb5a48e8081833b	-0.08454218518592153
104	0xbf84fb0b23c3c3a6	-0.010244452504112388
105	0x3fa1599347d83a65	0.03388653041848925
106	0x3f7b9856381c7b66	0.006737076562585686
107	0xbf89d77c521de46e	-0.012618037467961165
108	0x3f9a6f9174e8c72f	0.025816223869873752
109	0xbf34ef1fb7f2c960	-0.0003194286764013534
110	0x3f95c2aa4d35b8d4	0.02125040146113906
111	0x3f8bbd7316d2594b	0.013544940122568369
112	0xbf95b63c52303679	-0.021202986256005894
113	0x3f84efe1db38a50c	0.010223164084055124
114	0xbf883f2d3cee41cf	-0.011839250013310569
115	0x3f90a30a8a7daf62	0.0162469527271435
116	0x3f79ff385aa3dbce	0.006346912510926962
117	0xbfabe5582eb3d1f1	-0.05448413438890388
118	0x3f6427de3969b8aa	0.0024604168241274165
119	0x3f8a433ac4494d1b	0.01282354270475721
120	0xbf9e16f27b785eea	-0.029384411607764095
121	0x3f9f96f839a05479	0.03084934093211131
122	0x3f9e2a39993952ee	0.029457950570150375
123	0xbfc97eb61b1c338b	-0.19917942355860094
124	0x3f6a82ccac1d6a5d	0.0032361981874775973
125	0xbfa21b7c818b72e8	-0.035365954221310336
126	0xbfbbb78a403bea93	-0.10826934879507126
127	0xbfaa84412699cdd0	-0.05179027172280437
128	0x3f8608b01a19fe68	0.0107587583509023
129	0xbf930e4ee5f15ee1	-0.018609268936727544
130	0x3f8595128a569a29	0.010538239332913939
131	0xbfb55fec931bbf2c	-0.08349493590844465
132	0x3f7938c20a184f76	0.00615764423993769
133	0xbfb2b8f23d9d4996	-0.073134555857257
134	0x3f772f75b3428270	0.005660495535409468
135	0xbf45fcf917af3250	-0.000671025874333939
136	0xbf7926144a9c1d7d	-0.006139830840545255
137	0xbf7fce5ca1f588c8	-0.007765161367702507
138	0x3f4780cfaa3c1143	0.0007172597874789761
139	0x3f88b9559b1be6ce	0.012072247310686814
140	0x3f90da14240f47ef	0.016456904126080415
141	0xbf97d747d395cc29	-0.0232821677104306
142	0xbf98f527a3bac777	-0.024372691505682078
143	0x3f9fc8cb6b990cf1	0.031039408151866735
144	0xbfa4b0cc25db5934	-0.040411357518382124
145	0x3fa57d4d06218814	0.04197159480897042
146	0xbf9329e4024da6e0	-0.018714487686714132
147	0xbfa397a8fdf079bb	-0.038266449926811906
148	0xbf9158ca196daa1b	-0.016940267374062495
149	0x3f8ca30f182b3005	0.013982885289259181
150	0xbf53633e9e302e62	-0.0011833297255660282
151	0xbfa306d0a02372a0	-0.037161368892815405
152	0xbf866c68fc16cde9	-0.010948963349483658
153	0xbfab4f919baa1c2e	-0.053341436626446956
154	0x3f7ffdb9a3587645	0.007810330532746661
155	0x3f66f8d25a01290c	0.0028041943005848776
156	0xbfc682de72ef05e0	-0.17586880313869724
157	0xbfb550220f26c3ab	-0.08325398321063797
158	0x3fa286539727cf5c	0.036181080056762766
159	0x3f8bf569d1a91549	0.013651682577924833
160	0xbf8bf1eacd4795fd	-0.01364501418079111
161	0x3f8f6ac170acdb07	0.015340338946413746
162	0x3f939bccc98f24d6	0.019149017145342416
163	0xbf97ccb73b75471d	-0.02324186611560385
164	0xbfc55adf420ff4ee	-0.16683569646548996
165	0x3f9413dcb74844ab	0.019607018171943363
166	0x3f9495d8eeaa18c8	0.02010287243549483
167	0xbf9c3c673bcef413	-0.02757417013684822
168	0xbfb75ee4707c0a92	-0.09129169222073077
169	0xbfa378d645242347	-0.03803128808983174
170	0x3f9c6303e247108f	0.02772146290387006
171	0x3f9a8c19aaf62d59	0.025925065097493902
172	0x3f7772179c028560	0.005724041198989255
173	0x3f9fe9920fc70e77	0.03116443845080005
174	0xbfb7207b2371bc85	-0.09033937087382256
175	0x3f7e752a726d393f	0.0074359567723390465
176	0x3f8336b33edd591f	0.009381676059700582
177	0xbf556c0198ea1b1e	-0.0013074889754151674
178	0xbf8e4b433783f670	-0.014791989452074022
179	0x3f9c1a13440de4b8	0.027443219212248876
180	0xbf699b7a76f7f4ef	-0.0031258956803400443
181	0xbf84fe483fde0442	-0.010250629853319041
182	0x3f89e1bf2fb48d5b	0.012637609141683262
183	0x3f7ac038297d128f	0.006530970938744786
184	0xbf90d89a69102bc8	-0.016451275503680113
185	0xbf90f38675088fe3	-0.016553975003389964
186	0x3f81d47d4cc5ab34	0.008706072717094317
187	0x3f98a3e54a756044	0.024062712354265395
188	0xbf96bad846f7a071	-0.022197131473064183
189	0xbfbc990232c31ba0	-0.11170972575483384
190	0x3f4da1b9300d72c6	0.0009042886959878752
191	0x3f865669366f5d43	0.010907003377652052
192	0xbf7ce11362786ea2	-0.007050586434640545
193	0xbf996f2b08962eb8	-0.024838135146224544
194	0xbf9347b3640e998a	-0.018828204137798767
195	0x3f75bc279226a80c	0.005306391309583002
196	0x3f7de59c133ab6ac	0.00729905096856746
197	0x3f89a11628806e4b	0.012514279471410058
198	0x3f9261eb5c834617	0.017951657792599187
199	0x3fa6abbdb4601e02	0.044279030102242004
200	0x3f8205629deeff27	0.00879933399653472
201	0x3f8038b24fb9bc32	0.007920640047101999
202	0xbf72dea990750f32	-0.0046068786244324745
203	0xbf71ecef552a85cc	-0.004376349347383134
204	0x3f9c99fecb29184c	0.02793119540208293
205	0x3f749264092521c3	0.005022421612303099
206	0xbf82b29e861545aa	-0.00912975165070658
207	0x3f74414b93c8e3f3	0.004945082877889628
208	0x3fa7a922603a34c1	0.04621226715708238
209	0x3f905105bdda671a	0.01593407603522854
210	0x3fa06e69ecb9aa2d	0.03209239020073471
211	0x3fa039b52178959d	0.03169027360517449
212	0x3f85fa45b8aa54c9	0.010731262872733531
213	0x3f9eb9ceaf2abc17	0.03000567382940397
214	0x3faa274f2d9837f1	0.05108115607809783
215	0xbf8b065962e18ee1	-0.013195703821288375
216	0xbf7ea75996aff85c	-0.007483816104466436
217	0x3f8cd33129adabe3	0.014074691852973891
218	0x3f8fdf6d003eabc7	0.01556286961552712
219	0xbf536eaff6e09f80	-0.0011860578920366016
220	0xbf8d4b38ae7ab6cf	-0.014303629707991842
221	0x3f83b30883e43216	0.009618822598462844
222	0x3f80a1aba1da95a9	0.008120861889731783
223	0xbf8bd54be705d406	-0.013590424525981259
224	0xbfc2e6038011bd61	-0.14764446023353187
225	0x3f77d2b15c25ed44	0.005816166698760231
226	0x3fa0c2d415c147d1	0.03273642316402426
227	0xbf9fa0d316d1bb34	-0.03088693453576781
228	0xbfbc46c483f9dd97	-0.11045482847281672
229	0xbfc6d3ce95447ceb	-0.17833883560613314
230	0xbf7a4384a0246113	-0.00641204649789297
231	0x3f874f678e5f361d	0.011381920845361876
232	0x3f90af51897b8a1c	0.01629378701808025
233	0x3fa07f7d2db83019	0.032222663718215645
234	0x3f622cd3c2d72450	0.0022186408957379014
235	0x3f72cebb7efa3098	0.004591686636228463
236	0x3f940382f8019497	0.01954464567861133
237	0xbf95aecf1ef90763	-0.02117465616743831
238	0xbfb5562ba43956ec	-0.08334610709547591
239	0xbfc3a4615e8cc617	-0.15345399014181346
240	0xbf780e5f5632db48	-0.005873081597363612
241	0xbf52b80b58894b67	-0.001142512397696216
242	0x3f913b8cfecc9c7a	0.016828730632508095
243	0x3f860acde277ba2a	0.010762794946427585
244	0x3f6a48997e8a32c6	0.0032084463057969496
245	0x3f86efbf754365b6	0.01119947029694655
246	0xbf89d11fdd1ae7c8	-0.012605904517261637
247	0x3f6d31aaedf907c1	0.0035637224644071435
248	0x3f933b6d43dfee3e	0.018781382816071217
249	0x3f9caa2b196f2fc4	0.02799289076556001
250	0x3f9bd98f20dea144	0.027197109585956683
251	0x3f754a80c2981c05	0.005198004693290241
252	0x3f7f33f7e6d20aa9	0.007617920270720426
253	0x3f8a039b493cf572	0.012702191517400794
254	0xbfb8a4baa46b8c32	-0.09626356615221779
255	0xbf7755472d032104	-0.0056965618425197685

n_convs.1.bias f8 [64]
0	0x3fafe69d30ffd954	0.06230632041108444
1	0x3fb4f71a5f14ecf7	0.08189549275714457
2	0x3fc4559a8209886f	0.1588624129245235
3	0x3fb1a66da1c14243	0.06894574355215703
4	0x3fb09c856c9ca4b8	0.06488832379968101
5	0x3faf29fcb8637711	0.06086721182667366
6	0x3f7b2583f43ce260	0.006627574391864316
7	0x3fb5aab0693ebd4c	0.08463575906238424
8	0xbf6572e3e19f41cf	-0.002618260460600853
9	0x3fb21b05052c31d8	0.07072478653225944
10	0x3faa4fa32206783e	0.051388833907580964
11	0x3fb083548368045e	0.06450393875276592
12	0x3f9e6dbb775b8bfa	0.029715470466623352
13	0x3f9985442bacf4fd	0.02492243305754459
14	0x3fb9e4d43384d045	0.10114790208609843
15	0x3fbc385f69bfd1af	0.11023517925042968
16	0x3fb1b80dc875e429	0.06921468872123228
17	0x3f9e3039a2bcf217	0.029480839307540387
18	0x3fb8e2869c1d871a	0.09720650969896064
19	0x3fb24e1d4467e0b9	0.07150443000853358
20	0xbf87e700d8578de6	-0.011671072580560837
21	0x3fa360635c153768	0.037844758024774106
22	0x3fab97130eb89a44	0.053886981532106165
23	0x3fb44f07e5f12516	0.0793309151059883
24	0x3fb28cf5400553c3	0.07246334851272622
25	0x3f9f6cfbe04f3ec4	0.030689178052681468
26	0x3fb4b1344291eb28	0.08082892060512548
27	0x3fb07d9c14d11fb5	0.06441665180420737
28	0x3fc364e1abdce822	0.15151615993255613
29	0x3fa5c55ab8a02a71	0.042521319424925326
30	0x3fb52877c82ec8ec	0.08264874112390758
31	0x3fc346cc7dd3080e	0.15059810775534327
32	0x3fb2c3630f035729	0.07329386822251806
33	0x3fb52996daa83f6a	0.08266585195837953
34	0x3fac1aa73ef1d59b	0.05489084857337475
35	0x3fb1dc6ad0995c3c	0.06976955025435044
36	0x3fa1346a15535ead	0.03360301504443206
37	0x3fbb1e46cff3cb92	0.10593073441468295
38	0x3fa346f8018b3e66	0.037650823772875694
39	0x3fa4cb4f5b655da3	0.04061363211320248
40	0x3fb8345158507948	0.0945483055697639
41	0x3fb2e361576d7a08	0.07378204712356518
42	0x3fa63e22fe5af647	0.043442815350755164
43	0x3fb2ca4e69e6b6ec	0.07339944920996871
44	0xbf758f7886e65c98	-0.005263777550133096
45	0x3f88a794f3406206	0.012038386987158322
46	0x3fbb33ddd33e3251	0.1062601700525161
47	0x3fb4cd54e4d52cfa	0.08125811182724255
48	0x3fb2a3775f31446c	0.07280679773363524
49	0x3fad250ae6092f3d	0.056923237400580785
50	0x3f90e23cd5d82446	0.016488028099079587
51	0x3fba5a046adc06d1	0.10293605431436538
52	0xbf611f9ed9d4f11c	-0.0020902731472728486
53	0x3fb57ccddbdb7ffe	0.08393560998547397
54	0xbfb11b94bb1a64b4	-0.06682710235544925
55	0x3f86d1d5c8001adc	0.011142416158702977
56	0x3f9f94e9504c4d30	0.030841489339832495
57	0x3fb92564d71f1d70	0.09822683574667734
58	0x3fb6d4028adddf86	0.08917251482296082
59	0x3f9ae5575de19a78	0.026265492539460727
60	0x3fc29cd14ab4f23e	0.1454106917170907
61	0x3fb9ed93321e23fe	0.10128135655953938
62	0x3f96825943627e8d	0.021981615770185804
63	0xbfacc68fea290b1a	-0.05620240910913861

n_convs.2.weight f8 [128, 64, 9]
0	0xbfa9a096036fceec	-0.05005329887344864
1	0xbf9916ac507ce25a	-0.02450055352457734
2	0xbfa02ac7860bf55a	-0.03157638083755883
3	0xbf94675f7b67179f	-0.01992558661165555
4	0xbf725063fcb05c34	-0.0044711976761596
5	0xbfac34c51357a6f1	-0.05509010182488606
6	0xbf9c3c0c714a004c	-0.027572817244163425
7	0xbf8d5607a076a52a	-0.014324245056587321
8	0x3f77ccb9fa282ade	0.005810476754514153
9	0x3f4ae6f96385b4c2	0.0008209912985372091
10	0x3f9355848a9d3b34	0.01888091178926317
11	0x3f89c47260b466bb	0.012581723762696275
12	0xbfb132bf4ee9c665	-0.06718059231368441
13	0xbf9e2a35be68acfe	-0.029457893129955608
14	0xbf857476b300da3e	-0.010476043069599258
15	0xbf95983daea45317	-0.021088565620703905
16	0xbf725c3c2f39a7b6	-0.004482493491744613
17	0xbf6b35fea97c5d0e	-0.00332164515192413
18	0xbf677b14acb10eaa	-0.0028663066673589492
19	0xbf6eb687891a149a	-0.0037491461924355598
20	0xbf83269a851b812d	-0.009350974261395162
21	0x3f3f7df2002dba0c	0.0004805293867126421
22	0xbf94cac0d85c26fa	-0.020304692464413222
23	0xbf8e51a38d660791	-0.014804151299134623
24	0x3f9bd634f87d63f2	0.027184322039236215
25	0x3f95c7cd1b16fbaa	0.021269993570736702
26	0x3f675169b08ffac4	0.0028464378597158075
27	0x3f8c7d14f15bb076	0.013910449615160508
28	0x3f90205f38c3c4c3	0.015748489226955053
29	0x3f9319bbad85a3c3	0.01865285154909536
30	0x3f869161f270ed58	0.011019482814041012
31	0x3f5dfb28191ad199	0.0018298999388380642
32	0xbf84c2216e7da582	-0.010135899719631029
33	0xbf891a2181061caa	-0.012256871938701803
34	0x3f1fe77a0e5c3ca9	0.00012170488806993958
35	0x3f66e434b884b1ca	0.0027943639471656777
36	0x3f9090ebe75a0036	0.016177831645564043
37	0x3f8778b1f9568c05	0.011460676595396188
38	0x3f60d3d652f5cea4	0.0020541368500575797
39	0x3f825183f92e2377	0.008944541017415137
40	0xbf926f81bbe0f39b	-0.01800348958225904
41	0x3f8538849b5a9116	0.010361705771466261
42	0x3f924ef1ab101000	0.017879272523728673
43	0x3f964c0cd95f6717	0.021774483458876306
44	0x3f82340dbd012086	0.008888346987206096
45	0xbf9ffe6d052b9e5c	-0.031243995132994903
46	0xbf8cbbd389bc6da8	-0.014030125275488484
47	0x3f8f8468a795954f	0.015389268507258662
48	0x3f6ea866531cd085	0.0037424086121067867
49	0xbf90650b23252114	-0.016010450382311595
50	0xbf87a7e3c6625a63	-0.01155069302721507
51	0xbf9b57075d674fd5	-0.02669917590704059
52	0xbf97b7b70261d1a5	-0.02316175415076462
53	0xbf924c0da168bed6	-0.017868245102532786
54	0xbf8b5086b91c1bd7	-0.013337185405829217
55	0xbf49542b189d5c85	-0.0007729731016564856
56	0xbf7718bd9d2464dd	-0.005638828925179609
57	0x3f8bab098b4b5148	0.013509821475431352
58	0x3f8578a035b5b41d	0.010483981741993326
59	0xbfa5f064883f6994	-0.042849675781059166
60	0xbfa9d4a4d8782a11	-0.050450469421850504
61	0xbfa6e09fde5dd1ab	-0.04468249883112504
62	0xbfa15dd87c5d3347	-0.03391911047092449
63	0x3f813137c78c9cec	0.008394656922588749
64	0x3f70449d0a3deda2	0.0039716848731318494
65	0x3f85010e6f94048e	0.010255921154114025
66	0x3f92680780a2a465	0.0179749653113145
67	0x3f8fed7dc385e67c	0.015589697389020822
68	0x3f665dbcebb4460f	0.002730244622974671
69	0xbf8a6362bc2a9616	-0.01288487564790856
70	0x3f8d927922e996a4	0.01443953168672902
71	0x3f933454a12dcce0	0.01875431283719997
72	0x3f88b25f44a55e7b	0.01205896785965809
73	0x3f40f1539fd23844	0.0005170496293816014
74	0xbf873992955bad94	-0.011340279753730788
75	0xbf6c5ea80c163ae7	-0.003463104455199473
76	0x3f8606ca491832e1	0.010755138736408156
77	0x3f909c1d07591f9b	0.016220525334830076
78	0x3f7f12c4a41c46de	0.00758625805771526
79	0x3f76ac5598d37592	0.005535444606008426
80	0x3f7c2ea98938fe26	0.006880438089467178
81	0x3f994c2545066dc1	0.024704534852942
82	0x3f890997354ccbfa	0.012225323976599246
83	0xbf6e202dd1c531be	-0.003677453509373956
84	0xbf8848facf1f7cf6	-0.011857947774784421
85	0x3f3ccb20ed3e6455	0.0004393535029919062
86	0x3f40ef119d5f38e4	0.0005167804727024519
87	0xbf5d1cef41ee8e7f	-0.0017769180774188929
88	0xbf64df955650f399	-0.0025480190984396686
89	0xbf75754e55c16903	-0.005238824840569703
90	0xbf88e38da8d9e80d	-0.012152773585729216
91	0xbf8837051fcff486	-0.011823692353568182
92	0xbf8049d3e5d7d572	-0.007953315212015897
93	0x3f85f9abd7376d42	0.010730116372477231
94	0x3f804e3208968439	0.00796164597233161
95	0xbf8bfb029586f480	-0.013662357509810485
96	0x3f80dbe74c71d790	0.008231932659537283
97	0xbf69bd3ed715f3fb	-0.003141997084354473
98	0x3f7b9c7eaa800e0c	0.006741041936041647
99	0x3f9ebf06aa60b6c9	0.030025581501994112
100	0x3f9924c6b8990792	0.024554352776483386
101	0x3f95e72250e005ee	0.02138951891538981
102	0x3f42f104f0af5b40	0.0005780481454803268
103	0x3f7f2055ca3da52b	0.007599196545791369
104	0xbf73576017ce94ae	-0.004721999514832804
105	0x3f8035859b9df983	0.007914584933811813
106	0x3f9be55eb54aa824	0.027242164435541963
107	0x3f9745c9aa9a0715	0.02272715667505228
108	0xbf82f5e191c2a0aa	-0.009258043537855382
109	0xbf819283a7bc24a3	-0.008580235058177904
110	0xbf99d353d0a5f1ce	-0.025220212564350857
111	0x3f6ada00506248c5	0.003277779210358297
112	0x3f88f21af5169efc	0.01218052921724632
113	0x3f7ae0506eb23912	0.006561578930940353
114	0xbf5eabf3c40ce2d3	-0.0018720512891389665
115	0x3f6449500ca059c0	0.0024763644660296957
116	0xbf968f4a80116575	-0.02203098684944878
117	0xbf761c13e3dc95cf	-0.005397870727198619
118	0x3f4e5224bbd3b789	0.0009253196109548649
119	0xbf7370e4d2bc095b	-0.004746335831216387
120	0xbf478646b7bfe992	-0.0007179112722035966
121	0x3f970439934fe7eb	0.02247705422994521
122	0x3f8e7315a7adb94b	0.014867943935055769
123	0xbf294afe948c180d	-0.00019296987218114827
124	0xbf7611897a7db81c	-0.005387818360629761
125	0xbf8976ba128a7c65	-0.012433484736275877
126	0xbf72135dec20dc15	-0.004413000950129327
127	0xbf507ba8af017773	-0.0010060450840891604
128	0x3f75de1e22952a9c	0.00533878108519539
129	0xbf8d3c8a77f709f3	-0.014275628839532017
130	0xbfa4b79ca310a720	-0.04046334734478152
131	0xbf847bc56a28b36a	-0.01000169973584671
132	0xbf243f949c4a6c42	-0.00015448273747584352
133	0xbf903eaee2ca1b7d	-0.015864117233401743
134	0xbf931bfc32029f69	-0.018661442329772102
135	0x3f64549f67138ca5	0.0024817574818470516
136	0xbf891558de270d0f	-0.012247747687871539
137	0xbf6b58f95fa76dd5	-0.003338324602038626
138	0xbf641dd2b70636a5	-0.0024556270147460695
139	0x3f84acd8a8e9aa71	0.010095303206260927
140	0x3f824068da5dc3bc	0.008911914028176919
141	0x3f95c902652ae87b	0.021274602341442943
142	0xbf7772924570ecdb	-0.005724498149955094
143	0xbf8429be75b4a76d	-0.009845245329944874
144	0x3f918b7b8c558c12	0.017133646431272416
145	0x3f8054f7a67aa5b9	0.007974562423742936
146	0x3f7a43e9c07e9dc3	0.006412423223003785
147	0x3f699e685539c411	0.003127292418689816
148	0xbf48e794ce6078fe	-0.0007600285141540484
149	0xbf4a1d17b5c36567	-0.0007969251414820356
150	0xbf4b6da492b29e0d	-0.0008370450572287594
151	0x3f87c66f81a8086a	0.011608954567240388
152	0x3f92eceb6a97b14e	0.018481901532071014
153	0x3f843c9e99e6ba75	0.0098812475888199
154	0x3f7541a3ccf647a3	0.00518955216047515
155	0x3f76a396919035db	0.005527103575344107
156	0x3f7dcf66890619aa	0.007277870682065682
157	0x3f8561c017ab99d1	0.01044035026775428
158	0xbf66fd1a98dc585f	-0.0028062362170074152
159	0xbf75e39d4578fd4f	-0.005344023076360684
160	0xbf70e48f14630ea2	-0.004124220757322357
161	0x3f7f895940dd9b9d	0.007699345251103743
162	0x3f76767e2b067440	0.005484097332012772
163	0xbf61bde4d5a41d4e	-0.002165743772937801
164	0x3f73457b1896b6bf	0.004704933971351798
165	0x3f5a6f6fdb85f711	0.0016134827002071731
166	0x3f9c3b9c1d066183	0.02757114340929113
167	0xbf902a9d66b67e75	-0.015787562746139423
168	0xbf8b6b75666bd954	-0.013388554752492489
169	0x3f56e9e189dbd80c	0.0013985350155372193
170	0xbf326fd7eb70fdb4	-0.00028132459141613363
171	0xbfa0a2d20645f8fe	-0.03249222113207571
172	0xbfa0441fe1021b3b	-0.031769748894524295
173	0xbfa151029f740b8c	-0.0338211841244834
174	0xbf58a9c117066a3a	-0.0015053163188897393
175	0x3f3fe10dc4dda68a	0.00048643671185875286
176	0xbf73a3d596850a2c	-0.004794916465757509
177	0xbf8d2c7e7fde919e	-0.014245022084488575
178	0xbf8e3395486187f8	-0.014746824523346178
179	0xbf86ed2405c943a7	-0.011194497515278302
180	0xbf9882622d486799	-0.023934873594135906
181	0xbf97964661dadc90	-0.023034190867033788
182	0xbf973b2cb444a316	-0.022686670782749628
183	0xbf81c926d9aa204b	-0.008684447782130308
184	0x3f58aa28e50dd7a2	0.0015054129946441082
185	0x3f6fc1a443c5a6d7	0.003876515225944437
186	0x3f9320ff3c226c04	0.018680561108890728
187	0xbf7265d52deecb38	-0.004491646511200646
188	0xbf96e713d2af0aa5	-0.022365865453830697
189	0x3f166f37f8d40790	8.55806267346089e-05
190	0x3f936d3a7fce6831	0.018971361208606822
191	0xbf49e213c6968892	-0.000789889961357442
192	0xbf7460a450165c12	-0.004974977347408165
193	0xbf90e851db08c962	-0.016511229509157295
194	0x3f8319617b77d79a	0.00932575376553384
195	0x3fa0c7779bdc35c0	0.032771814132597665
196	0x3fa2851a8abac059	0.03617175048327743
197	0xbf823fd9e92d999c	-0.00891084902623334
198	0xbfa36148dee8b833	-0.0378515979867732
199	0xbf8dcef198f6331f	-0.014554870110055127
200	0xbf908701bdb010a9	-0.016140010073301046
201	0xbf715ad2c4006dd1	-0.004237006476639008
202	0x3f65fc4d658b1e5b	0.002683783688869385
203	0xbf8f3c721c6b3fcc	-0.015252009861256875
204	0xbfa34eb1a9bcd0e6	-0.03770976254455309
205	0x3f8bb062f7e2e6de	0.013520024480715372
206	0xbfa4ad0a0b5b80af	-0.040382684599309264
207	0xbfa68f500a4008e0	-0.04406213879703258
208	0xbf836258e282679f	-0.009464926159399143
209	0xbf93daceba1e8838	-0.01938937197667931
210	0xbf9034789ab08c9c	-0.015825161401278195
211	0xbfa633f358b026a0	-0.043365101410086426
212	0xbf87abd3ac070a58	-0.011558202445376128
213	0xbf848147c5830d1c	-0.010012207713208592
214	0xbf97b718c393dfc6	-0.023159396111594586
215	0xbfa3c96d327bd53d	-0.03864613763100031
216	0xbfa2f5c3fefecf3c	-0.037031292798387544
217	0xbf9217fd2c39f3ba	-0.01766963560520527
218	0xbf81ef18b4cf63f3	-0.008756821649443558
219	0xbfa22137932aae4e	-0.0354096762797239
220	0x3f80a0eae7316b32	0.008119425945712775
221	0x3f95aa5cd00a1c46	0.021157694051478403
222	0xbfb58080776e9bcc	-0.08399203220197576
223	0xbfa062710375d4d6	-0.03200104872932179
224	0x3f8916d4e2eaa09c	0.012250579047148151
225	0xbfa928569c6b514e	-0.04913588199056794
226	0xbf8f0f3b0aaace25	-0.01516576887420402
227	0xbf917602fb6b33fe	-0.01705174121416419
228	0xbf45846e051b1be0	-0.0006566559988748742
229	0x3f8d39a8748fd868	0.01427013021200825
230	0xbfa44d7e09f1b2aa	-0.03965371962917648
231	0xbf9cd05fa55557f5	-0.02813863226523235
232	0xbf7967fbc5e2f20b	-0.006202682007082415
233	0xbf852b05c8018714	-0.010335965315053687
234	0xbf9af401f1011de5	-0.0263214400622739
235	0xbf848030b7ca2e1b	-0.010010128601854842
236	0xbf923af414a30614	-0.017803014525958075
237	0x3f4e17b4ee0d3536	0.0009183534094547089
238	0x3f8176e5ae2c534c	0.008527559640734282
239	0x3f72c6fbc259d6e0	0.004584296640691682
240	0x3f9e177abf180bc6	0.029386442101905684
241	0x3f7f1e87bc5fbc08	0.007597475259884419
242	0xbf82992477482b38	-0.009081158533282271
243	0xbfb0b6a106c4aa97	-0.06528669753303472
244	0xbf9964302a041407	-0.024796249927948846
245	0xbf94fbfb4ec9c878	-0.020492483791209243
246	0xbf81746fa6a3e8df	-0.008522865555722734
247	0x3f400da0d644c4f2	0.0004899058663224971
248	0x3f8ed3b5b7611c7b	0.015052241953652725
249	0xbfb56fdb589adb3b	-0.083738049633081
250	0xbf812db2635b5f0e	-0.008387941033489745
251	0xbf8e31da80458b4f	-0.014743525542774498
252	0xbfab85ccb388c47c	-0.05375518504696061
253	0xbf877c8e990170b0	-0.011468042415963303
254	0xbf67572aba993804	-0.0028491816090427963
255	0xbf47aeedaad87403	-0.0007227573857481188
