model_checkpoints/elongation_net_v1.pth (torch, 692335 bytes, 10 tensors)

y_convs.0.weight f8 [16, 10, 9]
00000000: f1e1 d0fa 1f5a 613f 82a0 0a70 9db3 893f
00000010: c30d d6f0 e2cb 96bf aa22 a7f4 5f5d 743f
00000020: ad52 b18c 0897 983f 2bea 0f30 1b6e 71bf
00000030: 6e4e 6345 9db3 8e3f d9e8 bd19 c987 99bf
00000040: 2514 b660 c9d1 8b3f 2b83 c919 bf3f 883f
00000050: 927e 02a9 7af8 383f 9d71 404f 2386 a03f
00000060: 7249 628a 2016 a33f 2e40 a7d2 ed4b 803f
00000070: b042 d2fe 25d6 73bf 63ff 6dc1 57e4 8c3f
00000080: c4ca 7e25 ccf3 88bf f9ab 4d7a 2ed6 98bf
00000090: e3ec f4cf 240d 8abf ee04 4537 f3be 893f
000000a0: 05c1 1a1e 7a07 93bf 41a2 9f8f d3a3 99bf
000000b0: 22fb 6d30 a267 a33f 7b4d f0d4 7262 8fbf
000000c0: 330f 70da 63fd 7f3f 6600 9dc6 b5cb 9dbf
000000d0: a5b4 dccc 8f16 883f cf24 24eb 8094 94bf
000000e0: a91f 3fff 16e5 82bf e3d2 a934 b06a 983f
000000f0: 6e18 5991 3d21 84bf 09cf b76d 882a a73f
00000100: 571c 737e 37e1 723f 4cba e011 2b6e a13f
00000110: bf2b 63c2 36f5 913f 6563 cc39 fc3f 9dbf
00000120: 97fe 6b7d 2b53 643f 6f40 ea09 50e3 a4bf
00000130: 8267 250a e1c2 813f 383e 5a11 ba3b 983f
00000140: e829 17cf d5b5 9a3f 775e 1517 be9d 873f
00000150: 922f 5904 8406 8abf d2a9 428b e059 923f
00000160: 5e4c e55e 7762 743f 88bf a586 c38c 763f
00000170: 6ed1 9a8a dc99 93bf c5d3 7982 4933 953f
00000180: 110d 77b5 5e06 53bf 961d b6b8 88a7 bd3f
00000190: 30f4 fc79 9788 8f3f a852 6984 0b89 a13f
000001a0: 9bd1 006a 64bc 8a3f 6b69 552f 037e 7a3f
000001b0: a0cb 6ce6 3f8e 96bf 7bb2 3c32 3c33 953f
000001c0: 6052 689b d505 a43f a2fa a345 b353 76bf
000001d0: efec 3376 05d0 8fbf 92d6 6a22 bfa3 8f3f
000001e0: 078b 6f67 911a a63f a395 9508 31cd 88bf
000001f0: 72bc 7bee 34d3 a4bf a529 4977 b394 753f
00000200: 9fd0 ff07 e127 79bf d877 5506 599d 873f
00000210: 1603 b856 f3af 8d3f d148 4529 f462 55bf
00000220: d73d 0e52 66d6 61bf d5ba b892 0c16 763f
00000230: d7b7 536b a4a6 66bf 4233 d9a8 e076 933f
00000240: 427f 28f3 ffce 2dbf 531b d31a 3e12 703f
00000250: e613 0143 f70b 53bf 9ab3 3014 2704 873f
00000260: 559f bab8 c6b2 71bf 145c 7302 09fb 92bf
00000270: be85 ac07 bd35 84bf cb50 2c98 6d1a 72bf
00000280: 568e fb48 085a 753f f07d fa6d 5d9a 84bf
00000290: 9261 0033 79f3 8fbf 1451 0792 db82 94bf
000002a0: 9e9d 5b8b ddec a9bf 28aa 433d e5f0 b3bf
000002b0: 6894 58c1 e3ad b0bf 0278 da69 bb7a 76bf
000002c0: b65c c8b1 ab46 85bf 4d98 89d4 643f 91bf
000002d0: c43b 98dc fe5e 983f 2dee 2c02 6acf 91bf
000002e0: 515a 769d ae0d 9fbf 342b 9d35 bb65 993f
000002f0: 2a3c 6ab1 9474 9c3f 8603 92db 886f 99bf
00000300: 47a3 28bc 793a 803f 4f85 26bd 89a8 933f
00000310: 5b5c 1130 d09d 80bf cd2d 9fd7 b21d 86bf
00000320: 0a48 b4d4 3ea0 a0bf 14b2 f161 645c 943f
00000330: 698a 711d 8017 8c3f e806 000d f649 a23f
00000340: eba4 bcdd 2bf1 953f c5da 4dc7 2c5e 9f3f
00000350: 2d5a 96c7 44ab 9fbf 0520 8f4c de6d 923f
00000360: ed1f 110a 359e 703f 7180 c188 22c1 69bf
00000370: 3797 1ed2 8b80 9dbf 86d9 a704 ae72 983f
00000380: 2e78 36db 629a a63f 29e9 457e d8f5 833f
00000390: 7d69 3b16 76af 94bf 91f3 5dfe 61d9 9cbf
000003a0: 0eba a65a d809 a1bf a07f 3234 364b 9b3f
000003b0: a7d9 1e31 d69e 943f 8501 39e1 d0b5 8a3f
000003c0: 5ee5 8930 e9d3 61bf ebd8 6dd5 13dc 79bf
000003d0: 849c 8ef5 5322 903f 000d 9a74 c8ed 943f
000003e0: 6fca 9c61 5476 79bf fd09 0be1 7adb 92bf
000003f0: 09fc e9da d040 a2bf 07b9 e225 98c3 8ebf
00000400: ba0d 9a59 a68b 9e3f 3ab0 c3e0 4d29 913f
00000410: 375f 1ab5 08ba 913f 42eb d4ca 3cdd 943f
00000420: dedd f490 6f71 853f 933b 8408 3684 29bf
00000430: 36f8 8beb d0f2 69bf d964 7e2f a3c2 813f
00000440: 12ac 5609 68e5 5ebf 920c 6d60 9111 76bf
00000450: 5f69 e028 c9c8 7f3f 864a f6de eb75 bf3f
00000460: da8e b9fd 7f0a 9e3f 80f3 65fd 9df5 873f
00000470: f1b6 0d01 462f 963f 3e32 1067 3eef 6abf
00000480: 436c d324 2112 86bf d9f7 ded4 e9f9 a53f
00000490: 3dbe 28b4 636a 76bf b47a e0bc a073 81bf
000004a0: aa73 c5a8 92a2 643f 0e26 d9da df76 64bf
000004b0: f176 c456 f12a ac3f dd03 082b c3c5 99bf
000004c0: 0d0c 54c8 4e0a 9abf a6ec f758 49cf 83bf
000004d0: 6dd5 a484 5629 613f b846 7946 eb48 943f
000004e0: 62b0 aa99 934c 813f a16d 6251 08c2 7a3f
000004f0: 888a b606 9a98 583f 67d2 9efa 40fa 753f
00000500: 02c8 4cb2 b365 87bf a9cd 476d 11f2 8b3f
00000510: 8d37 69eb e78e 80bf 7ad6 524b 4a03 58bf
00000520: 5fda 8849 3f3b 79bf 696d 6449 f468 843f
00000530: 4b0d e220 3997 31bf 2f98 15ed 5911 90bf
00000540: db8c abc3 6d83 83bf 60fd f997 eb97 5dbf
00000550: f4d7 2baf b027 853f 3212 6d93 1424 88bf
00000560: cd71 3970 dff8 8abf 4453 115a bd30 95bf
00000570: 36a0 2c47 7d20 aabf e03f a5cf 902b b4bf
00000580: ad53 b6f6 d8be b0bf 2fa2 2657 1fa5 68bf
00000590: a09e d29e fcf5 84bf 842c 5d07 0d13 95bf
000005a0: 4fd6 9ea5 b31f 7abf 798f 4e33 eadd 453f
000005b0: 2b12 edc3 ec64 71bf bbdf 0131 7b1f 9cbf
000005c0: b5e5 aec3 8835 9fbf 5425 7b32 b93e a1bf
000005d0: acd3 4cde 9f11 873f 4131 3003 11db 7ebf
000005e0: d9f4 216c 1538 833f 203c 34b7 f4d9 4ebf
000005f0: ad69 e41f 913a 98bf b260 3dc3 61a3 813f
00000600: 0966 ec4a 9734 743f b5bf 156e 08d1 b03f
00000610: 9154 aa2a eeed 663f 6d41 0435 b189 963f
00000620: c439 a8f9 5ab5 9c3f 277b 1fb9 8e1f 833f
00000630: 6538 a6dc 43fc aabf b8ac dd7a 32ce a9bf
00000640: ff21 97a7 faaa a8bf 8d75 83b8 d039 a5bf
00000650: 1d36 843b 1b95 a6bf d0f9 1a72 caa3 a5bf
00000660: 1c64 55d8 9e89 a8bf 0e44 f140 3c9a a7bf
00000670: 3a2e 9def 6f3d a8bf 790b f1d5 c7fa 893f
00000680: c50b dfb0 3d40 8d3f 3629 2875 94cc 783f
00000690: 7866 9a2a 62a8 623f 0977 f002 ea06 4d3f
000006a0: c9ac c86b 1068 6b3f 81a4 b305 5ff5 7f3f
000006b0: d9f0 cf4a 4b9e 7b3f ef53 a9f4 cc5a 98bf
000006c0: 2bba 28c3 c592 813f 48e3 6f15 b1d6 733f
000006d0: 3d06 c962 bc29 70bf 93e2 4dd8 b331 943f
000006e0: 3496 48b1 31f5 933f 636a 45d3 c748 92bf
000006f0: 0098 b87d 0102 853f ad66 a5dd 1f64 90bf
00000700: 9b89 93c0 bbaa 92bf 738b 18f7 5809 893f
00000710: 7912 9850 68b8 3bbf d19b 09c0 cb25 4abf
00000720: 896b 7bef 99db 91bf 931e c924 f8cd bd3f
00000730: 8e15 1a47 9000 a23f 63bf e992 70de 94bf
00000740: b25e 1750 d534 80bf 2134 72f2 32a9 803f
00000750: cf45 fe98 7046 a2bf 8cea a466 b4f2 a73f
00000760: 1f3f ef32 d75f 873f c491 a4d6 ccf1 98bf
00000770: 42c4 3f0d 9408 86bf f3eb 5dc9 e25c 743f
00000780: 779d 822e 1de5 a83f ec0c 2fee 995b 93bf
00000790: 17fb 66b4 48aa a0bf 3e86 9f11 9f20 703f
000007a0: 4432 5e5a 8209 5f3f 9459 4a9d b975 6f3f
000007b0: 0e04 d740 eb15 7f3f bb6c 9d8a 8ae6 743f
000007c0: 559a 7b3b aba2 76bf 020e 190e b6ce 813f
000007d0: 630a 65cd 480b 6dbf 477c 5489 c5b2 873f
000007e0: d28e e0c3 22ae 88bf 65e6 adb7 5170 5c3f
000007f0: c964 362d f754 71bf 3a92 4286 8053 6c3f
0.002118170223664111 0.012549619657264314 -0.022262140225860493 0.004971861674171999 0.024013646685790025 -0.004255396082039324 0.014991024665881283 -0.024932043262631296
0.013583729995625468 0.011840336775266266 0.0003810214484562892 0.03227339117458714 0.037278191464014024 0.007957323065881008 -0.004842899722590374 0.01410740431833774
-0.012183756727471524 -0.024254537787253814 -0.012720382305465744 0.012571239589876684 -0.018583210074838003 -0.025039010659300812 0.03790003625089457 -0.01532449447953498
0.007810010959477687 -0.029097404715912843 0.011761783065219975 -0.020097746230963772 -0.009226016678340292 0.02384448357993819 -0.009829026220483619 0.04524637545901384
0.004609314702242426 0.03404364197955498 0.017536979307617658 -0.028564396884664407 0.002481064740436366 -0.040796757898648 0.008672483560690617 0.02366533976470306
0.02608427120666504 0.011531338767482453 -0.012707740194990245 0.017920979022770407 0.004976717273467461 0.005505336545283408 -0.019141622504962034 0.02070345744001025
-0.0011611866847126044 0.11583761701159853 0.015397246752053645 0.034248695291045295 0.013054642186127554 0.006467831078533197 -0.022027014197373185 0.020703259054402495
0.039107012959139764 -0.005450916558628423 -0.015533487958683227 0.015449040639718779 0.04317144763606078 -0.012110121798012246 -0.040673879729973175 0.005268765486628278
-0.006141547230061799 0.011530585771364274 0.014495755275676408 -0.0013053306948518815 -0.002177429051193984 0.0053921214235248165 -0.0027650080979730696 0.01900816946572382
-0.00022742151630072467 0.003923647496043642 -0.0011625208535559427 0.011238389304787866 -0.004320884948960065 -0.018535748266767696 -0.009868122860612224 -0.00441973505327926
0.00521281467783615 -0.010060052794243796 -0.015601107472364348 -0.020030432498814824 -0.05063526464601441 -0.07789452310286349 -0.06515334577905352 -0.005488140186256986
-0.01038869987773548 -0.016843390915163337 0.02379987927821127 -0.01739278448370223 -0.03032563053201393 0.024802136561713442 0.027788470581580217 -0.024839533235084164
0.007924033217095462 0.01919760910971507 -0.008113504855073275 -0.01079883308911791 -0.032472575631018755 0.019883697965655214 0.013716698549790256 0.035720528685500075
0.02142780819773275 0.03063268629508788 -0.030926775628893722 0.017997239516063263 0.004057128128870585 -0.0031438517089981623 -0.028810677241970253 0.023874968561324227
0.04414662290513181 0.009746257165478571 -0.02020058165258253 -0.028172999525384382 -0.033278237405614516 0.026654097495906748 0.020137163875654143 0.0130420988781459
-0.0021762423023658347 -0.0063133978609270875 0.01575595079671334 0.020438320271307653 -0.006216363539169308 -0.018415374742071212 -0.035650755618000636 -0.01502150407426629
0.029829596728189613 0.016759125560312983 0.01731122594227871 0.02037520397173443 0.010470267878743774 -0.00019467506013667572 -0.00316754154880441 0.008672022711652282
-0.0018857494336355124 -0.005387847783654769 0.007759843616464173 0.12289308732423807 0.029336929188857087 0.011698946281052391 0.021664708914093948 -0.003287908439693759
-0.01077676671632422 0.04292231296083999 -0.0054725546529393295 -0.008521323932709414 0.002518927043793491 -0.002498089996866743 0.055015127031067375 -0.025168466092512765
-0.025429945923871645 -0.009672711398698585 0.0020949067885804224 0.019809414078116844 0.00844683945373265 0.006532700054005331 0.0015012268221218667 0.00536561376968745
-0.011424449805051754 0.01364530195949139 -0.00808507144133921 -0.0014656281976334327 -0.006160018173025777 0.009965809335475044 -0.0002684130166772005 -0.015691189856987527
-0.009528024228933443 -0.0018062401503867384 0.010329609247019512 -0.011787567853056211 -0.013169999706570313 -0.020693739530844427 -0.05102912420107979 -0.07878975934477195
-0.06541210196731014 -0.003008424007209485 -0.010234807583699379 -0.02058048589178131 -0.006377889390866877 0.0006673234516836177 -0.004246640076250456 -0.02746384131066269
-0.030477654403261407 -0.03368166676734555 0.011264084788857286 -0.007533136801623209 0.009384314882704125 -0.0009415097141828345 -0.023660914966151903 0.008612407465691117
0.004932967173567623 0.06568958938237197 0.0027990009014709567 0.02200962911689557 0.028035565841543222 0.009337534927849568 -0.052705879864434015 -0.05040128469303212
-0.04817946716099541 -0.04145672085153782 -0.04410634137648748 -0.04226524966132994 -0.047924961002259375 -0.04609859745745136 -0.04734372901893065 0.012685357300261423
0.014282686195547964 0.0060544776083680165 0.002277557116781289 0.00088583399145012 0.0033455200885065023 0.0078023635680689605 0.006742757902426366 -0.023783876831959757
0.008580727594645307 0.004843417867044071 -0.003946052439063372 0.019720850064433092 0.019490028806236917 -0.017855760831802302 0.010257732056810909 -0.016006944564060422
-0.018229421261716543 0.012224860230224377 -0.00042297884701295686 -0.0007979626535189415 -0.017439275018527964 0.11642409227453702 0.0351605498117734 -0.020379790274489006
-0.007913271433536682 0.008135221504085579 -0.03569366328805367 0.046773564843950316 0.011413270227336235 -0.024359894371757354 -0.010758549360590067 0.0049713953829906175
0.04862300102950717 -0.01890411869295587 -0.0325491638391126 0.003937360155732926 0.0018943570116533174 0.0038403153688008704 0.00758926292240948 0.0051026736999474865
-0.005526226879487857 0.008695051484330033 -0.0035454198761340357 0.011571448567847876 -0.012050887682625886 0.0017357633612093079 -0.004231420072209954 0.0034577856295803485

y_convs.0.bias f8 [16]
00000000: b965 f600 3166 c23f 5339 eec4 8ce0 c13f
00000010: 6bd1 5200 81f4 263f d2eb 6e2b f23b b2bf
00000020: 98ec 8cf0 c455 bfbf 46cc ed71 85fc d2bf
00000030: a67d d277 b11d bf3f 43d7 fbc0 2e8a c13f
00000040: 7584 cb55 bcad b8bf 4684 274d 6d6d c13f
00000050: f0a8 8c7c 30cd c1bf 3f25 0ca7 c043 bf3f
00000060: 35ec fb3d a126 b53f bdf5 a90e 99e7 c03f
00000070: 95f0 67b2 a549 d1bf 77d6 e3cb 4031 d8bf
0.14374363467213216 0.1396652185034762 0.00017513346407372772 -0.07122720299132304 -0.12240248558821276 -0.2966626751505753 0.12154683280322462 0.13702949927363237
-0.09640099615673299 0.1361519457559856 -0.13907438355938195 0.12212757185274813 0.08262069476397545 0.13206780639658958 -0.27012007162535073 -0.37800617133266406

n_convs.0.weight f8 [32, 4, 3]
00000000: 0453 846a ce86 b7bf b23c 9722 65fd d33f
00000010: 77dc 5b9c 121e bf3f 5652 fbe2 11a8 b33f
00000020: 1dce 082e 81f7 d2bf 1261 3d73 c247 c63f
00000030: 1435 45b2 d209 cbbf fd52 6cc0 e241 d2bf
00000040: 0b01 29aa 6623 a8bf c559 c766 0b7d b03f
00000050: bc07 e239 81ff b3bf 1903 d28a ae01 dcbf
00000060: a752 f1b9 c385 99bf f59c 3d12 21d5 9dbf
00000070: 1c90 2b54 8c72 8bbf a91a 72a6 2e80 bfbf
00000080: 59a0 d4b6 5337 b13f 811b a68b 06ed c6bf
00000090: 9d43 a7f5 65c8 d53f f954 e96e 01e5 d13f
000000a0: 1b83 63eb c317 c03f 418c 9661 982d d1bf
000000b0: 2615 d79b 9ae0 dabf 7317 ed51 6695 873f
000000c0: dda2 59cb af26 833f 5203 c4d2 b004 c63f
000000d0: 613f 8a23 4a2f d3bf fc68 e1b4 e548 9d3f
000000e0: 4814 d19c 0e39 c9bf cb47 3d84 a199 d1bf
000000f0: 3785 36b3 0d69 b13f e73b 65d4 e92e d33f
00000100: deeb 5690 0861 cc3f c6c8 7a9e 37a6 733f
00000110: b59f dcc6 ae35 cabf f9a4 942f be01 d03f
00000120: 6c19 5a34 5164 c6bf 257e d1a3 c424 cb3f
00000130: 8c75 d747 cd52 b33f 91eb 4028 ce30 c3bf
00000140: a9a5 b2e6 6642 d2bf e5e3 c336 fa53 a23f
00000150: 7648 920a 8546 d73f ba50 fcea 7681 cebf
00000160: 8795 cea6 c13c d3bf 474d 14e3 eec3 a73f
00000170: 0ede b2ca 30c8 d43f 828a e276 955c a3bf
00000180: 5ae7 4e54 e9b2 c9bf 8ff3 2ec7 35f1 d2bf
00000190: 14a3 6c67 8924 b0bf bd87 fa88 0b8f c0bf
000001a0: 41f7 ff2b ff5a d4bf 53f5 ee16 9d4c b23f
000001b0: fa3e dd50 68c1 c0bf 6455 2b34 23dd c83f
000001c0: ff7c 0e52 ae0c c1bf 73e4 77df b844 df3f
000001d0: 04a6 c49b 46f3 ba3f 8889 12a7 e4db 76bf
000001e0: a4dc f2b0 7349 b1bf ea28 97f1 7552 8b3f
000001f0: 6211 db59 f0c8 c6bf 374d 8f8c 70a2 b93f
00000200: 57c7 6c35 b908 dc3f fd00 735c 0125 9c3f
00000210: ad49 d125 59b5 ba3f 90ad d987 4709 813f
00000220: 930e 72c5 169f c4bf 9c02 f01b dcc2 a3bf
00000230: 08b5 1002 8dd8 d4bf 4fd7 d0fb ab52 d23f
00000240: e361 3480 e389 b93f c8bd 6b2c 3672 c73f
00000250: c1df 172e 6c4f a5bf ae33 9f71 9d87 d23f
00000260: c280 e653 14a5 b73f 3a8d c202 5d32 c83f
00000270: f2a6 a5c9 67d6 bcbf d87d 452f b9a0 cfbf
00000280: 0b72 e725 6272 d0bf 761f 0112 50b3 d5bf
00000290: ee5c 9238 5b57 a8bf 1bff 92cc c782 cb3f
000002a0: e908 33dc 73db d0bf 73fe 2553 a934 b33f
000002b0: 1f2b 0d98 c646 a9bf d10b 5207 5030 c1bf
000002c0: ff2b ddfb c1b2 d0bf ed56 37c0 cb81 523f
000002d0: 1eb1 79e9 c78d c8bf e37f a423 d95f c73f
000002e0: db45 ae6a 6412 cc3f 03cd c1d7 7365 dd3f
000002f0: 09ed 9e27 77b0 d2bf 6f96 0830 34c3 aebf
00000300: 06a6 ad2f f08a 883f 27bb 497f 3dce c93f
00000310: 3c4b 8311 26e6 c43f 059d 02fd bfcb c83f
00000320: b0ea a298 ceb4 d53f c687 a44f 5d77 c53f
00000330: ebcc 5968 d0bc 063f e850 3dd0 0a11 cdbf
00000340: 4a81 cb13 3977 c1bf bc29 a50e e2bd bf3f
00000350: 7b7e 65da 7790 bcbf 7216 d297 a03d dabf
00000360: 7655 d3ed deb2 7fbf 7326 0c1f 34b5 9abf
00000370: ef1f c3b0 c0a6 a4bf e2eb 4d56 7232 983f
00000380: 82d0 392c 6f46 d13f 1371 7c04 8b75 d3bf
00000390: 9d9f cdc7 2a5e 903f 5cbb c142 9adc b9bf
000003a0: be47 2c14 d2d1 bfbf a818 caa9 b603 b43f
000003b0: 0f0c b1c1 e711 823f 5ce3 fd9b dd50 e03f
000003c0: cc0d 96ba ca56 af3f b3cc d872 fc2b e0bf
000003d0: 02f9 4058 0fc4 c13f ef35 17bf de44 d2bf
000003e0: 4358 e245 8ed8 ae3f ab53 25e2 1fb9 c1bf
000003f0: 516b 4ff7 76f3 d23f 3da8 fded 96e9 c13f
00000400: afdd 915b b922 ac3f 9eb3 23b1 731d d2bf
00000410: 3e26 1af2 79d1 b03f 08e2 34dd 484a 6bbf
00000420: ade4 90f3 9b79 cabf e5a9 a8de 3b61 d0bf
00000430: 88fc d41b 92be b93f 060a 1124 5915 cabf
00000440: 8993 5111 5e7d c8bf 2114 3861 5ab7 9f3f
00000450: f019 0878 17fd d23f de44 4890 3661 d0bf
00000460: 8f4f ddc8 2347 d0bf 4e49 642f 5ea7 b7bf
00000470: 9e4a 5a84 ecc2 de3f 7825 16ed f20e c1bf
00000480: f557 5705 0966 b83f e867 058a 79b2 903f
00000490: da25 ccf3 3c87 d3bf 5469 c2d6 60ba aa3f
000004a0: b968 c40f ff28 963f 2a6d b3db 1778 d1bf
000004b0: 6e73 1827 481a a73f b715 9665 678d d83f
000004c0: 194c f4e3 acbe da3f e5a0 e5a5 d895 a73f
000004d0: 1d5b d959 ff60 d6bf 7504 3fad d68a b83f
000004e0: bceb 079b bcd3 a1bf 0660 e2b4 4963 a7bf
000004f0: 3bef 3b56 de28 bfbf 0412 859f 6408 c33f
00000500: 766c 19d5 1602 da3f 3e50 846e 7d6a b03f
00000510: c58e 448e 1154 b43f 3160 cd17 b9cd 893f
00000520: 3893 4a13 cca0 afbf f2d7 1fe3 fe03 94bf
00000530: 151f fd25 2eab c5bf d17a 2735 0fff dd3f
00000540: 074b f676 4ae9 a9bf 0b33 8d8a ed5e 58bf
00000550: 9849 469d db76 babf 1f75 ae63 d152 d73f
00000560: ffd6 2ebb b4e6 ac3f 5478 50a7 b02a d03f
00000570: dffa 3327 3de5 9c3f aac5 6312 8701 743f
00000580: 5f45 361f 222e bb3f bf1c 9527 2619 ccbf
00000590: 8199 a11e 0648 c23f c084 1e94 2a42 d5bf
000005a0: 2f5f 6574 d7b7 d33f 6ffc 8dd1 2efc bf3f
000005b0: cf58 a013 fa0b cf3f 3b5c 4f04 2af3 b63f
000005c0: 29f5 a06a 74ba d8bf 7078 98ea f0da be3f
000005d0: 7b9a 5f2e f9ef ccbf abc2 82f5 779f b13f
000005e0: d8b5 b05d 5fc7 c73f b498 de85 215d ccbf
000005f0: 48d8 69ce 8601 b23f b4cf 8fb7 4d5f cbbf
00000600: 7a64 6069 24cb 963f 985e 5fad e85a bc3f
00000610: acd3 bd0b b3fe 81bf 4bda 5fdb 2497 babf
00000620: 1cfe 5aa5 eb85 c23f a063 2ffe 7c7c c1bf
00000630: c113 3968 26d0 aebf bf0c 0c40 3098 d7bf
00000640: 64bf 1ede a443 e03f d2e1 70e0 e9bd 8abf
00000650: b768 951e 9cfd ce3f d78d 1833 9600 c1bf
00000660: 1db1 5751 b77e b1bf 8b7b 7afd 45cd b5bf
00000670: 6445 fe24 5b50 c23f 8598 740b 644e 843f
00000680: c97a 29e9 fba4 df3f 74f9 bc7c ff4c cf3f
00000690: 1d62 7c10 6442 87bf c06e e575 2b47 adbf
000006a0: 05ed c3da 4a76 b03f a4ca 48a3 4a62 bc3f
000006b0: 6683 7841 6af1 c2bf b074 b19e 6c33 d9bf
000006c0: 46fc 0803 df7b a6bf 8165 348f 316b b33f
000006d0: cb8a 3d2a 0fc9 d1bf 1051 f372 57ad 59bf
000006e0: 4b23 f644 264a d5bf f7b5 30a9 0eac ac3f
000006f0: 1764 ae99 cd36 c53f 38a3 1313 b94e cb3f
00000700: ce67 9b9a 5784 bcbf 01da 21ad e19a 74bf
00000710: 3488 1dbb e6c4 d03f baa7 0fab 5be0 de3f
00000720: 7478 96e9 a26b d7bf 93e4 0581 7328 90bf
00000730: a714 7114 1aae a33f ac2f 34cd bfd4 c83f
00000740: fe17 3bcc c02d cdbf 995c e125 6954 a33f
00000750: 3be6 1b8d cedf 6abf 2c95 eb29 48da d63f
00000760: ccf4 503f fe88 c73f a702 ca87 d6a1 cb3f
00000770: 5d7b f471 d401 ba3f 3d05 9400 0a93 dabf
00000780: c9bc c0d1 a563 a33f db85 0335 47dd d13f
00000790: 2102 dec0 d28f bc3f 87cd db69 4eaa d6bf
000007a0: ab16 a527 b7dd cf3f 54d5 d767 5639 cfbf
000007b0: 7cf0 57c9 8178 ce3f e5c4 5d91 1b80 d2bf
000007c0: e60e e650 cd87 c93f 15b9 68b6 583c c1bf
000007d0: 762c 4d7e 3ab7 d1bf c8ba 2c3a 08e7 b5bf
000007e0: 4014 b5ef 7633 b33f 7264 72a4 76ca cbbf
000007f0: 1b4c 81ee e391 c7bf 13cb 8000 dcb8 ba3f
-0.09190073109159519 0.3123410070229041 0.12155262296060863 0.07678329268976233 -0.2963564824633254 0.17406492831174397 -0.21123727516752722 -0.2852713469631423
-0.0471450884547285 0.06440802821393905 -0.0781174436870335 -0.43760264927554854 -0.02492433378604866 -0.02913333581764462 -0.013402077025098484 -0.12304965556732363
0.06725047315251355 -0.1791084463004289 0.34035634030902334 0.2796023924941689 0.12572525971975143 -0.2684079125412531 -0.4199587365986467 0.01151542603987441
0.009351132767919374 0.1720181492928768 -0.29976132841783537 0.028598393597669677 -0.19705374390665242 -0.27500188745500215 0.06800923943821578 0.2997383665251036
0.2217112259657758 0.004797189008671937 -0.20476326665925418 0.25010637899920557 -0.17493643814323023 0.21205957411710688 0.07548220638223863 -0.14992691960818808
-0.2853028538616749 0.03579694670219861 0.3636791804539209 -0.23832594369799215 -0.30058327951186253 0.046416726321832295 0.32471866411967276 -0.03781573368293768
-0.2007724439297885 -0.29597229434494293 -0.06305750632294532 -0.12936538875970696 -0.3180540017782399 0.0714815312375852 -0.1309023279995854 0.1942485813839695
-0.1331994915644614 0.48856946776465476 0.10527459433492231 -0.005580800222704581 -0.06752703733478654 0.013340875087028487 -0.17800716769682895 0.10013488227496202
0.43803243844296474 0.027484914081242973 0.10432965443877747 0.008318480332681927 -0.16110500946898706 -0.03859603730234548 -0.32571721269307874 0.2862958869112519
0.09976026420589039 0.18317296189296273 -0.04162157118474808 0.2895272836292929 0.09236266182279265 0.18903696665538822 -0.11264656708740597 -0.24709238823105184
-0.25698140813418097 -0.33906938322296953 -0.04754147592137224 0.2149286030671583 -0.26339432243197664 0.07502229957571575 -0.049368101178137495 -0.13428688390203417
-0.26091050716485137 0.0011295785669651018 -0.19182680988468176 0.18261255493507553 0.21931128701230204 0.4593171698572435 -0.2920205962106626 -0.06008303724619856
0.01198375363829297 0.2016064521335121 0.163273581076817 0.19371795515073856 0.33916058450601394 0.1677052153473239 4.336844453414222e-05 -0.2270825878901015
-0.13645089594411736 0.12399113519237565 -0.1115794094271169 -0.41001143289790953 -0.007738943878583418 -0.026081861872660327 -0.04033472211591504 0.023629938619233466
0.2699239665883014 -0.30404925764175167 0.015984219021816782 -0.101022378252066 -0.12429535858635085 0.07818166394472092 0.008823214148042905 0.5098712965692402
0.061209044720296285 -0.505369400320339 0.13879577454822117 -0.28545349751661225 0.060245939284115944 -0.1384620527484491 0.2961099066866853 0.13994108791968243
0.054952423503830665 -0.28304760264182416 0.06569635544487881 -0.003331320107147432 -0.2068362178122575 -0.25593468421962334 0.10056412868014963 -0.2037764955621954
-0.1913259110034711 0.030972873863010734 0.2966974899467507 -0.25593341913288536 -0.2543420278136574 -0.09239758164429654 0.4806472103602263 -0.13326870514383038
0.09530693416976972 0.016305827187672067 -0.3051292782625673 0.052203203407048676 0.021640763604502598 -0.2729549069897127 0.045122389576340946 0.3836306087544829
0.41788789998207815 0.04606511139974304 -0.34967025541611624 0.09586850862162229 -0.0348185481306795 -0.045679381685829454 -0.1217173538715856 0.14869363583615336
0.4063775139854394 0.0641249079529311 0.07940778468451544 0.012599416769873613 -0.06177366004457102 -0.01954649220711952 -0.16928650717658714 0.4686925906261595
-0.05060799314664704 -0.00148747632393337 -0.10337612714491795 0.3644298051311398 0.056447646951182755 0.2526055940560401 0.0282182269265786 0.004884269356112561
0.10617268812190649 -0.2195174878381518 0.14282299514452393 -0.33216347183958916 0.308095801990464 0.12494175544814977 0.24255300482099648 0.08964789014076839
-0.38638029492342923 0.12052827575141278 -0.226073405879294 0.06883954757609938 0.18577186655731626 -0.22159213101003206 0.07033579387084032 -0.2138459345147773
0.022259301120446363 0.1107621596596523 -0.008786581798384173 -0.1038687739927379 0.14471192907329644 -0.13661158000357165 -0.06018180868389989 -0.36866384749027853
0.5082573259623868 -0.013057543908971878 0.242114558156407 -0.13283040518682185 -0.0683397840109063 -0.08516347349585211 0.14307727152167182 0.009915143584816608
0.4944448258374164 0.24453729239207755 -0.011357099297627344 -0.05718360723650795 0.06430499878836222 0.11087481008943684 -0.14799240300001343 -0.39376368996984024
-0.04391381179856828 0.07585439439971788 -0.27789668202437373 -0.0015672067636858834 -0.33265072569388526 0.056000192788228924 0.1657349586865002 0.2133399336956019
-0.11139438175760505 -0.00503051905444929 0.26201790116295176 0.4824437304038117 -0.3659446030741329 -0.015779309034290433 0.03843766688854915 0.19399259109229428
-0.2279587743016122 0.037753377794325256 -0.003280547542883009 0.35707286924146575 0.18386819926846554 0.21587640409781736 0.1015904215059726 -0.4152245526930363
0.03786962686023682 0.2791307466232788 0.1115695687167393 -0.35414467180017833 0.24895371852669732 -0.24393730230773747 0.23805258113123162 -0.28906907268453913
0.19945684862260932 -0.13465413004582474 -0.2768083794987385 -0.08555652065545438 0.07500403740148531 -0.2171161940539466 -0.1841397203994298 0.10438323032648737

n_convs.0.bias f8 [32]
00000000: 6935 ebcf 71d1 a83f eb69 caac 3ce4 b13f
00000010: faff 08f1 02df adbf 6036 451a 679b c3bf
00000020: 7149 db29 3868 aebf bbf8 548c c7df ae3f
00000030: 5792 6949 cdf3 9dbf 9dfe 391e e4bb c0bf
00000040: f13a 56e0 4f4d b0bf 0aba 1e80 e417 a43f
00000050: 1492 6334 6cc3 b43f bf9a cf16 c516 c2bf
00000060: bf52 737d 92de c4bf 6cd6 bd19 4348 a6bf
00000070: 9b20 9cf6 03ed abbf 4b7b 789e d06a b7bf
00000080: c79e 156b 27a9 bfbf 673b 6c05 f900 b7bf
00000090: 6975 9c29 8edb c2bf 6fb6 cb4f 326c c1bf
000000a0: 4def 4a4b 28d7 a4bf 1853 8a65 cf63 aa3f
000000b0: 7bc7 5a39 0b29 bebf ff57 ea89 15f5 a6bf
000000c0: 3d4c d902 174d 733f e36d 38c1 316c c03f
000000d0: dc91 e1cd 6292 a2bf 3e35 25f8 e403 993f
000000e0: e6bc 61d1 2b3c b33f 6bc5 34a8 8954 a33f
000000f0: 6901 4219 a049 86bf d58f 75dd e73e a03f
0.04847293532439318 0.06988887041590146 -0.05834206764529877 -0.15318001539928883 -0.059388880834052034 0.06030105197940957 -0.029250342946755072 -0.13073398090272273
-0.06367968775723988 0.03924478591885723 0.08110691336657566 -0.14131988157097017 -0.16304236531745706 -0.04352006615856116 -0.05454265962004109 -0.09147361630355737
-0.12367483486525109 -0.08985859281913876 -0.1473252967052006 -0.13611439605977035 -0.04070402068233978 0.051542740960178246 -0.11781377935656494 -0.044838593564392674
0.0047121905204959265 0.12830182966796064 -0.03627308619687472 0.024428918500509093 0.07513688909397195 0.03775434664056373 -0.01088261677819054 0.03172993257865612

n_convs.1.weight f8 [64, 32, 5]
00000000: bf23 388d 400e cabf a822 7f7b efbc c9bf
00000010: b677 b6f8 c93a b4bf 9913 7285 98cc 7e3f
00000020: eb21 4a90 780d 8a3f 2bec ad4a d7f6 80bf
00000030: f7a7 d68d 5e62 b4bf f560 780a 70d9 923f
00000040: 2b30 a1e5 f1f2 923f ef7e 4dea 223d 7d3f
00000050: b2ec 6dc8 71f2 a8bf 0961 e764 e3cf 9cbf
00000060: 69c0 aea5 68cb 833f dfb4 45fc c0f9 643f
00000070: 4a0e c11c b476 7b3f 32eb 1c68 83cc b0bf
00000080: 9d25 4139 eea3 c5bf 1074 d367 bfea a03f
00000090: 0742 a209 40b1 9b3f be0e 8d73 7058 763f
000000a0: 49fc 697f a69f 83bf de4f 8f13 fc3b 973f
000000b0: 68a5 f2b5 800e 963f 3110 d5c2 0c9c 9ebf
000000c0: f9c8 49d8 9b63 acbf 2ae0 f09a d6d5 933f
000000d0: 9c17 6fb5 ed65 b8bf 1994 212f fd94 763f
000000e0: 24ce 3753 ff68 823f de93 ec3f 5d73 57bf
000000f0: d5c0 7d92 df85 38bf 239e ce2f eb3d c0bf
00000100: 6889 ac7f e21a 7dbf 07cf 7f2d 8800 643f
00000110: 958a 684b 4a56 893f e499 3cd7 02d3 a3bf
00000120: 4482 9051 e0ef ab3f 3773 22d6 0ecb 923f
00000130: 6e6e 41e7 0b1a b2bf 9607 ec21 b8c5 97bf
00000140: 0655 ef5f b3d7 cabf 472e 59af 5167 cebf
00000150: 2f54 ea6e 8ccf 9fbf 576b 0fed 1164 8a3f
00000160: b807 5469 7e3c 8c3f a7af 6ed4 b63b 773f
00000170: be37 c2da 131b c0bf b251 c135 8b69 91bf
00000180: 8a23 eea8 58bd 68bf 4ffc f28a 5256 903f
00000190: 6b9d 7be9 9ead 733f ccb6 5f4c 51f5 b0bf
000001a0: ddfc afb2 89e9 8b3f aa3c 86a2 6baf 843f
000001b0: 7402 564d 5071 85bf 9e7d a598 6e97 c2bf
000001c0: c059 9429 3f22 c3bf dede ec10 6e6e 903f
000001d0: bed7 5ee1 63ba 713f 7cf2 d749 5c56 9ebf
000001e0: 836b 42d7 ea16 c6bf e267 abe2 ace2 89bf
000001f0: c8f9 d0bd 2b09 973f 9d5a 43a1 2b2a 87bf
00000200: 9a70 570c 0c75 863f 2701 7d55 92e2 843f
00000210: e931 e53b 05e4 bdbf 2725 5237 b32f 7abf
00000220: 0ca8 3088 0685 723f 1c52 2a8c 863c 703f
00000230: 6475 7c36 dda5 ac3f c5b2 c306 c6a1 923f
00000240: 43b6 e0b5 65ea a2bf 757f 08de f11b 893f
00000250: c4b8 f42d d198 7c3f 90af e66d de14 933f
00000260: 8b25 14ca dbd8 9fbf f33d f646 0345 c7bf
00000270: fa94 7894 ca10 a2bf eef0 6f92 1bc7 893f
00000280: ac23 bb95 3a3b a23f 6e0b d162 bd8d 623f
00000290: e8a9 e016 1795 b1bf 6183 5b2d 186f 53bf
000002a0: 59a9 c080 26d1 98bf e245 6c89 4e00 c0bf
000002b0: bbed a56e 1c34 7b3f 9632 a986 edc1 503f
000002c0: a2d0 fa94 40fb 883f 6fb0 bb1f 0508 56bf
000002d0: 8d50 7394 34ec 8bbf b512 15c4 88e4 b1bf
000002e0: 8e05 6ce4 64e6 513f aa37 e8be b461 823f
000002f0: 3bea 810c 590c 843f d0c2 6e49 19e8 ad3f
00000300: 5a5b 8de3 75fc a33f 1b40 8f5f 26ed a33f
00000310: fb45 4feb 419d 863f e180 d7c8 a5e8 87bf
00000320: 7c2b 3872 44a7 9dbf 71a9 6fee 4c21 cabf
00000330: f751 2508 75fa 643f cfd4 87d4 4fc9 8c3f
00000340: a293 ee4b 3111 893f eed8 d72c f0d7 c1bf
00000350: 3af3 bab7 717d c9bf 7e4e c876 4215 94bf
00000360: d2b8 3b3f 98be 8d3f a22a bd56 17c9 813f
00000370: 6f7f 93fd e243 ae3f fcab 4b63 a921 babf
00000380: efa4 268e 671c 9d3f d5dc 6cc4 b890 9e3f
00000390: 1887 c1a8 175e 703f cca1 8aa2 549d 9d3f
000003a0: e67a d70a 5fda 903f 4d21 2b7a a1af b6bf
000003b0: 620c 53d5 90dc 94bf 5cea 56f9 18c5 7cbf
000003c0: f7fb ac9f 4bfc 843f f4b0 c765 d495 c0bf
000003d0: 9eb6 86df 0ee5 8f3f dde5 151c 5914 79bf
000003e0: 3387 009e 2c4e 863f ea16 9160 8b2a 8fbf
000003f0: 7936 209b 009d b3bf 6b1d 1bb5 9b98 913f
00000400: f849 fd65 f4a7 973f 68e0 768d fc6c 733f
00000410: d37c 6cf3 fd55 623f c987 ef10 c04b c0bf
00000420: c238 33a5 d35f 883f 9e46 8a90 f6cb 883f
00000430: 1b8e d08b 5a15 8e3f 89bb d410 d516 9abf
00000440: 0d32 95f0 ed01 c4bf b3ce 113e 2271 a1bf
00000450: ba80 bc19 0428 903f 90b4 6baf bb19 923f
00000460: 0680 cc4d f394 aabf 4a51 b200 bed6 b53f
00000470: 5c8d 7886 a6cf 933f a962 4e57 56e8 99bf
00000480: 5e4d ceda f95d a4bf 4e17 0e81 f1d2 953f
00000490: 7c17 5c81 f705 8abf db8c 1c65 1eaa c0bf
000004a0: af91 f559 7936 603f 45f0 d23a f3a0 6c3f
000004b0: ab34 80a2 94a9 c1bf afdf b90b a4f9 c5bf
000004c0: 8b76 d01b a99a 603f 659a 5b45 125c 983f
000004d0: 8146 04d6 14ac 753f 80cc f9a6 9a53 b6bf
000004e0: 4e37 9dc4 497e c3bf 4526 7e09 4d70 793f
000004f0: 8827 6afc 5029 943f c2c7 2387 0357 5fbf
00000500: a1a5 002d 7387 87bf 991e 4081 b151 c0bf
00000510: b5d9 f16c 57b3 a0bf 7dae e7e1 f70a 7abf
00000520: 26d1 7bdb a3e0 7fbf 3ed9 682c df34 76bf
00000530: 7732 4017 d87f 93bf 8c54 37ba c798 babf
00000540: fd1b df00 b606 b6bf 587e 8622 8975 853f
00000550: f87a fabd e840 9cbf 0ff7 2516 8b97 a33f
00000560: d93b 251d b381 bdbf 8c94 9781 4d82 953f
00000570: f76f 3494 1404 7fbf b599 5e57 db95 e03e
00000580: 81c4 a262 2111 55bf cfec c20e aff4 953f
00000590: aa8d a9fc f5cb 863f ce03 47b4 359a 7e3f
000005a0: d494 fe56 a25b 8e3f 00f2 0608 847f 80bf
000005b0: b864 9625 655a 813f 388c 556f 49e7 9b3f
000005c0: b768 b16b 5c67 883f 461d 061e bc16 833f
000005d0: 8481 d777 611c 903f 1a8d 91c4 5eb6 bfbf
000005e0: 5568 06a0 b2e3 673f 0d02 3f28 de42 793f
000005f0: 96f8 7d70 8d90 643f 0e0c bb91 3c75 943f
00000600: 69fd ec76 5baf 86bf ab68 2ef7 e98f c1bf
00000610: 8669 5ae4 99f7 513f c7c4 04a7 ebdb 91bf
00000620: d6c8 c979 909c 503f 4f4a 9092 554c b2bf
00000630: 18bc 9da3 25d8 a03f e1ae 6131 a7fa 8a3f
00000640: f3b1 5119 5436 653f a0cb 1469 ed38 c1bf
00000650: d092 67aa 0bda b1bf cda5 e964 077b 873f
00000660: dd21 5e1c 7193 5c3f 1ee5 f49c a003 653f
00000670: 5e77 9a35 cea6 963f b660 2973 b2d4 87bf
00000680: a5ae f883 75dc 793f 8f1b 9d32 9d4b 693f
00000690: 63e4 6d61 5663 87bf 2aa5 7a3a 32b9 97bf
000006a0: f6f6 6ce3 a19b 883f 0b2a 9862 e5f3 bebf
000006b0: a770 f5bf fd8d 843f 16cb cc99 7f81 813f
000006c0: e000 d504 f9c2 9cbf 4fde e8e1 b8a1 993f
000006d0: c935 c087 713e 7c3f c57e ce8e e276 7abf
000006e0: 8d8d 6540 73cf a1bf 797f 634e c456 96bf
000006f0: 1ffc ba43 dc99 babf 80d3 a493 c3d2 6abf
00000700: a668 7f97 72a1 87bf fb11 f859 ce56 733f
00000710: 2243 4767 e6df 913f 6654 ef7c fce1 a8bf
00000720: e88b 8081 1c41 50bf 1029 32d9 b626 7a3f
00000730: b542 9cbb 620a 7b3f 7d82 d361 a7d8 bdbf
00000740: f5a9 d728 e2b8 9a3f 5b11 cdc6 2ec3 bdbf
00000750: 919f c4f3 b146 8d3f 2077 b962 1880 96bf
00000760: a08f d817 8567 b9bf 6630 595a 4030 7c3f
00000770: c983 901c 2f24 c0bf 7c85 9668 45d3 7ebf
00000780: 85d4 6d66 fcb2 973f be32 4dc9 070c b8bf
00000790: f416 779e ca7a 9f3f 2031 b40e fc51 65bf
000007a0: 3094 037b 75c6 64bf f9e3 08b9 5b79 913f
000007b0: 06dd 00a2 fcfe b7bf abca dd2e dcc7 b5bf
000007c0: 142d 0aaa 2033 963f f7f3 f5a8 7280 453f
000007d0: 99e8 0a2b 6a09 69bf 4d74 def7 ad6f 993f
000007e0: d397 7a55 879e 9d3f 9482 b6a9 f119 7a3f
000007f0: 48d7 21f2 0247 7a3f 36e2 32f3 2134 403f
-0.20355994124864016 -0.20107835321529888 -0.07902204820717781 0.007519336496561468 0.012721006301277668 -0.00828331181195637 -0.07962599718908324 0.0184075838461419
0.01850488628433326 0.0071383823277242206 -0.04872470447204459 -0.028136780770950973 0.009665315204842 0.002560498165783728 0.00670500141501724 -0.06562062541790395
-0.16906526370648303 0.03304098265082456 0.02704334315109416 0.0054554360038456245 -0.0095818526872319 0.022689760869823654 0.021539698701109528 -0.029892157928103017
-0.05544745459782691 0.01937041588482217 -0.09530530623950856 0.005513180733122369 0.008989329077826964 -0.0014313135759007538 -0.0003741904097216535 -0.12688960871058538
-0.007105717430734827 0.00244165990079093 0.012371616770058306 -0.038719261907590924 0.05456448550853968 0.01835272962545106 -0.0707099380101057 -0.023215176649507528
-0.20970766243286948 -0.23752804815227277 -0.031065172452674424 0.012886180922512187 0.013787257756579283 0.005672182253800096 -0.12582634145331711 -0.017004180103258278
-0.0030199748648027146 0.015954293947967376 0.004804249525228381 -0.06624324907871965 0.013629031911476403 0.010100212952947569 -0.010470034942728669 -0.14524633840026707
-0.14948262720345262 0.01604625681213078 0.004328146131163222 -0.02962631416993354 -0.17257438193049887 -0.012639380137830562 0.022495921574085448 -0.011310902460917755
0.010965437056192951 0.010197776063819731 -0.11676056587493346 -0.006393146574859266 0.004521394267650091 0.003963971687558156 0.05595294275392851 0.01819524208342462
-0.036944559528234076 0.012260331715026255 0.006981675250513134 0.01863429590018445 -0.031100687226204776 -0.18179360356269533 -0.03528435766592426 0.012586799055491284
0.03560813024302631 0.0022648524232250977 -0.06868118580374694 -0.0011861549477815913 -0.024235345467027745 -0.12500936231712872 0.006641493857724108 0.0010227984991103881
0.01219797567987541 -0.0013446855581902525 -0.013634119778011456 -0.06989340579191146 0.0010925278926950696 0.008975421978018112 0.009789176649282463 0.05841139813799645
0.039035495784154065 0.0389186851167553 0.011042132371502858 -0.011674208823876988 -0.02895838687076545 -0.20414125101462902 0.0025608335283016054 0.014055846856516755
0.012239823465117376 -0.13940241040808793 -0.19914075347142007 -0.019612349033265357 0.014523686818816026 0.008684332212984206 0.05911168427860402 -0.10207613634308638
0.028428667117315006 0.029848944653363702 0.003995983523141587 0.028920481129405748 0.01645802024529077 -0.08861741287831144 -0.020372641582764202 -0.0070239043756666585
0.010246840296188593 -0.129572438905036 0.015573612400511746 -0.006122921070863066 0.010891293117370892 -0.015217865833743589 -0.07661441600085962 0.01718371670611189
0.023101633763255663 0.004742609532904486 0.002238269803811124 -0.12731171442925263 0.011901525000578398 0.01210777882195951 0.014689166442685189 -0.025477723266870398
-0.15630888220984254 -0.03406626708684026 0.01577764899332188 0.01767628915961389 -0.051917651411940866 0.08530795590406118 0.01934681125397951 -0.025300358847376945
-0.03977947994203633 0.021312497617621155 -0.01270669330143525 -0.13019161164365908 0.0019791002411457463 0.003494715746084539 -0.13798768934831193 -0.1716809327369879
0.0020268729117692333 0.023788724406495727 0.005291062727580732 -0.08721319748456047 -0.15229150867747382 0.006210614133928487 0.019688859373253403 -0.0019128355457351674
-0.011488818941944258 -0.12749308405931428 -0.032618267105977074 -0.006358116427218283 -0.007782592838101265 -0.005421516200433905 -0.019042374056925184 -0.1038937406186326
-0.08603990098264087 0.01047808777440122 -0.027591358752597522 0.038265558675432236 -0.11526030980642989 0.021004878077196795 -0.007572250734735767 7.908524576394395e-06
-0.0012858224895746786 0.021441207195249497 0.011131212018148446 0.00747128465849385 0.014823215751514608 -0.008055716986626216 0.008473196229532895 0.02724947683362819
0.011915895496873536 0.009320707002884131 0.015733263911785325 -0.12387649821316807 0.002916191937584004 0.006167285729987271 0.0025103342522348566 0.019978472132390172
-0.011076654974771132 -0.13720440453909552 0.0010966303683860048 -0.01744049269581607 0.0010138903518535545 -0.07147726848806112 0.03289907095210526 0.013173395342355789
0.0025893824154563593 -0.13454978590888533 -0.06973336134212649 0.011465127722845825 0.001744137248779968 0.0025652062392082084 0.022120687505427276 -0.011636156215147114
0.006313761754011137 0.0030878134029168123 -0.011419939850144617 -0.023167404956130934 0.012015595200519407 -0.1209090581616367 0.010036451740852504 0.008547779923536985
-0.028087511939930532 0.02503098372309714 0.006895488240855349 -0.006461033813053245 -0.03478584443180486 -0.021815364155258508 -0.10391022351812794 -0.003274328218277167
-0.011538405655233962 0.004721456585234036 0.01745567326890119 -0.048599138499107394 -0.0009920862557997127 0.006384577037474651 0.006601701426703845 -0.1165871251901169
0.02609589933664754 -0.11625950196782268 0.014294996501646813 -0.021973019624389356 -0.09923583824325855 0.006881953600508783 -0.1261042489504958 -0.007525702597747649
0.023143714668056 -0.09393356957043417 0.030741849824855685 -0.0026025698658768276 -0.0025360388318511826 0.017064507645248004 -0.0937345405117079 -0.08508087295721604
0.021679411295321208 0.000656181322412074 -0.0030562471004858646 0.024840086225243408 0.028925051300255532 0.0063723983725202556 0.006415378100532561 0.0004944959422550968

n_convs.1.bias f8 [64]
00000000: f693 36a1 24aa a83f aea5 0b8c 540a c13f
00000010: eb05 395e 9e5d a73f e97b 2d7f bd8c 9d3f
00000020: f203 d0e7 50cd b63f f239 c6da f626 b93f
00000030: b3ea 7676 e542 ba3f 2400 9de9 275e a63f
00000040: 16cd 486a fd97 993f 2151 21d3 6d17 a43f
00000050: 8b4f 1a62 c2fa b33f 2cea f849 1688 9d3f
00000060: bbf3 7809 76ac bc3f a482 0d09 a0c3 b73f
00000070: 7363 8360 22fa a1bf 7290 d46a f521 b83f
00000080: f5ab 14cd 6a66 ba3f a77f 64bf 32dd c03f
00000090: f070 57fc 1778 c43f 89e9 337d 4407 be3f
000000a0: 8d9f c2d7 d886 c23f 70de f7b5 cda5 b13f
000000b0: 9284 bce1 ed76 a83f 4171 bf10 0f41 b23f
000000c0: 32a6 a5b3 8659 a03f a26d bda3 e0d4 c03f
000000d0: f735 5ee9 b438 a33f ea60 e801 fa2f a53f
000000e0: ee5e 7608 1c40 a53f e614 76e9 4ca7 b63f
000000f0: 1628 56bf 7045 a53f 2bf6 0244 b981 bc3f
00000100: 8d74 bfdf f124 c03f ff16 c0a6 d641 9d3f
00000110: 0116 3ca5 ba6c a63f cf4e 57d2 fd9b b83f
00000120: 2de0 6b63 9847 c23f 43c5 31b5 4ef9 ba3f
00000130: a226 efeb edc0 c03f 6937 8ca6 4c76 a73f
00000140: b3c4 2f55 94e5 ab3f dee3 22ad 0aa9 b23f
00000150: 163e 21f5 bdfc b23f 1b71 079b 5998 be3f
00000160: 47ab d452 376b 9d3f b18b bb41 5693 b1bf
00000170: 4931 692c 2273 b63f 20d2 297d a666 bb3f
00000180: 48af 8a03 2d19 b13f 62ee 1279 3ae3 813f
00000190: bf8f b0ba 68f9 7c3f afd3 e2c1 c836 b53f
000001a0: 5d71 58b4 6800 b63f dba8 9d76 d307 c23f
000001b0: cefe 79ba 9055 b93f 6975 105d e6e8 653f
000001c0: 20fe f085 aeb6 b03f 4563 e1a3 7895 b13f
000001d0: ea30 1a0c 9591 b53f 098d 1b32 2db9 b93f
000001e0: 77ec 1116 1b3d b63f 8f72 df73 1fec b13f
000001f0: 7065 2a00 8ca3 8bbf ec98 6d9a 3b12 b23f
0.04817308872160446 0.1331277545753386 0.04563612842731487 0.028857193839367943 0.08907037410246213 0.09825079766435588 0.10258325712394871 0.04368710257267619
0.024993857967456533 0.03924124910614269 0.07804503340804396 0.02883944345942717 0.11200654727231456 0.09282875271811492 -0.03511149814739314 0.09426816805040675
0.10312526232580395 0.13175043435421438 0.15991496869435862 0.1172983937903266 0.14474020514648736 0.0689362115152734 0.04778235798426879 0.07130521925814028
0.03193303053815234 0.1314965056907172 0.03754201267939188 0.041381657345654535 0.041504741700178246 0.08849030208337502 0.04154541335726962 0.11135442648352327
0.12612746644200393 0.02857146637690899 0.04379828707719114 0.09613024125365686 0.1428099141555789 0.10536662982646754 0.13088773746703902 0.045824427919895445
0.05448592700839452 0.07289187170944397 0.07416903719535414 0.11951217684640307 0.028729309492671076 -0.06865443329620181 0.08769429764033022 0.10703506999727397
0.06679040276020232 0.00873418504703877 0.0070737925516687885 0.08286719068094216 0.08594374087301078 0.14086383144178324 0.09896187355661398 0.0026745318687192887
0.06528750200322309 0.06868700028406945 0.0842526583239224 0.10048181985216699 0.0868699005967971 0.07000919894148637 -0.013495534663251901 0.07059071083276408
