model_checkpoints/ep_seq_linear_1.pth (torch, 2327 bytes, 6 tensors)

y_linear.weight f8 [1, 10]
0	0xbfa1b9528641b1b0	-0.03461702240824438
1	0xbfb625cb0baf2b57	-0.08651417765865453
2	0x3fa4a02d02efd10a	0.040284544571394035
3	0xbfadd8118f91f475	-0.05828909757199422
4	0xbfac282b07154b4e	-0.054993958105703386
5	0xbfce3ab3c322b5df	-0.23616644886116853
6	0xbfa602230be0aa29	-0.04298505325308028
7	0xbfb2be115b947ba9	-0.0732127045234693
8	0x3fae6411150cf855	0.059357198543225444
9	0xbf9c1050227603ac	-0.027405979255039334

y_linear.bias f8 [1]
0	0xbfd71e71ef6b58b9	-0.36123321896355837

n_linear.weight f8 [1, 4]
0	0xbfea0b531d7aab3c	-0.8138824058308738
1	0xbff5d2de0f420e87	-1.3639813037888489
2	0xbfe4e1be27f88dc2	-0.6525564938241859
3	0x3fe044aecf4e3e09	0.5083841370523611

n_linear.bias f8 [1]
0	0xbfc2fac3ba3767d0	-0.1482777270564939

final_linear.weight f8 [1, 2]
0	0x3fdca4ae7cac889f	0.4475513665694368
1	0xbfef0f42d58905dc	-0.9706129236803309

final_linear.bias f8 [1]
0	0xbfd9411eef7291bc	-0.394599660716519
