model_checkpoints/lstm_1.pth (torch, 18836 bytes, 8 tensors)

lstm.weight_ih_l0 f8 [64, 14]
00000000: f96a d27e 1d41 b6bf ea87 4bb1 fa42 913f
00000010: 6aa7 53c5 6cf3 a3bf a786 8d0a 0862 973f
00000020: 2dfc d4b8 487f b03f 93d4 eb6a 23bd c4bf
00000030: 3684 81b9 3eee babf 0d69 ec77 7b0b c43f
00000040: d69d 6257 36cb c9bf 2280 9e4b 0c25 c8bf
00000050: 377e 9f0f 2d85 c93f e6e1 802f 8623 dbbf
00000060: 8b27 d07b ee3e f6bf c506 a912 8d28 f53f
00000070: cbab c456 d9d2 9abf f6b4 7d98 af8f c43f
00000080: fdad dcb7 a6a7 a53f 51cc 4614 6aa2 b3bf
00000090: 34a7 a911 ecd3 8dbf da3b 326f e001 a4bf
000000a0: fd4b 719b a26d b0bf 318d b8b9 5519 b3bf
000000b0: 7aed ff10 9efe 8abf b429 a157 538e 0ac0
000000c0: e50b 6229 2ecd eb3f ea9f 736e c1ed d93f
000000d0: 6199 1c0d 9490 d43f 5048 bfc8 77d7 e4bf
000000e0: b6d1 ddc5 3340 9dbf d1e0 b551 acd6 b5bf
000000f0: c9eb 305c 4c9a c23f 14d0 5a37 6465 983f
00000100: 7dff 9f81 a463 9b3f 36b5 27de fc03 bcbf
00000110: 30b8 f65d 7bc9 bdbf e192 b45e fb18 b1bf
00000120: 56f7 a63c ad3e ce3f 18c5 495b 77bc e1bf
00000130: 01fb 482c 41fb ed3f 13b5 7b1b 56d7 e4bf
00000140: 11b9 c769 40a4 b73f 36b0 86fe 546f df3f
00000150: dd66 d134 605e 913f 743a 87d1 3ec4 a6bf
00000160: 78a3 7771 65ad 82bf 30f2 b0c8 fa1f a6bf
00000170: be21 2713 2374 9e3f 6684 5031 c7d9 9b3f
00000180: 86da 7f05 5739 88bf 234e c57f 43ee 77bf
00000190: 8ecf 232a cc7e 8cbf b1e0 9a43 9144 c6bf
000001a0: 4e0f 23ef 4ca3 e43f 4477 dc98 f9e8 e3bf
000001b0: d909 96a7 a0f9 99bf 916f 8d5b 9480 d03f
000001c0: f81c 1dc6 acf8 a93f 5acc 940f 7c21 abbf
000001d0: d750 11cd 3662 b23f 5e53 fe94 271b 8b3f
000001e0: d1c0 46f1 91f9 85bf bd60 2945 17a5 b3bf
000001f0: cae8 621e 94d0 98bf 3782 b983 0993 5dbf
00000200: 1396 b0bb c69f c03f f0ca 290c dba4 d9bf
00000210: a9b3 b8b8 914b b73f e554 f7af 1346 ba3f
00000220: 4ac0 3bc3 edc4 e6bf d011 e745 9b21 f23f
00000230: 8a76 d884 30e3 693f 41fd e65e c9ff c0bf
00000240: 6790 f56c 9e32 ac3f a8b8 e636 2592 a03f
00000250: 818d 463a 8732 a53f 6350 bf93 b53c 903f
00000260: 6eab bd56 0919 b0bf 6d79 a674 28a5 dc3f
00000270: 8eb5 aebb b53b c73f c2e7 2955 3a42 e6bf
00000280: 4038 05a0 5bc0 c4bf bada c8d1 2780 b13f
00000290: 90d2 c2be 0b72 dc3f 004d e3f6 5bf6 c9bf
000002a0: 92ce 10a1 25af 9b3f 689f d0f1 c45d 9e3f
000002b0: 52fb 7afb ef66 95bf f712 c1d9 e9e5 a5bf
000002c0: f838 f0f5 e3d6 843f 8d16 e171 d008 9ebf
000002d0: 5af1 6ee5 eab1 a73f 55ae 3198 c338 cc3f
000002e0: d92c b534 3886 aabf 81f2 f8b5 11f3 f13f
000002f0: f700 2bc8 ad1c f4bf eedc 4da8 c633 c63f
00000300: 9d77 1f29 6ba2 aabf 75fb 96b2 3cd0 0140
00000310: 8eec 4a72 218c 8cbf 33d2 3711 f59d b53f
00000320: f965 06d2 7f62 b6bf 35f7 67a3 2315 9cbf
00000330: 9576 b32b 51b0 be3f 3098 ae3d abc5 8ebf
00000340: b357 cfbf 5520 a9bf 27cb 9b95 2a1a 98bf
00000350: 1a52 6996 78bc b5bf a876 13a3 bdb6 f9bf
00000360: 1ff7 3802 ba77 bbbf a74a e3a2 a5a6 e23f
00000370: bdb2 3970 ed93 bebf 6b86 4a90 469f c43f
00000380: 8772 4450 cfa4 c1bf b52d 5aed 7f05 803f
00000390: 6b6c 2d18 35e6 97bf 4ea7 ac5c f621 c1bf
000003a0: 8b91 9756 27f4 ad3f 8186 e1eb 4191 d33f
000003b0: 6ded 33b6 07db 92bf df32 7d6d 5cd5 ae3f
000003c0: b309 8ba7 6983 c1bf 8a94 2ef5 2f2c e2bf
000003d0: 84a6 d88a 0286 d63f 8a7f 8283 81de b13f
000003e0: 6778 b7d3 2869 b03f 36be 00f2 eeb0 d83f
000003f0: 06a8 4a57 19d3 c03f ec09 65c3 65cc 9e3f
00000400: 2fbc 9962 f920 633f 9343 bc55 bc1b 8e3f
00000410: fd77 e8f2 3f6f ca3f 1294 7099 18e6 bc3f
00000420: 1549 2113 82b1 c8bf f6a3 866e f194 acbf
00000430: 4cb9 d50e 0ea3 c3bf 340e f51e 5f94 c8bf
00000440: b550 e5a2 e764 acbf 6fae d0ac 8e41 9ebf
00000450: e403 4d3a dd15 d23f 6ab8 2cee 2524 d33f
00000460: 79a0 25c5 c990 8f3f d8b2 e667 130f 9c3f
00000470: fe92 afca d482 b6bf 6eb5 dea9 b570 b3bf
00000480: 112f b3fd ea2d 833f 8307 238a 179a 743f
00000490: 9e42 0a62 8096 8abf a7a7 5a22 f01f bbbf
000004a0: 1003 32f5 aa9d 96bf 2d67 3a2d fbf2 f63f
000004b0: e31d 1213 9b47 c63f 3c8a 6ca6 b56b d1bf
000004c0: b307 938d 408f e6bf e179 2923 e413 c43f
000004d0: 8c13 9643 4108 c9bf ffe3 e196 e4f9 bbbf
000004e0: 67c0 2c7b c6d6 b03f a624 2ead ab8d cc3f
000004f0: 904e 818c 4f4f c7bf 753f 21e1 1959 b4bf
00000500: ec35 58e1 64b6 8b3f efeb 0947 cc2b bd3f
00000510: ab46 0f0c 38f7 d63f fb4b 3866 007f c4bf
00000520: cda4 bf5d 0611 b43f 3952 257e 4a37 cdbf
00000530: 0e04 02ca 2cbe b73f f7d1 b967 a70b da3f
00000540: f2e5 5903 db98 aabf 0614 6799 6f98 8cbf
00000550: 1808 38ce b945 61bf 8673 d092 fbd8 993f
00000560: 4990 4ccb 0b8b a2bf 613d fcbb 001c b2bf
00000570: 5884 fb4d a11c a9bf a07e 3316 5ec7 b0bf
00000580: 0cba fa62 1fb4 cabf e8dd 1ae8 ca14 da3f
00000590: 057e 8514 0777 e63f 8bd3 bf60 3e91 c1bf
000005a0: b17d 941b 2b43 d73f 15cc 09dd 4a7b e23f
000005b0: 826b 8b16 930d 9bbf 377f 644f 9b0c a93f
000005c0: 53cd 8ee1 d22a a73f 048c ca3d a7a1 923f
000005d0: ddf5 405b d3c9 a4bf 7085 4c91 a687 a1bf
000005e0: c54c 92b5 261e 813f 9a90 6d5b f6df 9f3f
000005f0: 40f8 46c3 8f39 b8bf 4e8f f4a1 76a9 b0bf
00000600: c814 61d7 5a78 cfbf 0b61 0efc 9936 a33f
00000610: ba2d ed33 0015 e2bf 4f1a 1fe7 00cf e43f
00000620: e942 eee5 6246 963f ce00 1ef2 09c2 893f
00000630: d824 15c4 456b b73f 2f87 2059 2488 aabf
00000640: 95e3 2911 ceb6 b6bf 79b8 7719 eeec abbf
00000650: bd4f 19db d60b a23f ca30 2296 dedd 7c3f
00000660: 3fc6 569b 42e4 b83f d14c 3d34 f07e d13f
00000670: b977 1e06 7128 d8bf 54a4 e86c 18bf f33f
00000680: 7546 127d ff61 e9bf 80a1 0c6c f0cd f93f
00000690: 057d 9c3e dcd5 b1bf abe1 4bb9 7cb8 c7bf
000006a0: 70ea 776c 873d c73f 5a31 6d31 4897 a93f
000006b0: 4492 a3db 4d9c b5bf 2901 5a1b 99ae b03f
000006c0: 1c29 fbea 0ce9 97bf 490b c5d4 2602 953f
000006d0: 34e6 7e7b dc53 ba3f d04f 3889 063d d53f
000006e0: f9d4 5a1d 40e7 d63f 9b9f e1cd b171 cfbf
000006f0: 004a 4c89 c5ea b0bf bfc3 2fde 5940 b8bf
00000700: f584 60d7 f2b5 a43f 6ba3 509e db60 93bf
00000710: c07a 4f8e 4bd4 b03f 8563 d407 28e6 7c3f
00000720: 2225 98f3 ee58 8bbf 0e09 0bc3 8823 bf3f
00000730: 083d 093d 2a0e a73f bf30 544d ed26 b53f
00000740: bcc4 4981 84dd 93bf 6df5 6fc1 fcf3 a93f
00000750: 2d6e 25fc 5333 c23f 763e 869b 9774 e2bf
00000760: 45f9 8706 486a c93f 05b0 3417 ee00 ca3f
00000770: d3f2 afd7 baf4 9a3f 90ec 8fcc a510 a83f
00000780: 258c 1a69 d2b5 babf 39f0 ca76 bac5 68bf
00000790: fb9c f447 c990 b03f f847 1649 6f77 b1bf
000007a0: 3d3e 4e47 ab11 aebf d0cf 41ec 115d 7cbf
000007b0: 8116 bb5b d631 be3f 521c 29b4 58c4 84bf
000007c0: cc5b 0a74 1fe8 d93f b440 aaca 922d c23f
000007d0: ee08 b9fe 9fae f8bf 39d1 2843 d8ae b0bf
000007e0: 27f9 9b27 d2dd a1bf 89f5 f647 8a48 8dbf
000007f0: e67b dba6 bd39 9d3f 27b8 a0cd 1fdf b2bf
-0.08693107935179602 0.016857068129759435 -0.03896655949377144 0.022834897655576693 0.06444220077990855 -0.16202204437982867 -0.10519783047631467 0.15660041194571087
-0.2015140463529252 -0.18863061611500692 0.19937670958369022 -0.4240432227993821 -1.3903641544770575 1.3224001625934971 -0.026194950028336977 0.16063494630672154
0.042294702476592484 -0.07669699664147457 -0.014564365662596758 -0.0390768180596905 -0.06417290015205875 -0.07460532936288612 -0.01318095673922558 -3.319494900327493
0.8687964256536104 0.4051364496831399 0.32132436066094355 -0.6513022347301192 -0.02856522460156593 -0.08530690188297575 0.14533380986708114 0.0238242777620173
0.026747293864900257 -0.10943584846218787 -0.1163556198505098 -0.06678744375364999 0.2362877412942292 -0.5542561324092814 0.9369207253401727 -0.6512861763746137
0.09235003073238014 0.49117016655032175 0.016961577628854186 -0.044465983464410025 -0.009119789624451022 -0.043212735174595784 0.029739902538297384 0.027197945008201073
-0.01182811723263667 -0.005842460316063422 -0.013913722072608239 -0.173967512140512 0.6449341459888076 -0.6221893296785557 -0.02536631605972581 0.2578478712146018
0.05072536390667354 -0.05298984232140276 0.07181112772497343 0.013235387072009604 -0.010729923415823713 -0.07673783720508971 -0.024233164171825895 -0.0018050759234925615
0.12987598576107526 -0.4006869906217352 0.09099684486200367 0.10263178869293517 -0.7115391553070449 1.1332047205515785 0.0031600902209579272 -0.13280598768140275
0.055073691178024124 0.03236500067883813 0.04140112482425718 0.01585658754613951 -0.06288202636430437 0.44758044616346276 0.1815097013872386 -0.6955844558099147
-0.16212029756064972 0.06836174842542678 0.44446080807691946 -0.2028307872302335 0.027035320239703405 0.029654576548778705 -0.020900487636704775 -0.042769725638697347
0.010175496046965979 -0.02933049864829811 0.046279278285029604 0.22048230105734726 -0.05180526393322688 1.1218430622385827 -1.2570016688405852 0.1734550782964343
-0.05202040554989582 2.226678271515477 -0.013939153004107998 0.0844414870296724 -0.08744048001826589 -0.02742438969470769 0.11987788502616532 -0.015025461025128889
-0.04907482115201791 -0.023537316686041223 -0.08490708992150822 -1.6071144457013506 -0.10729563287983666 0.5828426534083818 -0.11944469442250756 0.16111070676292924
-0.13784209651284504 0.007822989874759803 -0.023339109039948996 -0.13384894871824787 0.05850336963684118 0.3057408145451533 -0.018413658614901452 0.06022156559501978
-0.13682289772812126 -0.5678939617834129 0.35192931708534325 0.06980142079055277 0.06410460633148461 0.3857991565045923 0.13144222986494486 0.03007658963293551
0.002335059242617919 0.014701339117466882 0.20652007447000634 0.11288598772132755 -0.192917117443877 -0.055823845617233234 -0.1534135410724481 -0.19202794086059927
-0.0554573427531592 -0.02954695634632148 0.28258448308412043 0.29908130892989127 0.015412880257557259 0.027401259628890923 -0.0879338259542912 -0.07593856236663551
0.009364925257976194 0.005029766036558916 -0.012982371322580118 -0.10595608557437562 -0.022085829940354407 1.4343215719913573 0.174060234367274 -0.2721990704759809
-0.7049868359683756 0.1568570300759822 -0.19556442070111435 -0.10928181346561415 0.06577721125791101 0.2230734439474748 -0.1821078716335376 -0.07948457475981548
0.013531482817621808 0.11394955381722104 0.3588390462656245 -0.16012578002172959 0.07838477886947999 -0.2282498470255108 0.09274558955986853 0.406961299223695
-0.05194744506747985 -0.013962623471238455 -0.002108443166208406 0.02524178584654948 -0.036217087332517446 -0.07073978986249109 -0.049046555299135874 -0.06554210702915464
-0.20862190564135152 0.40751907984255675 0.7020297432717945 -0.1372449848564908 0.3634746331535679 0.577550346103069 -0.026418970347417588 0.04892430633685623
0.04524859431640018 0.018194783350406155 -0.04060230721413991 -0.034238057362254604 0.008358290115472742 0.031127785997697367 -0.09462831990728748 -0.06508580640780545
-0.24586043850482597 0.037525951403212764 -0.5650635732831042 0.6502689851848319 0.02175287750611946 0.01257713098652893 0.09148059880421344 -0.05181993091561165
-0.08872688216241749 -0.05454200802692894 0.035246576543300524 0.007047528723102834 0.0972329739804758 0.2733726987982666 -0.37746835324821465 1.2341541532753313
-0.7932126467514552 1.612778112476093 -0.06966949966998832 -0.18531760261227012 0.1815652160292589 0.04998231509543656 -0.08441626179007594 0.06516415517581166
-0.02334995445452491 0.020516020523483367 0.10284212126762143 0.33184970283877835 0.3578644072216118 -0.24565718224334607 -0.06608233072282843 -0.09473191904522958
0.04045065764536019 -0.018924171006946915 0.06573936676384573 0.007055431718321685 -0.013353220757397258 0.12163595926088908 0.045029945326513554 0.08262522828971706
-0.019399710074541984 0.05068960057540548 0.14219140827013757 -0.5767324483476404 0.19855594939140012 0.20315338261696084 0.026324195303447716 0.04700201150986871
-0.10433688226707767 -0.0030239717364946264 0.06470926291204997 -0.06822867903090912 -0.058728554205228246 -0.006924695979353815 0.11794795741578847 -0.010140126226486999
0.4047926552970551 0.1420157899451674 -1.5426330518826563 -0.0651679195369227 -0.03489548429023364 -0.01429851562613284 0.028540576275982853 -0.07371710558138088

lstm.weight_hh_l0 f8 [64, 16]
00000000: a71b bc5c 790e d53f e8ea 78cd 83e8 d83f
00000010: 9262 7b6f b72e d13f b28b 6d52 2be8 c23f
00000020: d4e3 47e5 970a c43f 4c25 dcaa 6daf c43f
00000030: ebbe 23dd 2782 e7bf 52cb 6d93 fcbf b03f
00000040: b4b0 c9d2 26d3 c43f a0c7 666c becf ccbf
00000050: 3f6f ec0f d347 e0bf 1da3 2fb8 2a9c da3f
00000060: 4b73 3317 1a48 debf 140e 22e6 3c9e c33f
00000070: 00ea 5ad8 05af d33f 6920 bdc5 b413 da3f
00000080: 2809 4dad eafa c0bf b3b6 ed77 f87c b83f
00000090: a30f c9c6 b7e3 c43f 8096 c091 a2c7 f6bf
000000a0: b1c4 42bf b1b4 e33f 18fe ce48 f1da dcbf
000000b0: bb61 2da9 98d4 db3f d37f ab69 9f08 6fbf
000000c0: ad44 f1a3 65d7 c53f 8c50 37c0 e8f7 cdbf
000000d0: 576b 25e3 e82e f03f 01cb 3b2b 966d c4bf
000000e0: 89d4 8f05 6cf5 eabf 4a45 f293 8f4c df3f
000000f0: 09f5 5a34 d682 c13f f431 e210 4cb8 b3bf
00000100: d2c3 2dad ee52 cb3f 2cfd 2f73 f33c c3bf
00000110: 0ab9 0b75 2c74 ac3f 5f58 438e adba e43f
00000120: e6f6 0d4b bedd 91bf 69ce 8c04 6fb1 e23f
00000130: 471b 58ab 6f71 c73f b696 23cb d63c a13f
00000140: 94c9 d8d8 f776 c8bf 3d04 a346 98f9 b2bf
00000150: 97aa 24c5 34df e1bf e48b 7bc4 9330 c53f
00000160: 65e0 ce19 860a d1bf 94b7 8250 df69 c6bf
00000170: 10ef 930e b43f b3bf 562d 3f0e 4512 e43f
00000180: ef67 bd61 c720 c23f b36d a920 04dc e0bf
00000190: a016 175d aefd c93f 1228 e61a e1db b73f
000001a0: 8f27 d065 26ed b4bf d93e 85dc 5b1f d33f
000001b0: 6ae2 6bf8 3206 e9bf 8bab 8fc8 ad0e e8bf
000001c0: 5979 459d db4c ca3f e1fd b581 d6de b0bf
000001d0: 6057 5ea7 649f f03f 1fb0 c9fc 21f7 b33f
000001e0: 1b6e 3d1d 95a5 f1bf 1dd2 0b83 4b77 c03f
000001f0: 2123 ae84 60db e83f 4eaa 0d41 c67c ebbf
00000200: 8de2 d27d 6e6b c43f cd7e a2f0 6ed5 6cbf
00000210: 6b78 0cbe 919d ce3f be99 5c32 7a79 f93f
00000220: 66e6 faf3 59b4 c93f ae2a 87bd ddbb c93f
00000230: 9c47 f4c5 a0f4 e93f cef9 00fc 80c4 993f
00000240: 985b 40fb a73e cabf 348d b7b1 3721 c0bf
00000250: 08a1 f3ee 2b7e b3bf 7d5e 6f96 122c 7abf
00000260: fa1e d669 d991 e43f 0354 2900 d028 ef3f
00000270: 4101 ebd5 cb94 e03f 9d8a 8915 6e85 c6bf
00000280: baeb 5a8c 2cb5 d43f 4df4 0eb3 d1c7 c6bf
00000290: 5dc7 ebf8 349d b13f 0f26 d83a ee92 b6bf
000002a0: 0047 1bf8 f6c4 7bbf cf49 79e4 2477 bb3f
000002b0: 828e 5e4c 98f9 aa3f 5d7b 4c19 971d bc3f
000002c0: 32c4 9aa5 5989 77bf e2ba 88a3 679f 943f
000002d0: 1ee8 3f31 2a43 d03f abb7 a744 03c7 cf3f
000002e0: 0752 eec8 4f3d db3f 5ff0 2cbc cfdc bb3f
000002f0: 116b a9cf 960e a83f a455 21cc 6970 ccbf
00000300: fe6d 2631 e847 e53f 7442 7bb6 910c f5bf
00000310: 3630 0d89 2104 e63f 55e2 d584 abd4 f13f
00000320: 1031 90ac f72c e3bf 0ba5 a758 4a6e f13f
00000330: ddb6 fa5f 91bf d8bf 1c2a 2dea c4da dcbf
00000340: afaa 1f81 2a38 da3f 7693 fb94 ac4b c0bf
00000350: 5e0f a524 20f1 dcbf ec41 f606 fa0a 93bf
00000360: 890a c926 7e17 c53f 1b7a b915 58b1 e13f
00000370: 08f7 2477 8852 f23f a357 1534 0733 ce3f
00000380: 3fb3 6ce1 4fea c13f 195d a062 417d c7bf
00000390: 3182 d343 03a5 93bf e9c5 110e d648 e73f
000003a0: 69a7 5f8f d753 d03f 7f1e afa5 af57 7fbf
000003b0: dd55 558f 984c f0bf 307f 9e53 896d 903f
000003c0: 34d8 0fd5 ad79 c0bf c981 9254 54e9 d8bf
000003d0: 878b ce6b e30b d53f 4a73 62d5 ce03 8abf
000003e0: d58a 43eb ef83 dcbf 66f0 368e 09b0 a53f
000003f0: 3677 0d1c 6899 d43f e650 bcb0 b8c8 d1bf
00000400: cfd7 8534 cc35 d13f 072b 0d4a 6f9f d3bf
00000410: 72e3 b2ed 0e9b c03f db8a d05c 9007 bbbf
00000420: 53cd 3b34 45fe c03f 42d3 1c7f 6f6e a03f
00000430: d376 98c3 ccca d0bf eefa 09d1 df3e d1bf
00000440: ebbb c091 9590 ad3f 8a9d 2ddb 96e3 c43f
00000450: 756e b2ba 0171 c43f 0348 3bde 1fd7 9ebf
00000460: 1d22 fa11 5d14 e3bf 31e3 3ca4 8c32 cb3f
00000470: cfb5 44c4 ff8e c6bf a037 52ad 189b d2bf
00000480: d2f5 a4a1 87b4 d63f 112f 63b5 422e cdbf
00000490: 152d bbbf e0af c83f 8177 dfc0 9358 d03f
000004a0: 544f 293a 8fee d43f 03bf bd38 fadc 43bf
000004b0: bf17 3ef9 3429 c03f 7925 fa38 e702 b73f
000004c0: b1d9 636b 319a d53f c832 283c a5bf cbbf
000004d0: cb6c e92d 395d bf3f 90f6 f492 2dcc c53f
000004e0: 813c fced 3068 d03f 3d45 f670 d6ec bd3f
000004f0: 2b8e cf99 a55b b6bf 776a 7120 a958 b2bf
00000500: f4fd 230e cd6b 9dbf 92d2 2fe2 fd0c f1bf
00000510: db56 5bb2 5089 d4bf 26fe 5e71 cac0 e53f
00000520: b825 a7b2 40eb dabf 16cc ab4e 6c6b ba3f
00000530: 77a4 a403 56c2 bcbf 1c79 f7a2 cf86 aebf
00000540: c0e9 a733 dfd2 c7bf 55d4 d2c9 5ec7 c13f
00000550: 877a 57ef 222d a73f 9283 a58b 44b1 c23f
00000560: f9b1 7aff 40da cabf 204a 713e 82df c63f
00000570: f961 451d 3bb9 dfbf a8ee 3ca3 7c25 d13f
00000580: 9788 db0e 295d b93f a6c0 abff e48c b6bf
00000590: 1904 442c 851a 9d3f e0be 1432 c7b6 b13f
000005a0: 2f48 51bd 0407 74bf 4784 5365 123f 97bf
000005b0: 5c73 8907 4fde c03f e5a6 5a67 72b0 dcbf
000005c0: b668 1930 312d c63f 4670 b71b 8c61 c13f
000005d0: b6a6 5135 8913 d7bf ab0f 5a1f 69b2 ba3f
000005e0: d573 7512 86e1 e73f 34bd fc87 4c49 c1bf
000005f0: ac2e ab97 6346 ce3f 1888 d227 cf5b d9bf
00000600: 26fd ca3a 1fe7 bfbf 3820 e488 2d45 e8bf
00000610: 9d9a 1095 4bf7 e13f 8396 66ef f2c0 edbf
00000620: bf2f f938 2ec7 eb3f 0561 50e8 96d4 c2bf
00000630: 8924 1377 5436 ee3f 68d0 5946 7e85 e3bf
00000640: 49fc ce0b a3ce c83f 112b 29c5 467f e0bf
00000650: db9e c4ab e12b d4bf 930d f8d3 74f7 a63f
00000660: 05ab 1b7b c390 f93f 862e fbc6 307c ee3f
00000670: a458 0230 2cca d63f 79ea a42e 925c b3bf
00000680: 6ded b09f 2192 9dbf 9936 6be8 84ae bc3f
00000690: ea0e b793 59b3 91bf b3a1 7453 d026 aa3f
000006a0: 8599 e1d4 f93d 963f e8a2 5623 c962 a03f
000006b0: 0194 4228 382e 90bf e5d6 ee41 ee4a c93f
000006c0: 0d68 7064 81fc 9cbf 3fc4 91f0 5d60 d03f
000006d0: ef6e 20b7 308a bfbf c82c 89f0 d933 ba3f
000006e0: 429d 4e89 cda1 c4bf d20f de9c 395a 763f
000006f0: 321f 4735 d45d dcbf d513 a23f 545b d33f
00000700: 5ff4 935a 8068 a0bf 9e9d 879d 942d cfbf
00000710: c2b6 aad1 5183 d43f afee b578 332d 893f
00000720: 54e9 fe57 357f 863f 5c44 43e7 b6cb c1bf
00000730: dc96 7c1a 861f ff3f a89c 21bb f38b d7bf
00000740: 09c4 5125 6c36 c63f c95f cd7d 8c77 833f
00000750: 7896 dd38 207e f43f 986a 35fa 2ee4 e13f
00000760: 0ef4 b6cf 5fdf c1bf 3722 03da d5d4 f2bf
00000770: 8d8d 48ab d1b5 d6bf 3de9 223c 21c3 d8bf
00000780: fa06 8ede 3c94 dd3f 8f23 bb09 6865 63bf
00000790: 6d3f 536a f904 d4bf 6e1f 8a7d 344e bdbf
000007a0: 1e2a cc24 2c04 b9bf 9456 2e05 4df0 c63f
000007b0: eb4e c5b6 7cd8 a13f 3a14 a96e 53dc 9f3f
000007c0: 294c a8b3 7c07 bc3f ff76 7acc 601d c63f
000007d0: 2432 3f40 c586 c63f d351 e681 b34f cc3f
000007e0: c6b5 eedd 6d49 ed3f d60e fcdb 8327 b0bf
000007f0: 416d c5dd 6f57 e6bf 70ea 858a d9c7 c7bf
0.32900842720158113 0.3891915804448858 0.26847635161315353 0.14771024250793868 0.15657328315117403 0.16160364954729756 -0.7346381491788326 0.06542948340738278
0.16269383709312069 -0.22508983891526402 -0.5087676344878459 0.415781669491979 -0.4731507517406512 0.1532665370651648 0.30755754593306506 0.40745276747157405
-0.13265737020453483 0.09565689971870021 0.16319939810102566 -1.4237390225838737 0.615807412678029 -0.4508631907483234 0.4348508503076364 -0.003788291314194206
0.17063589577677388 -0.23412808785963468 1.0114525673768264 -0.15959431754125578 -0.8424587353353142 0.4890479035176055 0.13680532032405093 -0.0770309010715165
0.2134683938598117 -0.15029757618320028 0.05557383469373363 0.6477878359389811 -0.017447446185079672 0.5841593827121417 0.18314929834761015 0.03366729001736017
-0.1911306198904411 -0.07412101482897611 -0.5584968424276039 0.16554495900990596 -0.26626732368777645 -0.17510596686537083 -0.07519078594117112 0.627230193925622
0.14162533066229296 -0.5268574369360323 0.20305423303050407 0.09319884211268484 -0.08174362168952441 0.29878899131015896 -0.7820067264538697 -0.7517918507777365
0.20547051600710622 -0.06590023676653047 1.0389143503029672 0.07798969670847143 -1.1029254095254888 0.12864059351672177 0.7767794219408622 -0.8589812536786867
0.15952855247248401 -0.003519741706511903 0.23918363361093795 1.592157551503632 0.20081638730134727 0.20104572061821585 0.8111118189137758 0.025163665181247734
-0.20503711479315423 -0.12601371934497652 -0.07614397605687284 -0.006389687164265132 0.6428038661115061 0.9737319949296083 0.5181636026464177 -0.17594696094154907
0.3235579844146589 -0.17797299616896325 0.06880503728077998 -0.08817948280934494 -0.006779637072854561 0.10728674486134725 0.052685508081848034 0.10982651107449955
-0.005746221717047683 0.020139331203774875 0.25409941491636967 0.24826088764478746 0.4256171667305186 0.10883806556825125 0.04698630604680976 -0.2221805807809406
0.665027709957428 -1.3155686500723762 0.6880042721545638 1.1144213856588483 -0.5992391939521742 1.0894263709145118 -0.38669237492545766 -0.4508526121977938
0.4096781025861373 -0.12730939173266237 -0.4522171361788788 -0.018596560168193152 0.16477944272817904 0.5528984474474926 1.1451496748044878 0.23593225520261027
0.13996313578663863 -0.18350999179595176 -0.019184161200316466 0.7276411318582038 0.25511731149037203 -0.007651983377349957 -1.0187001799544 0.016042848328310544
-0.12871334937489254 -0.38924129733098006 0.328850608139128 -0.0127025755758098 -0.4455528066156778 0.04235868321436058 0.32186320056449647 -0.27787606486641747
0.2689085495870786 -0.306606123271806 0.12973200422655 -0.10558416620237258 0.13275971460789524 0.0320925562540766 -0.26237792111520014 -0.2694625417133655
0.05774371532640273 0.16319547369060344 0.15969869247497895 -0.030117509783686113 -0.5962357855906394 0.21248014468599188 -0.17623898585718087 -0.2907163326825586
0.35476866517623507 -0.22797426087196773 0.1928673683345116 0.2554063209080298 0.3270605152113053 -0.0006061765466096328 0.12625753564878825 0.08988804951709096
0.33753619658764494 -0.21678605496744852 0.12251622553724244 0.17029351878766308 0.25635932198287753 0.1168951059137457 -0.0873359203829344 -0.07166535417619878
-0.0287315406685575 -1.0656718097135678 -0.32088105600028677 0.6797840322760222 -0.42060868689130926 0.1032016460483621 -0.11234033192580904 -0.05962227691974162
-0.1861227991319776 0.138896797701508 0.04526623889591002 0.1460347825878015 -0.2097855803925908 0.1786959462065889 -0.49568059786318447 0.2679130167123085
0.0990777646325419 -0.08808737985578094 0.02842147905994716 0.0691952225940855 -0.004889505876308361 -0.022701537546599117 0.13178432338727475 -0.44826946347403257
0.17325415466877353 0.13578940728518968 -0.36056738097122876 0.10428483024048656 0.7462797508738911 -0.13504940643313434 0.23652310281464872 -0.396228588952114
-0.12462039170622016 -0.7584445642141935 0.5614374076293022 -0.9298033405109013 0.8680640328179762 -0.1471127161355598 0.9441320729903434 -0.6100455640830775
0.19380605770672535 -0.5155366755292069 -0.31517831587050943 0.044856692195050084 1.597842675105029 0.9526599775649209 0.35608963669199967 -0.07563127173208696
-0.028877759334347376 0.11203795122420458 -0.01728572811204191 0.05107737559075378 0.021720794313659936 0.03200367504479634 -0.01580131288269016 0.19759920329459316
-0.028306981807055865 0.2558817719755701 -0.12320236655107995 0.1023536884542181 -0.16118783192107783 0.005457139062745102 -0.4432268638888558 0.30244928564235113
-0.03204728227317654 -0.24357850734598413 0.32051511264112886 0.012293245431229975 0.01098481821815215 -0.13902937214018862 1.945196250403959 -0.36791699671307265
0.17353584120022017 0.009505364979915403 1.2807924481689081 0.55910443180922 -0.13962934152905898 -1.1769617572882802 -0.3548473522843885 -0.3869097792882206
0.4621727155100498 -0.0023676902763764616 -0.3128036058742428 -0.1144745642178557 -0.09771991632820984 0.17920840027789053 0.03485479098404006 0.031113914136103406
0.10948924432914055 0.1727715490750867 0.1759878696160665 0.2211822876239596 0.9152135214441663 -0.06310295220105941 -0.6981734591931074 -0.18578643096755654

lstm.bias_ih_l0 f8 [64]
00000000: 1bea 1d62 d6df de3f 1ecc e961 9eb6 da3f
00000010: 1ff2 853f ba6a 30bf ea3f 706d d00a db3f
00000020: 8ed0 e0c5 365f d13f f5b8 be47 bb09 8a3f
00000030: 6dea e517 15b9 ed3f e2b5 b90a 4727 b03f
00000040: 3114 abb9 44fd c23f 84f0 0bfb 19da b03f
00000050: 2df0 13a8 ac45 c23f 8b8b 5fba 899c 98bf
00000060: 06cb 83b4 b5d3 df3f b408 7ed8 d992 cfbf
00000070: f317 90a7 4286 df3f f03b 3a14 6e62 ca3f
00000080: f7f3 5d44 1e95 ce3f 37cc 7087 02a2 dabf
00000090: e785 cdd1 1194 b43f 218b d7d3 6cb0 ccbf
000000a0: 2f97 f51a f4dc c23f ab55 6969 08ed d03f
000000b0: b687 b003 f545 d2bf 0507 4cf3 639e b6bf
000000c0: 968b c0fb e265 d43f 01d2 38d2 36c2 ae3f
000000d0: 2cdb 536c 3cef cc3f 1199 4e6f 7ca6 b43f
000000e0: 36ba 3dd5 794d 923f cf37 f087 44c8 dd3f
000000f0: 84fa 3ea3 72a4 c4bf 03f7 3389 daf3 dc3f
00000100: a044 8455 b51f d43f 6f7e 96b9 af3a b03f
00000110: adf0 0fd7 0402 cc3f ba8c ae28 bd82 953f
00000120: 5566 f67a 3882 ba3f 0e83 a5bc 53b2 b83f
00000130: bffa 3578 dae0 c63f d0e5 6b9f e4d7 c9bf
00000140: 141c 7d3f 65de cd3f 01bd 91b7 bacd a4bf
00000150: 9fb1 6b2a 39ac babf c925 54d9 52f1 c63f
00000160: d90c a6a6 c403 c1bf 5c04 1fcc 70d5 b2bf
00000170: 7e8f 1411 d7a0 9e3f 7bc8 de3e f27a aebf
00000180: d965 30ea 44d9 e13f de09 6ddf 448a e33f
00000190: 34c6 c7cb 5bd8 d93f 8db0 484a beee d23f
000001a0: 7d24 37d7 2892 ad3f 76e6 6084 5905 d03f
000001b0: 6bf5 36ed fc86 e13f 88f2 b13b b247 e03f
000001c0: d9e3 8efd d082 bf3f 04af 997d c725 b03f
000001d0: 41cd 8071 b757 dc3f 1bce 7658 35fb 723f
000001e0: 3f2d 63c1 0e0d d33f 51e3 903e 4241 cb3f
000001f0: 1c57 d17d 34c1 e53f 0ef8 60c2 8c10 ce3f
0.48241195279811827 0.4173961597618375 -0.00025050208161994826 0.42253504454947566 0.2714363987354397 0.012713873984321536 0.9288430659065178 0.06309932720042569
0.14835413995584326 0.06582796458309487 0.14275129515579135 -0.024034645080870425 0.4972967398490912 -0.24666903563417508 0.49256960261879995 0.2061288450972536
0.23892572725517855 -0.41613829828856147 0.08038436290873784 -0.2241340669998744 0.1473679668080705 0.26446733755195834 -0.28551984176931045 -0.08835434617870071
0.31871866784256875 0.06007548633752791 0.2260509041732005 0.08066537587601298 0.017873672142224538 0.4653483703158345 -0.16126854868885598 0.45238364599923403
0.31443532325017465 0.06339548378900316 0.21881161213957992 0.021006541831991334 0.1035495090676702 0.09647105556133459 0.17873698110266464 -0.20190103325130204
0.2333494720462289 -0.04063209048114836 -0.1041904190603362 0.1792396126914311 -0.13292749535694418 -0.07356934531618847 0.029910431306361833 -0.05953175561389031
0.5577721189503634 0.6106285442149859 0.4038304796259553 0.29582173589984323 0.05775573374882812 0.2503265183218909 0.5477280266856445 0.5087519803924616
0.12308984938034885 0.06307646576322773 0.44285379490175464 0.004634102231125615 0.2976719749974172 0.21292903952578482 0.6798346001985212 0.23488006106521236

lstm.bias_hh_l0 f8 [64]
00000000: 71eb 1d22 2393 dc3f 2acc e901 dbac d03f
00000010: 911f 70f1 cfe0 d63f fbfc c035 27f4 b43f
00000020: 1e83 062f 3550 a13f a1eb 7bf4 edbb c03f
00000030: 67eb e527 43e1 e23f 986b 7315 9bba aa3f
00000040: f514 abf9 f361 c03f dc3e d013 2460 9fbf
00000050: 0ff9 09f4 17dd d03f a273 a045 304d 903f
00000060: c1e5 411a 6528 e23f 8e08 7ed8 ee9b c3bf
00000070: 1618 9067 e87a d43f 2276 74a8 0b8f b93f
00000080: 27a2 ef22 2a36 923f 0c96 e14e 9599 ccbf
00000090: 2761 7354 dfdb d13f 008b d7d3 a5fe c7bf
000000a0: 325b d66b 3b6d a73f 06ab d2d2 5a42 ce3f
000000b0: a5f0 1076 b4a8 8dbf acfc 59c6 1da9 c63f
000000c0: 688b c01b b89b d43f bd96 e316 60d1 bcbf
000000d0: 3bdb 532c 6e46 cf3f 7ba6 d3fb 26ae d43f
000000e0: 406e 4ff5 b465 b73f ac6f e04f ec25 c33f
000000f0: 89fa 3e63 b349 cabf 00f7 33e9 e4a4 dc3f
00000100: d889 086b 514b c13f c205 d38c 4608 adbf
00000110: 4ff8 87eb e448 d43f 9c2e ea5a c710 c5bf
00000120: a9cc ecf5 f75a ad3f 2a9f d670 a2fd d0bf
00000130: 3731 503e 6a0c 9dbf d0e6 6b5f 3521 cfbf
00000140: c68e bebf a9eb d13f 426e e4ad 7d6a c7bf
00000150: c426 caea 2db1 c33f cc25 54d9 d905 c93f
00000160: 48e4 b332 673a bd3f 33f8 c167 7618 a13f
00000170: 2bdc ba3b aa46 bdbf 3337 21c1 2b0f a83f
00000180: de94 c1a8 ccfc cd3f a109 6d1f 5f66 e03f
00000190: 14c6 c74b b209 d73f 84b0 48ca b2b9 d43f
000001a0: 9492 9beb 044e b53f 3236 0723 1349 a83f
000001b0: 2ee9 6dba 571d d43f c1e3 6317 1b5e db3f
000001c0: b071 c73e e7ca c93f f1ae 997d e3b9 bc3f
000001d0: 64ce 8091 6cd2 d53f 326c 8755 f89f be3f
000001e0: 1397 b120 59d9 e63f 7f18 87f4 35fb 9a3f
000001f0: 1957 d10d f5bb e53f bef7 60c2 362d c43f
0.4464805443928333 0.2605502623256962 0.3574714525025167 0.0818504816279421 0.03381506156006807 0.13073515355776258 0.5899978427181453 0.05220493923999142
0.12798928919634248 -0.03064018603259809 0.2634944804375587 0.015919450998001523 0.5674310219612196 -0.1531961972323796 0.320001698623288 0.09983895170849924
0.01778474653466069 -0.22343698836918724 0.2790449452127341 -0.18745873302312788 0.04575524989484449 0.23639998716438287 -0.014481935360997797 0.17703602013714226
0.3220043440834872 -0.11256981428922593 0.24433686413223107 0.32312941162545145 0.09139567364712153 0.14959482097844778 -0.20537416788097954 0.44756434224824204
0.1351110241531177 -0.05670376271292411 0.316949110041496 -0.16457454623411116 0.05733466031088003 -0.26548062342998213 -0.02836767201738263 -0.24320094260456537
0.2800087330344748 -0.18293734541735956 0.15384458507860732 0.19549105750802054 0.11417241084917962 0.033389759221777025 -0.114359511930943 0.04699074490109325
0.23427732696578735 0.512496529940382 0.3599668254892958 0.32383413080493306 0.08322172882214779 0.04743251612272238 0.3142909355734841 0.42761876377295144
0.20150461736092273 0.11221143547453118 0.34096826752941056 0.11962844932661268 0.7140317572163631 0.026348918008601615 0.6791939992787973 0.15762981883193378

bidirectional_linear.weight f8 [1, 32]
00000000: 0000 0040 8372 c5bf 0000 00a0 6654 983f
00000010: 0000 00a0 2e49 c03f 0000 0000 5c01 a6bf
00000020: 0000 0080 9f2e b8bf 0000 0000 88f5 adbf
00000030: 0000 00c0 a899 b53f 0000 00e0 0298 54bf
00000040: 0000 0060 a948 bd3f 0000 0020 b9cb b1bf
00000050: 0000 0080 b3a4 87bf 0000 00c0 762a babf
00000060: 0000 0060 33ea 723f 0000 0080 2f4a ba3f
00000070: 0000 0000 6e52 c4bf 0000 0020 d4da b9bf
00000080: 0000 0040 7b77 9ebf 0000 00a0 eb14 af3f
00000090: 0000 0040 4f13 b73f 0000 00e0 1e4f c63f
000000a0: 0000 00c0 b0d2 b0bf 0000 00c0 83c9 bb3f
000000b0: 0000 00a0 dc4f bf3f 0000 00e0 9db2 c5bf
000000c0: 0000 0000 8865 c4bf 0000 0060 5951 c43f
000000d0: 0000 0060 0975 b33f 0000 0040 f807 b8bf
000000e0: 0000 0060 64e4 c5bf 0000 0000 2dd9 b5bf
000000f0: 0000 0060 988e ae3f 0000 0060 8dd0 55bf
-0.16755715012550354 0.02375946380198002 0.1272333413362503 -0.04297912120819092 -0.09446141123771667 -0.05851387977600098 0.08437590301036835 -0.0012569454265758395
0.11438997834920883 -0.06951481848955154 -0.011544611304998398 -0.10221044719219208 0.004617882426828146 0.10269448161125183 -0.15876555442810059 -0.10099530965089798
-0.029752660542726517 0.0607064850628376 0.09013839066028595 0.17428956925868988 -0.06571488082408905 0.10854361951351166 0.12231234461069107 -0.16951344907283783
-0.1593484878540039 0.1587325781583786 0.07600458711385727 -0.09387160837650299 -0.17103247344493866 -0.08534508943557739 0.059681665152311325 -0.0013314610114321113

bidirectional_linear.bias f8 [1]
00000000: 0000 00a0 8a0e bb3f
0.10569063574075699

linear.weight f8 [1, 16]
00000000: 5332 90a6 3ea4 e7bf 98cc 57ea de06 d1bf
00000010: 8808 62b1 120e e3bf 8310 8d7d 56d9 f03f
00000020: ef49 2810 7950 e53f ab39 11ca 143b d2bf
00000030: 75ff 7ee7 9e0a e3bf e37e e4af 3a35 dfbf
00000040: b876 56f1 a9c7 e3bf a931 fad2 7d7b e1bf
00000050: 08d0 9493 4668 eb3f e875 b96a b7f2 c23f
00000060: d8d0 d1ad 2af1 c5bf b635 e959 c7ea e73f
00000070: c34c bd00 a5e9 ed3f 7e75 968a c2b9 e33f
-0.7387994054020716 -0.2660443581109546 -0.5954678978453254 1.0530609993302569 0.6660733523916046 -0.28485603078015725 -0.5950464745910568 -0.4876238553715508
-0.6181230271938238 -0.5463246460581576 0.8564789659926655 0.14803211890368506 -0.17142232405934155 0.7474095111917254 0.9347710623209412 0.616425772360955

linear.bias f8 [1]
00000000: 3770 8fab 4720 96bf
-0.021607513281068882
