models/CNN.pth (torch, 694011 bytes, 14 tensors)

y_convs.0.weight f8 [16, 10, 9]
00000000: ea34 4f51 873d 95bf 4a1d 78e1 ef6f 7dbf
00000010: a759 ce7f 13c8 77bf 0bfd 6fc5 b487 a1bf
00000020: 4c87 8843 a91f a03f c7fb 1410 dd55 a3bf
00000030: 8a3b 2b71 879b 8fbf 9615 1ab8 b670 a3bf
00000040: 6cfe ac6c 61eb c0bf 3725 b2c3 b891 883f
00000050: 2627 aa44 b2fe 933f 93bb 1f66 baf2 a73f
00000060: dc3c 5336 4cb7 a7bf 1ce0 7229 534c a0bf
00000070: fee7 94ce 09bd adbf baba a2e0 69fa a53f
00000080: 314d c065 5cba c0bf 5a07 86ca 6542 babf
00000090: e3ad 9095 a7b5 b0bf 6a29 6e10 7607 b53f
000000a0: 2e5e ed51 8b5c b8bf 4a31 381a 456b 943f
000000b0: 95da abf3 f5cc 913f 2c03 aa8f baa2 913f
000000c0: 70bf f520 28c4 babf 2c92 1a7b 880d 883f
000000d0: 3cad e735 a0c5 a23f 9cc2 ef64 71b8 a6bf
000000e0: 0092 fbb5 fcd7 7a3f f9ef 90d3 1b91 bdbf
000000f0: 7406 d197 4066 bcbf 0813 9e14 e5d1 b0bf
00000100: a852 090b 1323 adbf 08e2 9f21 2744 b3bf
00000110: a6ad f7e0 2eb4 c3bf b523 664c 444f c2bf
00000120: c7bb 16c2 8b0a c2bf db89 3047 744a 9b3f
00000130: e337 174f 3848 c6bf 5827 71ed 194b a6bf
00000140: ea66 979e 73b2 813f f5c3 14a7 d532 a9bf
00000150: 7265 89c3 7be3 9cbf d556 8088 8f76 c0bf
00000160: aaa1 7482 3e36 c5bf 3b23 0406 6525 8fbf
00000170: 317a 18b1 c9cc 973f fb9a 5ab4 2c8a a13f
00000180: a140 b55e ee35 ad3f 53d6 db38 da3f 86bf
00000190: 4b33 8bda 50cf 94bf e582 2184 cf51 5dbf
000001a0: dee9 403a 53cb bebf 3f27 8b83 9753 b7bf
000001b0: 7a16 9cd3 e0df a43f 79e0 e24c 4c36 a7bf
000001c0: 38ec 0ac5 31f8 b6bf b4f7 69ec d625 afbf
000001d0: efe6 22eb 8c87 8e3f 10b6 1249 7ef5 abbf
000001e0: 68c0 3208 3ad7 af3f 7ce9 9fb5 f7a6 bd3f
000001f0: affe 85d1 569a a63f d408 986e f440 613f
00000200: cf9a 50c6 172e ba3f b486 558f eac0 a13f
00000210: 4cce 8223 027e abbf 276d 3e41 453b c0bf
00000220: 7171 5659 b377 9b3f 7085 c556 489f b0bf
00000230: 0c6e eefe 2b52 9abf b99b d338 3798 4c3f
00000240: d2b0 3ff7 5916 9f3f 2dc3 c690 36fe bdbf
00000250: daa4 358a 865c c2bf ff61 5c7c 1d74 b7bf
00000260: f6de ef6d ea74 c1bf 1d49 f103 7667 bfbf
00000270: c555 9879 d66f aabf a64d 9a26 c924 513f
00000280: 32b7 685d 8a6d b2bf 2220 3aea a273 7abf
00000290: 8338 4b39 6cd4 b6bf 9210 8446 36e4 73bf
000002a0: 7f5e 1ff5 1946 d83f 78e6 ecce 926f c1bf
000002b0: a243 62d7 f4b8 cb3f 301d cc71 334b a73f
000002c0: 60ab fb16 1c8e ae3f cf13 d807 a9d7 ad3f
000002d0: eb2a 0ef1 680f ac3f fe78 ced9 4b05 a5bf
000002e0: 7e80 5220 aafd a93f 0e8a c942 53a3 973f
000002f0: 314c 7247 5987 b03f 7a71 8143 c88f b3bf
00000300: 715d cefc 32b2 923f d1ed a19a ad6e 57bf
00000310: 44c2 77fd 92bb b5bf 54aa 44c8 efc7 b03f
00000320: b161 ae58 4941 b5bf 803d f5bd 2686 af3f
00000330: c012 bdc6 f700 7bbf fd68 4ec6 f9c9 a93f
00000340: 32b1 4fa7 29a6 a7bf 91b9 635d dae0 a73f
00000350: 349f edbb 983d b33f 4286 9ff0 b802 b23f
00000360: eba9 1dc6 09c6 b1bf 5666 d5dd 1581 b5bf
00000370: 83d2 007f fcda a9bf affd 7262 4528 ae3f
00000380: ba36 7e28 0556 a93f 1f21 18a4 fba0 933f
00000390: 09b5 9b2f fc9d b2bf 4a80 137b 93e1 b73f
000003a0: 21c9 5c36 283a a03f 1c15 0193 5a7f 9ebf
000003b0: c9ce 2913 6834 b23f c458 1f19 2de3 29bf
000003c0: 3369 0a53 589d b73f 8579 3c18 9009 64bf
000003d0: 855c 6491 4987 b13f 2559 bf25 4ebb a63f
000003e0: dc67 bacf ec6d 90bf 5675 499a 55bb b5bf
000003f0: 7d3e edff 1880 b3bf 7747 24f0 6cc9 b3bf
00000400: 0c5e f8bd 0614 babf 614e f989 7243 ae3f
00000410: 3489 fbe0 27ee c1bf 6944 635a e8e3 7b3f
00000420: 4aac 6d70 dd3d b2bf a66c c466 2e25 a13f
00000430: a297 463b c2b2 96bf 7fe8 ed52 1988 c3bf
00000440: dd83 9294 191d c1bf c325 cf67 5264 903f
00000450: 2e62 c111 a53c b5bf 26bb 51c4 53e6 bdbf
00000460: 625a 5414 b38f 903f 951a 5ef4 a63c b5bf
00000470: 0e37 92b5 5872 b0bf 1c74 e803 f44d 863f
00000480: de6c 2f75 dd8a 70bf 6908 38e5 27b7 af3f
00000490: 34f2 e48e 29ab b23f 8251 92eb a2f8 473f
000004a0: 9b67 8a9d f981 b43f ba7b cfef a983 b0bf
000004b0: adbe d590 e918 9a3f 94d9 4030 a8c8 a23f
000004c0: f993 8bc7 02c5 b23f 745e 2d7e 38e2 a23f
000004d0: 76c6 514f f83d 9bbf d5f7 d18a 951a bdbf
000004e0: 7d1b 2fc6 d049 bdbf 8d7e 48d9 d85f b1bf
000004f0: d784 a07a 22d4 a5bf 0240 9e21 c086 c6bf
00000500: b6a7 4408 0b90 bfbf 207f 66f0 36f6 b2bf
00000510: ea20 e472 992b c83f 31b0 fa71 1890 c33f
00000520: 48bf 21ce 8a8f ae3f c466 039c a4e2 873f
00000530: c3ee 965c dd50 b03f 8996 5348 3d40 89bf
00000540: af54 ca0f 29d8 73bf 5a3a 71a8 75cc 9a3f
00000550: 7978 1245 4c15 323f 900f 672d 200c b93f
00000560: 4c4a 2da2 1c92 a53f b8fd 7b4d 1991 913f
00000570: 3bbe 6e56 48d8 b13f 950a 5931 f629 a73f
00000580: 95cb 17f8 62ed b3bf b736 de50 2a41 a7bf
00000590: d2f6 5ed1 96c7 853f 80a6 83de 89f2 aebf
000005a0: f6a0 3380 f94d acbf 7ef8 83ac c0ff b73f
000005b0: fa0b 3f00 3f7b 7d3f 2dbd 953b 14f8 b53f
000005c0: b6dc bcb8 d4f4 afbf 00f2 eca2 f109 86bf
000005d0: c6aa 55b5 1e6f b0bf dac3 b532 bcc4 b73f
000005e0: bd7e 4e0e aee3 b33f 4e20 84ba 406d 94bf
000005f0: 21fa 21bf 5b4f 853f 7819 01be c5e3 b5bf
00000600: 179b af93 c5da ab3f 8881 227b d3cf ab3f
00000610: c99b f2cb f1cd ac3f 142f 98ba 843d a23f
00000620: bedc 35e2 d75e adbf 8142 b4dd f316 b53f
00000630: 01d0 20ff f816 9c3f a43c aff8 20d7 b2bf
00000640: ce09 2860 e1d1 703f 5b98 7be7 57e8 b2bf
00000650: f6ea f688 bb71 a53f d586 67f6 465a 783f
00000660: 5c5d f8bd cf1f a73f 247e 6e3d 2c82 a63f
00000670: 0534 254c c493 aabf 29ab 3c52 735b b13f
00000680: d647 217b ca27 b6bf 9c34 ca4f fe09 b53f
00000690: 465f 6c8a 25ea 92bf d040 b743 54f0 b33f
000006a0: dc9a abd1 707b a63f 685f 7312 a540 853f
000006b0: ff4e e6e0 492b 7dbf ade3 07b9 cf18 91bf
000006c0: 07b8 debd 621a b6bf cce8 cb77 cafc b7bf
000006d0: c6fd 07f5 1e8e a0bf cebd 6a66 0849 afbf
000006e0: faf4 a0dc 163f ae3f a4f3 e793 0174 8e3f
000006f0: 9a39 b310 c377 a6bf d5bb 0222 80e9 943f
00000700: 7699 bfda d372 bfbf db7e fee8 4c79 973f
00000710: 904e 2b23 e0a7 4bbf f1e7 cd8e a07f ae3f
00000720: 6fd4 a52f 986a bc3f 3a44 120e 5dea b43f
00000730: ba25 265d fcbe a63f b37a 61ee df69 903f
00000740: 4001 3db0 99c4 b9bf 485f 3bf7 0b14 b33f
00000750: 6639 5090 ae47 76bf a401 17da 7d61 b33f
00000760: d6da 2936 c5ee b23f fc87 5462 7019 6c3f
00000770: 4aed a9ab 5dfe b5bf a8f7 b4b8 1612 b2bf
00000780: 9a33 6764 e393 b23f 83de 6265 051d a13f
00000790: 03a9 b43d 37f5 a13f dcd8 66ce c5d6 64bf
000007a0: 8904 6141 17d2 b0bf f642 bd57 cfea 86bf
000007b0: 0062 f2ae 5af7 b1bf 186e 52f9 bf60 bd3f
000007c0: 8b65 fb1f 4c22 b03f fb80 e6ff dbe2 a6bf
000007d0: 0213 9537 3e71 a8bf b059 b4ec 4581 ae3f
000007e0: fd8c 6d4d 9514 a5bf 79b8 74b3 3785 b4bf
000007f0: 90cb 7902 56ce a53f 5b86 fb52 c312 a5bf
-0.020742525422794346 -0.007186829599511066 -0.005806041878619806 -0.034238480664493386 0.03149155568486481 -0.03776446172059127 -0.015433366910114339 -0.03796931264245555
-0.1321832447665544 0.01199669215408737 0.019526277008970493 0.046773743597319804 -0.04632032549999973 -0.03183231240240067 -0.058082872836578744 0.04292612902769606
-0.13068728416747313 -0.10257564730093574 -0.0652718296193409 0.08214509869700284 -0.09516211271454075 0.019940452313720138 0.017383425710216633 0.01722232343536516
-0.10455561451612794 0.011744562393979661 0.0366640153696047 -0.044375938006742305 0.006553637649379329 -0.11549543299855704 -0.11093524652917514 -0.06570274117809671
-0.05690822133752721 -0.07525868006622016 -0.15393625244847192 -0.14304403047961292 -0.1409468362521393 0.026651207776135038 -0.1740789781746904 -0.043541727289791055
0.008641150739026899 -0.04921596207203286 -0.02821153050385789 -0.12861818471053846 -0.16571790094282096 -0.015208043333147727 0.02324214118390894 0.03425731374345805
0.05705208688834885 -0.010863976345244419 -0.02032209714780046 -0.0017895247006195988 -0.12028999492841971 -0.0911192604209221 0.04077055533529701 -0.04533613623192507
-0.08972464619266496 -0.06083556781685165 0.014906979490081322 -0.05460734025960445 0.06218892431331896 0.11582897361942018 0.04414626414927391 0.00210616818071783
0.10226582137748184 0.03467495917972255 -0.05369574244960215 -0.1268087929318906 0.026823808982599787 -0.0649304591984412 -0.025704085764671133 0.0008726377142494946
0.030358701434963838 -0.11716023478107891 -0.14344865559113523 -0.09161552702096996 -0.1363804852296579 -0.1226724395394609 -0.05163450464548761 0.0010463680613711306
-0.07198395519727965 -0.006457935701867286 -0.0891788139226453 -0.004856311810957819 0.37927864969012853 -0.13621745208529368 0.21658192173756868 0.045495612756037196
0.059677961164047444 0.05828598232987014 0.05480506842203233 -0.04105603250285304 0.05076343197401999 0.02308397383820631 0.06456525797175129 -0.07641269348227367
0.018257900886593462 -0.0014301963188064657 -0.08489340484789759 0.06555079116211832 -0.08302744307582689 0.061570368469456405 -0.006592719913730505 0.0503690771649463
-0.04618959586500394 0.04663736715325507 0.07515863979426457 0.07035404085720479 -0.06942807280362444 -0.08400093713626097 -0.050498857978174015 0.05890099360248812
0.04948440665530769 0.01916878880550243 -0.072723161337951 0.09328576807774983 0.03169370330432942 -0.029782691214014098 0.0711121603761128 -0.00019750524057710582
0.09224464442596485 -0.002445966181667094 0.0684705715142276 0.044397775752871994 -0.01604433076736443 -0.0848897458722225 -0.07617336509906099 -0.07729225981554842
-0.10186807763999911 0.05910833296061636 -0.14008043752171206 0.006809146527488521 -0.07125648493608697 0.03348679546817239 -0.022166285388855685 -0.1525909094742168
-0.1337005591822437 0.01600769766426936 -0.08295661624414016 -0.11679576437903147 0.016173170200170957 -0.0829567286110467 -0.06424478943719356 0.010890871400130613
-0.004038682050089918 0.06194424317438136 0.07292422999029996 0.0007315440663143021 0.08010826202590098 -0.06450903038738334 0.025485658135436285 0.03668714131383691
0.0733186471148456 0.036882176783078174 -0.026603584138177948 -0.11368689192929023 -0.11440758551098713 -0.06786876015439187 -0.04263408419525099 -0.17598725930702136
-0.12329167320117915 -0.07406943673276745 0.18883054838102648 0.15283494534867395 0.059688890135360995 0.01166275597681777 0.06373389730918703 -0.012329558152895064
-0.0048448184940258895 0.026170576482679266 0.00027592765861495606 0.09784127338849502 0.0421303699464671 0.01715507064272767 0.06970646009607943 0.045242017291930704
-0.07784098202664176 -0.045419046756348384 0.010634592308515965 -0.060444172298798726 -0.05528239908182002 0.09374622546963171 0.007197614762790567 0.08581663565359028
-0.06241478686427497 -0.010761153969377268 -0.06419555594554102 0.0928456901363143 0.07769286965639828 -0.01994801653293648 0.01040527035752087 -0.08550678147103052
0.054403471258231466 0.05431996229276864 0.056258731981237604 0.03562559869541651 -0.057364221919607314 0.08238147890757298 0.02743138367823406 -0.07359510489844695
0.004106407521705836 -0.07385777856288327 0.04188333556108674 0.005945470044453412 0.04516457742664201 0.04396188974282847 -0.051908621115764254 0.06780167348612721
-0.08654466158011984 0.08218373725886113 -0.018471323560418605 0.07788588193148205 0.043910527796290316 0.010377206445283796 -0.007121361339517795 -0.016696210544953228
-0.08634011397836626 -0.09370103287429571 -0.032334296618497 -0.06110407114226356 0.05907508319112682 0.014869701696619782 -0.0438824613462316 0.020421983791205484
-0.12284587946451161 0.022923661919434273 -0.0008439869328306805 0.0595674681016617 0.11100150264049245 0.08170110314883142 0.044425855990151544 0.016028880047424376
-0.10065613320057754 0.0745246389955102 -0.0054394549270127875 0.07570635389766395 0.07395584652281725 0.003430099010658159 -0.0859125656224268 -0.07058851251073739
0.07256909562347716 0.033424538255926194 0.03507397297137695 -0.0025438178447202264 -0.06570573183218377 -0.011190051903811487 -0.07018057604944516 0.11475753628695207
0.0630233362275218 -0.04469954966339348 -0.04773897579665311 0.05958002581080579 -0.041172662450458454 -0.08015773898361712 0.042589843561379515 -0.04115877521486474

y_convs.0.bias f8 [16]
00000000: 7455 a309 5105 a2bf 2847 65bb 6a9e 873f
00000010: f93d 5e72 f1d0 c03f 27d8 4471 c6b9 64bf
00000020: 7d2c 5bab ce7c b83f dba3 dce5 dbfc 743f
00000030: 1136 7c4f c6a3 c13f e28a d0cd 829c c43f
00000040: fddb 1981 cf16 96bf 02cf 569a 49df c33f
00000050: 8955 c291 4689 933f e964 5760 0c9a a6bf
00000060: 6478 617e afe4 b7bf fc38 3445 fbda c4bf
00000070: a35a 5363 bec3 b23f 8a74 c5c7 8506 b93f
-0.03519681208278316 0.011532625049457915 0.13137643894559384 -0.0025299907521470102 0.09565440829753587 0.005123957611240261 0.1378105056868866 0.16102633523504212
-0.021571390394878865 0.15525169406975442 0.01907835259097149 -0.04414404560129432 -0.0933332141443955 -0.16293278578854842 0.07329931187573861 0.0977557766650127

n_convs.0.weight f8 [32, 4, 3]
00000000: c58b 1bba 8950 bc3f 020e 57d0 fe38 d3bf
00000010: dda4 784a 8aa0 cabf 30e9 607f 6779 bbbf
00000020: e475 c668 2233 c63f d31f a14c a415 c23f
00000030: 27df 37ea 48d7 c63f 3e5e 8f31 e86a c1bf
00000040: aa28 94d1 ec49 c23f 21f5 f60a 0a3a d6bf
00000050: b007 0308 0bd3 cbbf 9ba1 d258 ba4b a9bf
00000060: cc31 a14a 470c d03f ba55 fc08 1d11 ccbf
00000070: b70d e6c7 9898 adbf ffa1 9d6f aa4e c83f
00000080: aa44 f458 073d cdbf 9ac8 7519 c8a3 c7bf
00000090: c8ce 4402 4ba1 a83f 2c7f b294 c518 c83f
000000a0: 152e 7b97 bf3a 8abf 9291 b568 7ab9 a5bf
000000b0: 250b 4ce3 4332 cf3f 49a2 7d6f 2821 b2bf
000000c0: 2afa 18de ba86 b93f 6124 d101 4e6c c5bf
000000d0: ac8c afc5 6fe9 ca3f 989a cbe9 edac c63f
000000e0: 14f3 65ee a745 bb3f d3c5 ae3e 8d03 d53f
000000f0: 179c 2974 097c a43f 2263 b90f c8eb b8bf
00000100: d9e4 7f20 2af9 8a3f 8712 a8a4 9733 9cbf
00000110: 30b3 c779 71c4 c3bf 9624 1f14 aac5 d33f
00000120: 3021 c997 06f6 c3bf a239 8ed2 0fc8 b73f
00000130: 613b ef45 85f6 cc3f e15e 6cc8 e8d3 bcbf
00000140: f21d 1998 317e 8e3f 4af2 dfb2 aa4d c7bf
00000150: c097 bb35 d766 b4bf 6eaa 794f c8b8 c33f
00000160: 30fa 6bb0 6570 cc3f 4dea 5510 2730 a03f
00000170: 1f14 ca51 ccd2 d23f e5b3 5777 e7c0 723f
00000180: d6e7 124b 3888 bb3f 18cb aee8 61c6 89bf
00000190: 3b01 0cfe 73b1 ccbf 0ae7 2edb 6569 b73f
000001a0: 3eb5 ee9a 3e9d c7bf 2858 306f 32f6 b03f
000001b0: ff4c 4cb7 5667 b43f 8ad5 3c22 c2a0 d13f
000001c0: 7103 223e 3b95 cbbf 2d2a 80c3 6344 cbbf
000001d0: a434 2579 b0e9 c9bf c3aa 78bf 0d7e d03f
000001e0: 454f 8b3a 7502 7cbf c1d9 8c76 cdf0 953f
000001f0: 6ee1 3936 72ba 8dbf 4ce1 076f 522f b43f
00000200: 1064 0c2c d29e a63f 0da8 172e 2378 8cbf
00000210: 8b71 6f5e 18ce a63f 1c7b 0d39 e2e4 bf3f
00000220: cf22 18e5 216e a7bf f6a6 4d50 64d2 c4bf
00000230: 6524 9a97 948a b6bf 0fd6 4503 d58d d0bf
00000240: 02bd 8edb 849c c3bf 4ece 75d0 4069 cc3f
00000250: 7529 f9d3 8ae1 bebf 3f1a e42f 685f c5bf
00000260: 85ac 9262 24b3 d3bf 7cd7 149b 0934 bebf
00000270: 84cf 6cb7 e852 833f 5ebf 8f9f dcaa d3bf
00000280: 26f3 a0b8 370e d03f 8320 fb75 3b18 bbbf
00000290: d853 9a7d 08fd ce3f 333d 36bd 2331 b03f
000002a0: 5990 91cd 9ac0 fe94 2f05 aede 6c2e c313
000002b0: cec2 fa54 8004 028e 06a8 fc0e 18e0 3293
000002c0: 53da 1187 c875 bf91 20a7 1283 5c91 9390
000002d0: d8fb ec32 9e7c 4a91 797e ea7c b0e1 c58d
000002e0: d98e 1936 8142 438e 5e25 b7ce c153 8f93
000002f0: a0bc 9623 43bb 7e14 8971 eb1b 2fca 5392
00000300: 71cb 403b 9ca9 b73f b65d 8705 06dc d2bf
00000310: f24c 7f2c e94e a33f eecb 4aaa 0710 a33f
00000320: 3b59 36e8 9d18 c7bf 368f 74da dea7 cbbf
00000330: 6d81 e59b 5700 bb3f 3ec3 d1de 6f6b c4bf
00000340: 59b8 b7ed 744f 87bf 346f 582e c73b cc3f
00000350: e060 1511 24ac c03f 69f8 d5d4 3f84 b93f
00000360: ddca 1115 6b4e 83bf eb1f c287 cf20 bc3f
00000370: 66a2 b020 747d cebf 03ab b661 fc98 c0bf
00000380: 8841 1c1f 2938 d6bf da0e 7bff 28f5 c1bf
00000390: 3d7e bcbd 2750 cc3f bb11 a819 53fd b23f
000003a0: 5d7b 8d7c 6a10 bd3f 69e7 7d5a e657 d8bf
000003b0: f285 8668 930b d13f cb02 501f 88fa c0bf
000003c0: fa6b 5122 b066 bd3f e974 9cf1 583e bc3f
000003d0: 9774 763f b293 d23f 4a12 7654 085a d8bf
000003e0: 5d69 425a 1261 c43f cbe0 3514 50c1 d1bf
000003f0: 08c4 aef1 b78f c33f 0adf fd1e de48 d0bf
00000400: c7cc 4251 b200 c23f 0c30 4d73 8843 c03f
00000410: ee4c 4f24 0523 ba3f 6f58 b051 fea6 d2bf
00000420: edb8 15dc 84a6 843f 4e0a 5517 b77b c13f
00000430: f1eb d51f ccb9 b83f 4435 203d 6e01 943f
00000440: 90bd 2386 1497 a9bf a6b6 f336 9775 c6bf
00000450: 00da 8b8b b164 c9bf e0ac 2944 ea73 b7bf
00000460: b025 2bc6 fc0f d1bf 4746 a626 7acd c13f
00000470: 336b 5aa1 6dc0 ca3f 0cca 5d6b 2230 d33f
00000480: 20f3 b36b b49c cfbf ed26 6020 9b18 cfbf
00000490: 6104 a4da aaad a63f 173c 525c b6dd bf3f
000004a0: 4aeb 2756 9781 cc3f cc9f c47f c6e8 b0bf
000004b0: 1210 4402 03cd cbbf 69a0 85bb 5685 b6bf
000004c0: 5980 9a8a 8066 c53f dd64 2ebd 8efd babf
000004d0: a459 bbcd 9b97 a83f 21b4 c50e f52b aebf
000004e0: 9fc1 2668 5b98 cf3f 2d71 9cbe 7de5 c93f
000004f0: 1aab 1478 7048 913f 0657 4e4d 057d cb3f
00000500: c165 2cba eff2 8c3f f1b6 5a6c 3b36 c0bf
00000510: d1c3 8213 2a07 b9bf 5f9d f6ee 5168 d13f
00000520: 11d2 6d7d c75b bb3f e32d 1bbd d0ce b9bf
00000530: b30a 29aa a6b7 c5bf 2160 5e5b a459 963f
00000540: 94b1 353a 4405 d23f e9f5 f312 66c4 d0bf
00000550: dcf4 6e78 828d c63f f19a 4255 68a8 a13f
00000560: f024 6c40 0569 cebf f45a e7da 52b8 c3bf
00000570: 4839 cce8 b359 c73f ea70 b5ce cd83 c8bf
00000580: 9592 45e3 ccea d23f 58c3 a450 c356 b83f
00000590: c1ca 5496 aeb1 923f 01bf 8a74 18f6 c7bf
000005a0: a699 794e 8f06 ae3f 189a b47d af08 d2bf
000005b0: 5c05 c21b eb5a cdbf 8e7e 4fd9 caad afbf
000005c0: 17b7 d4c3 1860 c8bf 1c0a 18c5 3504 c0bf
000005d0: ba5e dc71 ba76 babf 49a2 5c10 c051 98bf
000005e0: 0284 e3b1 f3c9 bc3f 93eb 41c2 0aad abbf
000005f0: 681e fec6 c818 d33f b667 04e2 4666 d0bf
00000600: 6190 6038 3e9a b4bf 2a46 77b5 57a8 c7bf
00000610: 8fa1 b39a f10a c33f 559c 72e2 f385 c1bf
00000620: 0da7 cb14 638d d3bf 201e 2139 efc8 c13f
00000630: 80a7 e39c 32d6 bbbf b861 b1f0 af7e b03f
00000640: 8c30 a602 ed23 c1bf 3f2a 0306 d8a7 bd3f
00000650: c5d4 14b8 52b0 cfbf 3f24 7968 efc2 d0bf
00000660: 9879 4006 5271 96bf 3762 61ad 99f7 d4bf
00000670: 8950 45bd 66bf 9b3f 0923 564b 4a12 d0bf
00000680: 2dba 15bd 0e8b d0bf ae77 d9b2 13ec 71bf
00000690: 0c64 437c 6613 95bf 1fb6 1bfd ae64 c7bf
000006a0: c326 6ceb ce89 3fbf c223 b939 3290 d3bf
000006b0: df0d 868c 13d6 c83f 850f 5e41 6210 c83f
000006c0: c0dd 2de5 f42d d1bf 15e5 555c fb44 ae3f
000006d0: 4ce4 93e4 3e14 c8bf ae05 8a75 f707 b6bf
000006e0: 3bae 1df2 e3f7 c83f a197 76d0 170b a53f
000006f0: 42fa d75c e006 cbbf 8b6f 6ebc 16cc c83f
00000700: d6ac 24fb 0e0f b53f 6dfa 6b7b 9b7b a93f
00000710: a43f a204 11f7 c4bf 011c 4aec 135d b03f
00000720: 4c2d 04d7 ca82 d0bf 3785 a1fb d1b1 b83f
00000730: 9000 93f8 e48d bebf 16e8 b069 0491 c0bf
00000740: a44d 191e 0377 b13f e0a4 bb46 c5d6 cc3f
00000750: 7461 427d 99aa c0bf 3d48 3951 d533 c33f
00000760: ed72 c575 331a b73f 6c9b 31cb 5d84 d53f
00000770: 430d 3fdf e919 84bf 1a8c 5252 1925 b93f
00000780: cce3 db7d 0d71 d03f 9ebb 671f 9aa5 18bf
00000790: 5ec7 2b13 48da c73f 6c99 723d 28b2 cebf
000007a0: 01ad 6015 c5aa b4bf 90dc b63e 8862 d2bf
000007b0: 5090 97bf ade4 a13f def0 321d da93 c73f
000007c0: 22d3 60e1 36f3 8c3f 31e0 a363 8a78 d8bf
000007d0: f342 2bb4 935f d4bf 5873 9712 7223 d5bf
000007e0: 5c72 faf4 0dd2 7c3f 9979 effb 3100 babf
000007f0: 4141 7138 62c2 a03f 5c1c 13e4 f7ae c1bf
0.11060391229288687 -0.30035372110089054 -0.20802429806034342 -0.10732123241260605 0.17343549838999117 0.14128545514745258 0.1784449714320939 -0.13607504291461398
0.1428810141881674 -0.34729243345994304 -0.21737802401736195 -0.049405883162140195 0.250749419098409 -0.21927226008180672 -0.057804846193018226 0.1899006886481089
-0.22842494815316644 -0.18468571894806446 0.04810556795783111 0.18825597534759575 -0.012807366190279482 -0.042430711061373874 0.2437214717720845 -0.07081845018331835
0.09971206590942275 -0.16736769760817352 0.21024891998886142 0.17715238490855678 0.10653161592740573 0.3283417808662225 0.040008826665875734 -0.09734774001971094
0.013170556179817815 -0.02754055922015877 -0.1544324726704871 0.308939475679446 -0.15594561015519437 0.0928964509059598 0.22627321162004946 -0.11260847943446663
0.014889132932821323 -0.18205770238991398 -0.07969422399364046 0.15407661324146055 0.22218009104104075 0.031617375129787996 0.2941160963749229 0.004578498997472179
0.10754730065210025 -0.012585415757575144 -0.22416543869622693 0.09145199395325335 -0.18448622288762268 0.06625666822978415 0.07970182395029111 0.27543691009062654
-0.2154916814215784 -0.21302458806924687 -0.20244413295077834 0.2576937074506242 -0.006838281559527652 0.021426401482324445 -0.01451577404007828 0.0788470765181774
0.04418045795154779 -0.01390101894772402 0.044541131522893705 0.12458623783957673 -0.04576211854516076 -0.16267064972935658 -0.08805206967567043 -0.25865674323662885
-0.1532140800531821 0.22196207216949165 -0.12062900233391878 -0.16697408998898486 -0.3078089678408065 -0.1179815295807582 0.009435480210960419 -0.30730357725314217
0.25086777715823627 -0.10583850508112573 0.24209695942832243 0.06324981088095143 -1.496654239847807e-207 1.78054200612784e-213 -3.377614013050615e-241 -3.4221459591459474e-216
-3.3997204006013283e-223 -8.066510464283359e-229 -2.2361584158497122e-225 -2.5637316145969407e-242 -5.776767372734207e-240 -1.8174996985684265e-214 5.8423382561427325e-210 -2.1898994676315936e-220
0.09243179747208587 -0.29467917003554633 0.03771141689471759 0.03723167375337498 -0.18043874586573758 -0.21606050173533625 0.10547397190157932 -0.15952871684887698
-0.011382020477835807 0.22057428133927603 0.13025332292705283 0.0996742148035722 -0.009426914768686451 0.10987565102016077 -0.23820354076567013 -0.12966875811738285
-0.34717777288553764 -0.14029419397967652 0.22119614376514277 0.07417792679195305 0.11353173771702303 -0.38036497914401096 0.2663315315968183 -0.1326456215756678
0.11484814489215003 0.11032634638509688 0.2902646655800906 -0.3804951500717705 0.15921239287565472 -0.277423877465037 0.15282344151413008 -0.254447489037816
0.14064625709361264 0.12706094388920552 0.10209686409443794 -0.2914424703352613 0.010083234754997917 0.13658798827425972 0.09658504273640724 0.01953670738298753
-0.04998077523657252 -0.1754635828323689 -0.19838542283805793 -0.09161247409945217 -0.26660079338452203 0.1390831650465307 0.20899744394849903 0.2998128937244082
-0.2469697500127035 -0.24293841439094113 0.04429372710183866 0.12447681192337288 0.2227048083003303 -0.06605187053048595 -0.2171939621986217 -0.08797208860562623
0.16719061630010648 -0.10543148153955735 0.048031681884526806 -0.05892911725354844 0.24683706841962036 0.20231601531202995 0.016877896622797463 0.2147528293104914
0.014135239476263163 -0.12665503302326145 -0.09776556946123029 0.27199219070685915 0.10686919033270949 -0.10081200234269931 -0.16966708477601386 0.021826332165432064
0.28157144245667465 -0.26198722697139815 0.17619353180444974 0.03448797264836923 -0.23757997174860845 -0.1540626114717366 0.1824250113208541 -0.19152233689499748
0.29558107561596475 0.09507389754140882 0.018255927968491962 -0.18719773951078625 0.05864379723498141 -0.2817801215736906 -0.22933710914007122 -0.06187280562130325
-0.19043263971382693 -0.12512848018384737 -0.10337415008359133 -0.023749352453849935 0.11245654194819113 -0.0540545808916796 0.2983877127921688 -0.2562424857329647
-0.08047856212994155 -0.1848249088348422 0.14877147725861703 -0.13690041119591237 -0.3055045798379162 0.13894453324813671 -0.10873714762024456 0.0644330942753929
-0.1339088690696183 0.11584234377657142 -0.24756845463131164 -0.26189789965116356 -0.021916658050139398 -0.3276123231094376 0.027097325613184373 -0.25111634594991067
-0.2584874006778673 -0.0043755311467900525 -0.020581818899561496 -0.1827601180915943 -0.00048123647449980713 -0.30567603718787606 0.19403309213167483 0.18799999419945493
-0.26842996960428067 0.059120039960314376 -0.18811784897823924 -0.08605906123741278 0.19506501504962323 0.04110025806157514 -0.21114735158330872 0.19372829628707353
0.08226102477481176 0.04977117425550124 -0.163789870512571 0.06392025488649723 -0.2579829311150277 0.09646332162221403 -0.11935263699251863 -0.12942557488150958
0.06822223172030434 0.22530427888640414 -0.13020628563095793 0.15001932588580927 0.09024354577327261 0.33620400279180873 -0.009815051198421748 0.09822233447862097
0.2569001893130547 -9.402039709248278e-05 0.18634892402729525 -0.23981192589162548 -0.0807307412330154 -0.28726392864650396 0.03494780505914774 0.18419958520633534
0.014135769608495222 -0.3823572133110274 -0.31833355517032585 -0.33028842750154785 0.007036261100122756 -0.10156547928588679 0.03273302973741688 -0.13815210949380485

n_convs.0.bias f8 [32]
00000000: c860 fdf7 02ab cc3f 0a57 5f66 e306 95bf
00000010: 5188 6296 3641 ccbf d0b3 6418 ec5a c3bf
00000020: 1b93 546f c5bc c5bf 4860 5757 96f4 a73f
00000030: 0360 ebf8 d8d9 a53f 4fa8 e241 3808 fb94
00000040: 97a6 69d0 2716 b23f 20da 7bbd 5907 c13f
00000050: 07b6 8290 49ac 9fbf f792 1482 6f50 90bf
00000060: b238 fc67 bc6e c63f 231a 24c0 aaeb c8bf
00000070: d230 433f 087c 97bf 7c2b 8e79 25c9 c63f
00000080: c5ea 4f92 b57d bc3f 4971 edd1 5753 cf3f
00000090: b483 f8f8 0bb1 bf3f c3b3 9944 0291 bebf
000000a0: 0042 5c2a c936 cc3f da85 1954 33c2 a33f
000000b0: c03b b315 92c9 b7bf 92af 8162 b8e5 a93f
000000c0: 0461 257a b35a c6bf ec5c d682 db22 a9bf
000000d0: bcb2 dfa2 8889 c93f e2f4 0eee 397c 9cbf
000000e0: 3286 0190 b603 acbf 45a1 0620 f06f b7bf
000000f0: 6568 7a69 3d36 b93f e39e dc0a a1d6 a9bf
0.22396885975718406 -0.020534089206043972 -0.2207401499081834 -0.15121222678263146 -0.16982334075978475 0.0467879277818502 0.042677669892952984 -1.3155971413769158e-207
0.07065056646538391 0.1330368209089139 -0.030930661626078073 -0.01593183738181644 0.1752543933620863 -0.19469198591123513 -0.022934082852587086 0.1780135005504596
0.11129317113947497 0.2447309279476804 0.12379526928317724 -0.11940015959562715 0.22042193001153976 0.03859100724799776 -0.09291947393215505 0.05058075144265141
-0.1746429773727486 -0.04909406635413824 0.19950969651053707 -0.027817635683949578 -0.05471582897076778 -0.0915517881572941 0.09848388505125312 -0.050465614868071794

n_convs.1.weight f8 [64, 32, 5]
00000000: 4623 a4a0 e865 b1bf 75d4 3573 fa63 a93f
00000010: 4cde 7fd2 ffb5 3dbf 1b9e f6e5 e5d4 b5bf
00000020: e3d1 0447 d4a0 a13f 2bf2 0419 23b8 ad3f
00000030: ad43 aa95 e238 a8bf 9df2 c7c2 d4bc b93f
00000040: 78be aede 7b5a babf 38fd d2b7 64fd 79bf
00000050: af9a c358 05d5 bebf 9255 4eca 69fa 773f
00000060: 18fd d5b3 95b9 c5bf 06d2 36cc 0e03 95bf
00000070: 42d4 edab 7af9 9c3f 82e8 78af baf3 96bf
00000080: 2b2c bc8a 1a79 9fbf f651 0849 2cbb b63f
00000090: b9a6 d332 f00f 69bf c18e 9a67 d564 4fbf
000000a0: 3bd1 a4d6 fab2 a1bf 2a5b 2e56 d7c4 a3bf
000000b0: cf66 2738 9ca2 b1bf 62c3 52dc 8a12 903f
000000c0: 4767 ee6e a539 a13f ea0d aa71 23b0 92bf
000000d0: 33f4 7d1d ac2a 883f ccc7 633c c2b6 7e3f
000000e0: aa93 1211 3520 883f 5c17 28b9 0e08 abbf
000000f0: 29b2 bdb9 3c85 b53f 82b3 cddd 159f 403f
00000100: 93c9 b419 6490 a83f d3de 64a1 6cef 9f3f
00000110: 92b4 6870 02b1 aa3f 1c28 44fa 12ff 798d
00000120: cde6 ec47 d5f7 4a0d ce2d 7a3b 02eb 1a10
00000130: e81e 76ce 44e9 9e0e a3b4 ab65 9d84 3610
00000140: af39 b136 4b9a 803f 66e8 0ea1 32bd a5bf
00000150: fe6d 2bdc bf07 b93f 416a 4477 dc81 bbbf
00000160: ac6a 250e 5e33 963f 09aa 1093 6504 b13f
00000170: f108 6337 23db 9f3f 8e53 6bab adfe 963f
00000180: 5538 4173 c34b 7e3f ded2 c83b c7aa 3ebf
00000190: 37d8 1691 5fbb 62bf 0ece 89c2 1531 9fbf
000001a0: 6743 b867 34fb 76bf ad38 f9df 4439 a2bf
000001b0: 1754 8474 8204 a83f b171 f620 9c17 93bf
000001c0: 17d1 8fab 5e26 b2bf 5098 839e b288 b2bf
000001d0: 3786 4a73 2f52 9dbf 17b8 e795 bd4a a43f
000001e0: c84b b4e0 3e08 a7bf cc51 9bee 857f b2bf
000001f0: a80f f749 d3f9 9dbf fa38 a4ca ebbb c5bf
00000200: a079 ce13 809e afbf 1e13 a921 5f30 b43f
00000210: 8275 be2a 5a3f a83f 8178 b466 8143 9dbf
00000220: 9cc5 9417 e1d0 b9bf 5635 ca2c eb17 953f
00000230: 661b 69ec 27b0 703f b33d 1328 994c 9e3f
00000240: 4a14 bff9 8080 b13f 189b bfa7 7696 bebf
00000250: 29bb ccad b49c 2c3f b7a8 60b9 2f63 a2bf
00000260: 188b 72a4 456f 9c3f 9059 7c29 f4ef 8bbf
00000270: 08f2 b786 2347 cbbf 036f ce4a 758f b1bf
00000280: b1fa e475 680a aa3f a0c3 3a65 39cd c0bf
00000290: 4986 2bdc 7f77 b53f 6325 07c8 a722 acbf
000002a0: d670 7be9 c10a b1bf e660 ba15 ec4b b23f
000002b0: f08f 74c9 443a 84bf 881f 17d0 5463 b13f
000002c0: fa86 f1fe 701f 9ebf d486 e398 935b a43f
000002d0: 98aa 84da dfbc 923f 43bf 4425 6461 91bf
000002e0: b52a b9b5 7e4a 6cbf 6faa 7dc1 6a78 a13f
000002f0: 0518 e081 6f5f b5bf a3d2 5b63 e180 ad3f
00000300: 900c c40a 4903 853f a6b8 f8f2 b260 78bf
00000310: dfac e772 a359 90bf c85f bee8 31d0 cbbf
00000320: 8a9a a7bf 671d 9b3f 0fd2 ef19 24c4 943f
00000330: 8a3d 6c22 76da b23f 095b 4066 658a a4bf
00000340: 3f2d ef8a 0f6f 883f c927 def4 15c0 963f
00000350: c702 81bd 7651 9e3f efa1 46a8 bb7e 9c3f
00000360: fa87 89db 1e13 adbf 9b72 70a0 2831 aebf
00000370: 2c3b a3fc afe1 a83f 5a3e 8c5d 8035 a13f
00000380: 934c ab06 e755 b63f 3f61 9137 ec1a a3bf
00000390: 1f8d 8e3d ec15 a4bf 65d5 9c22 edda 8e3f
000003a0: 4618 d996 8076 9f3f 7249 7732 4ab4 b03f
000003b0: 19b7 805a 41f6 aebf 4fd1 de93 ad16 ad3f
000003c0: e7f6 fbd9 59df aabf 0e20 61ba 69b6 a6bf
000003d0: 4b02 5cde 4fd3 c4bf 451f 3bb4 aec3 b5bf
000003e0: 01f2 fb64 5d0a a1bf 3963 8c66 8d2d 9c3f
000003f0: 39b1 1bed faa1 a13f 996d 3772 30e7 843f
00000400: 9f9d 0b48 0b34 b93f 8e48 e29e 2ce3 6e3f
00000410: 1b25 36eb a847 b03f 25ba e15d 307c 703f
00000420: e6d4 7cfa 1044 a7bf c9ff 733e ae10 afbf
00000430: f46c 6bdb 6739 973f 41c2 2740 787e 90bf
00000440: 3fb7 61b8 e2d8 aebf e645 7538 1075 a13f
00000450: 1a3e bfdf f726 a9bf 1268 dbd3 890d b8bf
00000460: f523 9440 c1e5 93bf 211a 0fc2 063f bebf
00000470: 9802 79ff 3cdf 9bbf dddf c6f7 f5fb b8bf
00000480: 74e1 49f3 9fa4 58bf 97e0 eff3 8291 a23f
00000490: b3a3 4ac2 4c23 b23f a215 7151 bbc9 88bf
000004a0: 16c4 e4b7 06e5 a43f f935 ea71 18e5 ae3f
000004b0: 5ffa 76ca fcb5 903f 66c6 7c13 9fae 793f
000004c0: ab44 ed6a 1605 a63f 3a1b 4803 5177 cabf
000004d0: 6e3a 12bf e717 bebf b758 024e 1c6a 96bf
000004e0: 5fe9 dffc 9031 8f3f 6b00 b659 5a54 b6bf
000004f0: 696f f891 5899 87bf c4a6 14e4 a4b4 9dbf
00000500: 47c2 a4d1 d7e2 b2bf 1243 a64c 323d 92bf
00000510: e500 f7c8 d523 93bf 7482 0f78 5401 933f
00000520: 5c90 b0d1 7fb0 9f3f 4b61 c8e1 7c9a a5bf
00000530: 5969 be2e 8423 adbf 4aaa 3e02 0b9c a43f
00000540: 9409 9744 ea5a acbf 6eaa 9862 f5ea aebf
00000550: 1cb3 8368 dfd2 753f b14a 055a 4e35 aa3f
00000560: f322 bdff d930 b53f baab 094b bb43 b83f
00000570: 1408 625d 3d49 ba3f 9a72 c888 43bf abbf
00000580: fd7e 3594 357b 8dbf 85a4 3f03 6885 acbf
00000590: 2467 3388 b181 843f 9f14 7f6d 5cfd adbf
000005a0: 8eda 2cdb 0aa3 983f 9f5d 003f 5e62 a23f
000005b0: 0212 a83e 1bee b33f c264 b879 061d a1bf
000005c0: 736a 5336 5b54 b23f f4f8 52ee 4c6f a83f
000005d0: 3838 2a26 bc59 a43f cd63 11f5 fa08 b63f
000005e0: e5de b170 5012 87bf 5b55 a547 52b4 b1bf
000005f0: 0975 b42f 070a b2bf eead 5767 0569 bfbf
00000600: 1196 686d 3904 b4bf 6618 be54 cc2a 8cbf
00000610: 82b5 ac98 3ec0 7bbf 3900 6c99 f6ee c80c
00000620: bd20 961f 9bdd fd8b cfde 7bff 98c6 0510
00000630: 9c5c f992 23e1 978c db33 a2b0 c18f 4a0e
00000640: 6b30 92ad 3716 aabf b438 af71 2387 c0bf
00000650: 3df2 2a95 d363 bbbf 4920 2976 e06e b1bf
00000660: 4543 1a5c 5dba 87bf 309c 5d3f c672 afbf
00000670: 133c 6524 538a b3bf 687e 74e3 8f7d afbf
00000680: 8133 4212 d0c2 a63f eab4 4d81 435c acbf
00000690: 4fce a58a 319b b2bf 368c 2af9 ca67 a33f
000006a0: fa5b 86b3 2f3f a6bf 8620 a57d 6b6e a03f
000006b0: 89ef 117d 3a49 95bf 44ee 4ca0 b194 a8bf
000006c0: 5787 c8d4 7b73 923f 5d23 d533 e6b1 8e3f
000006d0: 1cb4 b0e1 8aa5 8dbf 68fe a2f3 3255 a73f
000006e0: 6064 d293 06ca a13f 1258 586c 2ed3 b23f
000006f0: 91e1 1f42 41de 9fbf 70ff 6bdc 8789 933f
00000700: ff06 ba06 c7a1 a83f 2b28 b3a6 17ff 913f
00000710: f2d1 0204 ac2b a03f 1a97 a3d7 6140 aabf
00000720: b682 0c1e 51fe aa3f cf1d d2f6 7079 993f
00000730: 1aad 56b9 e25a b1bf 567a d2b9 cf9e abbf
00000740: e461 60d5 aa71 a3bf 6cec 6ee4 a9d3 a13f
00000750: 8e0c 2441 c031 b1bf 17d0 4daf ccbb b6bf
00000760: 0d9d ec94 5932 9fbf 7fd6 cc8c 2f13 a4bf
00000770: 37e7 6752 4a58 abbf d8fc 848a 6cb0 a03f
00000780: be5b 2d13 466f 833f e597 2290 2d63 bbbf
00000790: 9bc9 08b0 e952 a8bf 4755 740f bfb1 bcbf
000007a0: c2ed bc62 8817 b0bf 9972 c6a0 7ee5 bcbf
000007b0: 0890 6af4 c5c7 babf b04b 241a 6167 b4bf
000007c0: 4d24 95fb cea4 b6bf 2ad4 cfb0 bc97 af3f
000007d0: 7ba2 ad8b 94c4 89bf d4af cd40 8401 b13f
000007e0: 7b41 2c74 cbd0 973f 3971 2d7f 838e 9a3f
000007f0: 175e 8b17 2fe4 873f 1f8a 94ac 4705 9dbf
-0.06796125337508582 0.04959089905143169 -0.00045335288677914444 -0.08527981628741836 0.034430154485025864 0.05804547958766578 -0.04730899884191984 0.10053758387943863
-0.10294317423426402 -0.006345170431074458 -0.12043794076053403 0.005854047053522564 -0.16972609787988158 -0.020519477094881132 0.028295437568392375 -0.02241412826536094
-0.03073541137477435 0.08879353316326175 -0.0030593577745222336 -0.0009580652251383813 -0.03456863279498853 -0.03861115386023635 -0.06888748522706155 0.015695733735529578
0.03364293078557395 -0.01825003987552335 0.01180014100077118 0.007498511060690615 0.011780180533898694 -0.052795848943829354 0.08406428847019555 0.0005072457093838608
0.047976616037334406 0.031186768866261993 0.05213172552280655 -9.518235655679165e-244 1.2342520412022075e-244 4.334571517425735e-231 2.966875992473453e-238 1.4504195990759972e-230
0.008106792074752926 -0.042459089432171734 0.09777449727283025 -0.10745027457998281 0.02168032609311392 0.06647333946663293 0.031109380965752945 0.022455895984268497
0.0073964724325162505 -0.00046794284915856004 -0.0022866121805362976 -0.03046068191402012 -0.005610661227834913 -0.03559317812015315 0.046909405444388756 -0.018644752036935667
-0.07089797676582453 -0.07239834184619665 -0.028633824741183225 0.039632725285500374 -0.044984784059259264 -0.0722583491836481 -0.029273320569486977 -0.16979739565471857
-0.06175613633898824 0.07886309215343743 0.04735833904053789 -0.028577825444806585 -0.10084349466048653 0.020599054917103864 0.0040742454062357766 0.029589074202531495
0.06836706254314709 -0.11948339076444048 0.0002182932429603765 -0.03591298234853595 0.02776821914870728 -0.013641269222301827 -0.21310848310521657 -0.06859524799659415
0.05086065711156119 -0.1312629455838108 0.08385466695065093 -0.054951899688215254 -0.06657039594887534 0.07147098093480828 -0.009876763723305232 0.06792192535715291
-0.029416814384950897 0.03976117364233081 0.01829862376431865 -0.016973080420199748 -0.00345349071520692 0.03412183391522638 -0.08348748131547275 0.05762390458941027
0.010260172501608517 -0.0059515943717497796 -0.015966943634265426 -0.2172911058848952 0.026479359696077988 0.02027946861558588 0.07364595737839444 -0.040118378383502025
0.011930581500470992 0.022217124052566626 0.029607634846118083 0.027827198167559016 -0.05678650312326279 -0.058968801102513534 0.048596858586839126 0.03361130849782219
0.08724826729603512 -0.037314779074849806 -0.03922975779939918 0.015066006296914744 0.030725487906487346 0.06525100452498636 -0.06047252874155457 0.0568136446958386
-0.05248528276386626 -0.0443604507459555 -0.1626987300624186 -0.08501712703866555 -0.03328220231739821 0.027517518409783313 0.034438935703152436 0.010206583486186459
0.0984503794567133 0.00377043452233134 0.06359344236820556 0.004024685795327919 -0.045441179825880515 -0.06067413818709572 0.022679922835647084 -0.016107443729142416
-0.06024845600846484 0.03409624756990208 -0.04912542921340109 -0.09395657942096161 -0.019431132856912076 -0.11814920652168627 -0.027218773930374057 -0.09759461688270173
-0.0015040933623407778 0.03626641490694842 0.07085113280721948 -0.012103522704033424 0.040809831569625185 0.060341609864831676 0.016319227082698947 0.0062700475607911695
0.043007565071669994 -0.20676624927747317 -0.11755226530861204 -0.02188915468340077 0.015231259076234847 -0.08722462358673659 -0.01152295299021207 -0.02900941507429057
-0.07377385013820358 -0.017811571052848647 -0.01869138754932544 0.01855976088325169 0.030946728871768733 -0.04219427353035828 -0.05691159315684286 0.04025301363374874
-0.05538112723617697 -0.060386341367423366 0.005328056992067311 0.05118794297108787 0.08277666562674905 0.09478350240685432 0.10268004922730284 -0.05419360203470554
-0.014395159326056279 -0.055705309292371864 0.010012995690363242 -0.05857361637712554 0.02405945742358511 0.03590673941669852 0.07785196571064293 -0.03342457042544701
0.07159967495264556 0.04772415551404832 0.03974712339287162 0.08607452853301752 -0.011265400351688945 -0.06915773629346715 -0.07046551623030352 -0.12269624493608663
-0.07818945809466295 -0.01375350602735299 -0.00677513553345699 4.4575471859552764e-247 -6.517718068492644e-251 1.7532623429602646e-231 -5.336393965005008e-248 7.966854148814606e-240
-0.05095075601374862 -0.1291240983104608 -0.10699198142806039 -0.06809809574872462 -0.011585931180236772 -0.06142253421312949 -0.07632941855011692 -0.06150483752776098
0.04445505354769975 -0.055391416105388405 -0.0726805652137099 0.03790125171260465 -0.04345082346406311 0.0320924368739393 -0.020787156947775585 -0.04800944406312316
0.018018660413992773 0.01498775335007146 -0.014475903522987159 0.045571892014319826 0.03474445871797438 0.0735348715319051 -0.031121272717400898 0.019079325512393053
0.04810926396477377 0.01757466273264911 0.03158319043123815 -0.05127244717895803 0.052721533697199716 0.024877324166053868 -0.06779305481784484 -0.05394601004922055
-0.03797658781713034 0.034817990431712825 -0.06716538992263762 -0.0888030937183547 -0.030465507235160994 -0.03920887559654051 -0.053407976683912776 0.032596008214108074
0.0094895815470134 -0.10698208588527754 -0.04750757478577158 -0.1120871937494786 -0.06285908136935972 -0.11287681031394427 -0.10461079804605344 -0.07970244301058815
-0.08845227853920896 0.06170453699443386 -0.012581978333132007 0.06642939169040513 0.023257426229123617 0.025934271466540457 0.01166569510080166 -0.028340454014264545

n_convs.1.bias f8 [64]
00000000: 5d0d e898 2cbd 88bf 699d 5a0b d4a8 a83f
00000010: bb49 243b 16dc 9cbf e29c 0541 09d9 b33f
00000020: 3117 d575 9cb9 703f 275d 7e98 4a98 aabf
00000030: 98d6 719b 78d8 b23f 0c08 f423 b15f 9dbf
00000040: 6b2b 1851 0ba3 b83f 281a 8e20 397e a3bf
00000050: 7b37 8bab c9b3 8a3f 9c53 c778 ff10 a23f
00000060: 458b b3ed 75e6 a33f 0899 871c 22b8 b23f
00000070: a929 734b e719 ac3f c48a 06bb 6a83 943f
00000080: eb75 b97a f37f 91bf c176 162a 0bb0 a1bf
00000090: 7d6d 6788 201e b83f fe92 9d95 3b16 7cbf
000000a0: 34aa 24b4 d57b a73f ba98 7652 0d31 9f3f
000000b0: ed01 752b c64d a83f 3739 57ad 8f10 ae3f
000000c0: bb87 5583 8951 96bf 50b3 ab5d 24bc 78bf
000000d0: d5a8 66fe 9083 b13f ba6d 4fa2 6054 b63f
000000e0: 161f 6c48 b22d b03f 13b0 48f4 c638 b53f
000000f0: 36ee b476 257a a0bf 15da ee4f c13d 93bf
00000100: f41d 4d69 2e49 a9bf 7b1b 7162 2edc 9f3f
00000110: 5642 8b31 4a89 963f 86da 8850 708e 923f
00000120: a3a0 88f1 2037 a13f 9619 4f6f 7186 91bf
00000130: 33b5 a20c 131f b83f 8914 c6a3 9599 ae3f
00000140: d065 b94b bab5 9b3f 7e06 f503 57d3 95bf
00000150: bfba ace7 3aee 773f a386 b0ea c6bc 98bf
00000160: 9fdf f817 9f5c 783f 6292 9440 6fd8 5fbf
00000170: 9b85 9d22 44e6 ab3f 442d adef e7ba b03f
00000180: 74cd 340c ae00 a83f 9485 9a5b 64a2 9b3f
00000190: f401 ac47 9099 993f 6122 75df 2552 94bf
000001a0: 1ea7 ddf8 dabf 8c3f ee1c 4e59 3aea 893f
000001b0: 05b5 78fb c75f 853f a537 7759 b589 7f3f
000001c0: d428 d62a 778b 943f df19 9b5d e0d3 b73f
000001d0: 0bb8 5237 8313 a0bf e7c0 2df1 3f83 623f
000001e0: dd46 6bf6 dbeb 973f c69a 5038 3a71 a9bf
000001f0: 3abc 68b2 bcac a73f 8c79 24fd e397 aa3f
-0.012079571167311337 0.04816305769537161 -0.028183314666486697 0.07753045880746215 0.004083262608508596 -0.051943141093199245 0.0736155871871581 -0.028685348338520142
0.09623785714954429 -0.038072381233224484 0.013038230464555536 0.035285933965190724 0.0388676502859853 0.07312215038800585 0.05488512798327189 0.020032565751203504
-0.017089657178407974 -0.03454623116270517 0.09420970277954228 -0.006857140304280971 0.045866659393443504 0.030460556181105082 0.04746836929780671 0.05872010222411677
-0.021795414582250077 -0.006038801245023276 0.06841379366838692 0.08722499811795262 0.06319727199672473 0.08289760078395174 -0.03218190263802649 -0.01879026461002738
-0.04938645396628863 0.03111336208192082 0.022008094095158214 0.01812148562950224 0.033623723491758704 -0.01711442224384426 0.09422415789113785 0.05976550697509093
0.027060423728789307 -0.02131401025440604 0.00584242830045295 -0.024157627176583884 0.005947705707107702 -0.0019436918685836958 0.05449116632986347 0.06535195924259535
0.04688018702509114 0.026986663905181965 0.02499986112070647 -0.01984461952568706 0.014037810058386276 0.012653785562874078 0.01043659435444023 0.007699688335788856
0.02006326865151993 0.09307672772693064 -0.03139886904078545 0.0022598503941751893 0.023360669055199835 -0.04969198167264248 0.046239754465539254 0.051940083171063994
