models/CNN_Elongation_Model.pth (torch, 283151 bytes, 8 tensors)

conv1d.weight f8 [32, 12, 10]
-0.012096844050918288 0.018213183484431628 0.04180266652405013 0.011807553807792547 0.023934413775886287 -0.016097289004419934 0.06407838559835674 0.06789140317151417
0.04651877978092616 -0.06595169444642131 0.03624563298616043 -0.016599612740102482 0.04166600942570456 0.019532910264593025 -0.04174769874881179 -0.07016249510045094
0.06364950657722145 -0.08180843436651855 0.03573007566774244 -0.049920231666510405 -0.006185673658220704 -0.032136690098962695 -0.08263385507006844 0.06722274695300244
0.03700440063945264 0.04083183809501278 -0.030044159163651496 0.058292918976052946 0.015552835257078188 -0.05324638237683426 -0.08138131983216065 0.053010204693972385
-0.09557185267023485 0.0028301285407972385 -0.012658488606002672 -0.03083281056597213 0.05310029384435795 -0.02017285276504888 -0.06171578445124568 0.03488008844413668
0.05233610997233881 -0.032995922849694825 0.059412981060109095 0.04739425188706631 0.032930598224218316 -0.0165246722719489 0.023963173611031445 0.08735801977783147
-0.04942596151873167 0.07375949660329521 -0.008309243281306203 0.028113394375865686 -0.09527006387927628 0.06612378462352066 0.049611322858335985 -0.08293052610031208
0.06521563822707606 0.07043847556690079 0.015458231734271615 -0.007360629828003434 0.015101535108176665 0.022094057702229816 -0.016465533478008283 -0.03795894831286334
-0.08730237395850958 -0.06880643118259483 0.06687551342606898 0.012799281774772273 -0.006467053035631251 0.035705302703259646 -0.08364993292670952 0.08052732382405621
-0.0026052126531831182 -0.027023765110568823 -0.05995913205454118 0.0035400424058696076 0.011149154727938477 0.003192642227076635 0.030948187926526642 0.009140857334143384
0.07380531770262591 0.01037498362240133 0.0011854458076894186 -0.009539149273805945 -0.06432811755717423 -0.02042270789269489 0.06952222808794009 -0.07221783892929362
-0.0470865821169203 0.04268183432901605 -0.00045377754660566014 0.028317055433132614 0.02577822384730451 -0.025715047384701806 -0.06961243130605091 0.05330806738560356
0.08451348384199528 -0.010664706723992 -0.01800074496385919 0.06964355850550666 -0.05946636808707679 0.05867698437476995 0.1187070600144886 -0.058924560929014415
0.04009876290205551 -0.08755856989703495 0.08892771685664042 0.1389755223533303 0.01995655301768919 -0.05200785509154045 0.0076507766923628266 -0.07074182460377856
-0.04375361466809557 -0.010101331184450054 0.024193459850147415 0.012001808286789662 -0.0456405296084916 -0.05957930579847865 -0.05266931973963407 0.0702858889474378
0.049782586614654935 -0.007978747628880145 -0.025344626902837748 0.034156394936854725 -0.0008802348337992615 -0.09082154250808586 0.08712020308712892 -0.009311423808476852
-0.023688389274402304 0.06926082880834948 0.045600564923762535 0.09551090927151196 0.021730435444056475 0.038341991431624735 -0.047056587505446806 0.035436759332042954
-0.01842770361514676 0.021932447058371572 0.03424846719784135 0.06294656292563 -0.07110949640557845 -0.030364385612937632 0.07192990436854142 -0.08837657096657153
-0.09755043941418363 0.0008145514009413612 0.03795764209031336 0.009830310123488872 -0.07507755121504502 -0.0693074687350816 0.03917991085242005 0.03593000555159741
0.06426534977939843 0.0037173632510730365 0.0531908359310984 -0.05156302056103016 -0.05761758614911283 -0.09080620121401108 -0.026530007674326898 0.040881232823688704
-0.06669711048305202 -0.03296914669687182 -0.03962860014045056 0.03694470862535757 -0.021777172249954034 0.0755532247481312 0.02197519520666246 0.0871704435601059
-0.02226627690115704 0.0701533531806263 0.07344986523722231 0.024649810015073947 -0.06551274677406324 -0.01619175129573478 -0.0199331742108656 0.04965474892848822
-0.03577274121663168 -0.019604184249485478 -0.02265518154921131 0.0012971597596442873 -0.061323392821536635 0.06761126437160912 0.012531420762690832 0.05286825469934036
0.06066014367681929 0.026376163647422936 -0.03936552180110402 0.011753699400091555 0.010609255146609046 -0.0622857688889361 -0.05197875580507034 0.05257036325672126
-0.02543954881789319 0.013425726145974745 0.02216248220625884 -0.07513468053520583 0.06688118640193431 -0.022504609536172605 0.03135351589834362 -0.06325765260389075
0.011815675643663634 -0.04268393194421043 -0.008378128694461433 0.047613172418569584 0.06876354404105611 -0.003399464190709435 0.015115687067880957 -0.02297511293437186
-0.039197682981711376 -0.00196966857279197 -0.07615394201873364 0.06561413499320892 0.0832613040031188 -0.019597835417401524 -0.018400323189231505 -0.02043217673421133
0.04657338064871412 -0.03280842596746203 0.08186473808671262 0.0515102445655149 -0.011705028432911307 0.053245471281219245 0.08769275188203945 0.10934308178921355
-0.0761424976656643 0.06828514340370084 0.1113862982786832 -0.09045276836756112 -0.03482591781390897 0.051079221607732615 0.04340820515857808 0.027630503319683006
-0.046074070659879916 0.027958245643258207 -0.04082605218927968 -0.09044019592784401 0.0005285528488291036 -0.0028104927387021896 0.013833119304701338 0.07094441270493937
-0.0058749226808990805 0.034404203364684055 -0.06492521272503651 -0.01776862212457462 0.08085354397239926 -0.03921979735703319 -0.021217402011685788 0.04215343569921695
-0.0751458389268579 -0.020943933292260474 -0.020997946002116928 -0.04865905036152519 0.08783869239667046 -0.06435854237684037 0.05744749677575827 0.07011795393936097
00000000: 4d05 abec 3ac6 88bf 30cd af0d 7aa6 923f
00000010: a978 36bb 2867 a53f cc11 9a0b 8f2e 883f
00000020: 305b aa51 4382 983f 331f 50c7 ce7b 90bf
00000030: e681 86ea 7067 b03f b51b 4dbc 5461 b13f
00000040: a728 9e3b 4fd1 a73f bd5e c3d2 35e2 b0bf
00000050: fcc4 98a0 c98e a23f 0549 6127 7dff 90bf
00000060: 542c ad47 3f55 a53f 9fe6 206b 6f00 943f
00000070: 906a 9e51 f45f a5bf f2b8 dc55 2bf6 b1bf
00000080: 27dc 2785 554b b03f 0a23 24c6 65f1 b4bf
00000090: 8fff f364 364b a23f 2333 d504 258f a9bf
000000a0: 4176 0d21 2656 79bf 3016 f461 3874 a0bf
000000b0: 3d7f 1109 7e27 b5bf afde b58b 8235 b13f
000000c0: 6feb 1ba5 3df2 a23f ffdd 8122 e9e7 a43f
000000d0: 30c0 2c64 e5c3 9ebf 5259 2ec9 91d8 ad3f
000000e0: 0556 5036 2ada 8f3f 37ac e01d 1c43 abbf
000000f0: de37 2ffb 67d5 b4bf f89d 074f 2724 ab3f
00000100: 9a04 a39d 6577 b8bf 19a2 d6b0 352f 673f
00000110: a7f5 a294 b1ec 89bf 4b34 19e4 a292 9fbf
00000120: 4a63 f032 f62f ab3f 8156 923b 31a8 94bf
00000130: 7dec ba17 3699 afbf fd5d 4c8e cddb a13f
00000140: cc4c 7671 cccb aa3f e8e0 1473 d7e4 a0bf
00000150: b5d9 38d5 606b ae3f e825 bf33 0f44 a83f
00000160: a44b d284 47dc a03f 29c8 f0fb d7eb 90bf
00000170: eef9 de5b cd89 983f 2436 fd5d 185d b63f
00000180: 8eb5 9710 5c4e a9bf 3b3a ae01 e7e1 b23f
00000190: b586 2ec1 6f04 81bf 2011 b2f5 c1c9 9c3f
000001a0: 003a a670 9e63 b8bf e91d 7204 7ded b03f
000001b0: ea2d 60c2 a766 a93f cbdf 7059 ef3a b5bf
000001c0: cd80 5fd9 f8b1 b03f 839f f084 4108 b23f
000001d0: 3680 05be 90a8 8f3f 6c50 3a06 2e26 7ebf
000001e0: 72a9 45bb 8ded 8e3f 1c6c 111d d39f 963f
000001f0: a26b 323f 57dc 90bf 6848 30f3 5a6f a3bf
00000200: 77d4 03c9 7259 b6bf 3c08 af5b 4c9d b1bf
00000210: ee73 11ef c01e b13f 3259 1485 8236 8a3f
00000220: 23ee a154 327d 7abf ddfd ce26 f747 a23f
00000230: 8099 3bfe 146a b5bf ad3b 424e 709d b43f
00000240: c920 a0e4 8657 65bf 646e 752d 1eac 9bbf
00000250: 41a6 8a9e f6b2 aebf 3d5c 82cb 0100 6d3f
00000260: ddef 7937 5ed5 863f 4afb 7fbe 7427 6a3f
00000270: 5e40 0fbc e1b0 9f3f 81db 751a 71b8 823f
00000280: 32bd cdc1 e7e4 b23f d086 d6ba 7a3f 853f
00000290: eec7 69be 1e6c 533f ff1f 4df1 4289 83bf
000002a0: f50d 1fb9 ce77 b0bf 4cc3 fab9 b0e9 94bf
000002b0: da95 fb6f 35cc b13f d49c 6348 de7c b2bf
000002c0: 1191 8b84 bb1b a8bf be1f 27b5 64da a53f
000002d0: 95a5 eab8 1fbd 3dbf 6e6d 046c 25ff 9c3f
000002e0: 7518 7e51 9b65 9a3f 6d29 219e 0b55 9abf
000002f0: d2c2 dacb 1ed2 b1bf af79 11ec 314b ab3f
00000300: 0622 2cf9 aca2 b53f ffcc ceb4 60d7 85bf
00000310: e592 b18b c96e 92bf b280 2806 29d4 b13f
00000320: 79b2 4a34 6072 aebf ccc7 d5e1 e80a ae3f
00000330: 9f08 91fc 9563 be3f ed17 3e2c 5c2b aebf
00000340: 627c 8c36 d387 a43f 423a 310a 3d6a b6bf
00000350: ac72 9b83 f7c3 b63f 73dd b92d f3c9 c13f
00000360: 251c 359a 7d6f 943f 0aad 8109 c6a0 aabf
00000370: 1a54 ecba 6b56 7f3f e2f1 21df 221c b2bf
00000380: 6f9a 29b0 df66 a6bf 9e8d aab8 01b0 84bf
00000390: bd79 559b 2bc6 983f 074f ad70 6794 883f
000003a0: 5cc8 140c 325e a7bf a97f d8c3 2d81 aebf
000003b0: 308f 911b 79f7 aabf cf47 668a 41fe b13f
000003c0: 6d28 d76a 1a7d a93f ed59 0861 2957 80bf
000003d0: 1542 b51e f1f3 99bf 4ef6 676e f27c a13f
000003e0: 14c7 77e9 f1d7 4cbf 5231 d8a2 1440 b7bf
000003f0: 3c81 1477 824d b63f 8f90 e425 de11 83bf
00000400: 5ef5 e9e4 c441 98bf e72e a0e2 13bb b13f
00000410: a2a9 0d0e f558 a73f 687c bb27 6773 b83f
00000420: d780 3dd6 8040 963f 7d51 86be 8fa1 a33f
00000430: 2c65 cb10 cd17 a8bf d38f d054 c424 a23f
00000440: 3941 7841 b6de 92bf 560b 599b 7575 963f
00000450: 1f10 1bdd 0389 a13f 8c43 2915 441d b03f
00000460: ac3a 7f61 3b34 b2bf fecb ae6c d717 9fbf
00000470: e906 de8a ff69 b23f 5cb7 08d2 d89f b6bf
00000480: 998d feca 10f9 b8bf 0acd 60d0 f3b0 4a3f
00000490: bd84 d21e 2f6f a33f 735c ebe3 e921 843f
000004a0: e1e3 214b 4838 b3bf 9df1 955f 22be b1bf
000004b0: 06ed 8aa7 630f a43f 3e13 94ed 6a65 a23f
000004c0: 568a 91a7 b173 b03f 9b1a e732 e073 6e3f
000004d0: 7ebc 8a49 d43b ab3f 1536 fcdd 7766 aabf
000004e0: 80ab 5e60 0d80 adbf e9f8 7c40 133f b7bf
000004f0: c1a2 4bad ae2a 9bbf 5eed fe8b 62ee a43f
00000500: 1e2d 43d4 0f13 b1bf 6520 aefd 54e1 a0bf
00000510: 71d2 2d2b 334a a4bf fdc0 9cb6 6aea a23f
00000520: 069f 734a c14c 96bf 308b 66c5 7457 b33f
00000530: be7d f162 aa80 963f 5dba 445c cd50 b63f
00000540: c868 608c f8cc 96bf 3693 9df5 91f5 b13f
00000550: f9e7 1641 9ccd b23f 232c 78bf cc3d 993f
00000560: 8ea0 dd80 71c5 b0bf bade 1e09 9294 90bf
00000570: 6053 5dad 5c69 94bf 6357 7ae5 586c a93f
00000580: 7437 3a03 ce50 a2bf 567d dd88 1e13 94bf
00000590: bfef 5a7f eb32 97bf 0ff8 b3af ae40 553f
000005a0: dee8 4b9d c765 afbf af38 51c9 f84e b13f
000005b0: aa0e c9d2 12aa 893f b74b dc41 8c11 ab3f
000005c0: 8373 86aa d80e af3f 4adb 0961 5a02 9b3f
000005d0: 2691 73b9 b727 a4bf 9346 3ed4 5212 883f
000005e0: 82e9 1d1f 4eba 853f 2eb5 c498 ebe3 afbf
000005f0: 1902 8aa0 f59c aabf af58 daad 80ea aa3f
00000600: 5498 ca38 d30c 9abf 18af c675 f27e 8b3f
00000610: 24a4 1801 c3b1 963f a4b1 b1c3 063c b3bf
00000620: 8161 501c 201f b13f 5d52 dec7 720b 97bf
00000630: e8c6 cb6a 910d a03f ebca 274d a731 b0bf
00000640: 18e7 c123 d132 883f b7b7 8717 abda a5bf
00000650: 4983 f465 8d28 81bf a50a cbf4 c060 a83f
00000660: 703a d0d4 7c9a b13f b694 bc70 31d9 6bbf
00000670: daaa e72c f9f4 8e3f 0b3c b3ba c986 97bf
00000680: c689 f8fc b711 a4bf 96ca 54c3 b122 60bf
00000690: b393 6e22 d37e b3bf 527f f383 16cc b03f
000006a0: b738 b7e1 9c50 b53f 74b1 c278 7411 94bf
000006b0: ed95 55c9 88d7 92bf 9128 702b 2cec 94bf
000006c0: a632 8055 77d8 a73f 5081 2019 44cc a0bf
000006d0: 632d c764 16f5 b43f 01bd a2ff 8c5f aa3f
000006e0: 367a 8b52 cef8 87bf 2e3a a08b fd42 ab3f
000006f0: 64fa 6d3d 0873 b63f 3d1a 5480 e8fd bb3f
00000700: 0a4e 4f21 137e b3bf 80b8 b899 227b b13f
00000710: 8956 54fc cf83 bc3f a1a9 f8a1 e927 b7bf
00000720: 7fba 20e4 b3d4 a1bf f3e5 9e44 0e27 aa3f
00000730: 497c 11ab 9939 a63f e92d 85b0 2b4b 9c3f
00000740: a305 5b45 0597 a7bf 9deb c31a 16a1 9c3f
00000750: 0c9b f4fd 26e7 a4bf 0f01 c1b3 1627 b7bf
00000760: ec42 9799 d251 413f 5575 bfcc 0706 67bf
00000770: 4874 1fd8 8954 8c3f fad1 66bc 6929 b23f
00000780: 93ef 7e8c 4d10 78bf 3cae 9780 6d9d a13f
00000790: 0a02 5751 f09e b0bf 5a1c ae0b f031 92bf
000007a0: 158d 205f d1b2 b43f 2127 0206 9e14 a4bf
000007b0: 882f fcbe 03ba 95bf 74fe 7b97 2295 a53f
000007c0: 0910 9ff8 c13c b3bf 33d2 2892 5372 95bf
000007d0: e6f5 724d 7c80 95bf e111 eacb d6e9 a8bf
000007e0: 4bc7 2ab7 987c b63f e90c ba2a cd79 b0bf
000007f0: 1724 c71f c269 ad3f 7b30 080f 40f3 b13f

conv1d.bias f8 [32]
0.06459182412260038 0.10472817320859788 0.11137810101996964 0.11755071432422098 0.03314789632565657 -0.027049418663877427 0.12360150003021285 -0.011225492989399783
0.1503729623955879 0.0006370562645629727 0.009268195923569334 -0.0067231702180814016 0.00905289781629877 0.014826936464278288 0.023277221083628397 0.074525182967821
-0.08496963146327005 -0.036553336158652236 -0.08214431387800186 -0.0013086008618279714 0.10167859594583573 -0.03397447654429198 0.0900407547095182 0.03195498042996378
0.08735279373939174 0.11260653247761747 -0.00377376960099127 -0.03196502924678081 0.006187721817295238 -0.06964197902388503 -0.05264878753260778 -0.014586806709492237
00000000: bb0f 32fc 1689 b03f a397 e62e 77cf ba3f
00000010: 0c11 5f75 4683 bc3f 14db a4b9 cd17 be3f
00000020: d8be 4cd5 c2f8 a03f bb0e 26c2 d7b2 9bbf
00000030: 4fc6 5d10 59a4 bf3f 7de7 2a2a 64fd 86bf
00000040: 3a89 d8d5 6b3f c33f c09e 37e9 03e0 443f
00000050: cdc3 1333 34fb 823f d1c3 6443 c189 7bbf
00000060: 29b5 7060 538a 823f dc28 b6b9 955d 8e3f
00000070: 600c 2fdd fbd5 973f cb40 9317 1514 b33f
00000080: f6b4 49dc 91c0 b5bf d6e2 b86e 1eb7 a2bf
00000090: 648b a8e5 6807 b5bf a6a4 ec79 ab70 55bf
000000a0: 5062 4ac4 9b07 ba3f a11a 5043 1a65 a1bf
000000b0: 86d7 c830 e90c b73f 0c33 c837 675c a03f
000000c0: 072e 53b0 c05c b63f 1bad 4e1e c8d3 bc3f
000000d0: c7cc 9a20 2bea 6ebf 2212 7666 b85d a0bf
000000e0: 1ff3 78ed 4b58 793f 0818 5686 0ed4 b1bf
000000f0: 1ad2 4029 c8f4 aabf 58a9 290e b0df 8dbf

linear1.weight f8 [64, 256]
-0.02008419956243368 0.01675439907196294 -0.038244370840134274 -0.0021856416545136216 -0.04208574601247708 -0.005214599167032449 -0.02619766125391957 -0.005175079497470846
0.05438696157891761 -0.008464977176858082 0.03764387390900443 0.020253434074205462 -0.029268803398200156 -0.03041685202634285 0.040018632074834075 0.013278743435350862
0.05376311086411425 -0.012217935306915036 0.04175412845692633 0.056587080938919954 -0.0206528408384493 0.006610641637747921 0.05490391067740073 0.03897619607831279
-0.028916152181149707 0.015182579257290009 -0.05780992062637717 0.04499521418010576 0.026715319956445126 0.04897247688927265 0.027928683068475936 0.006837260946472552
-0.058801115387359104 -0.013783952018776928 4.505788484931129e-05 -0.04440444815516719 -0.03924835323765883 -0.06907247592557497 -0.06331101594812748 -0.01573345103904369
-0.01329223753976459 -0.04086204078274743 0.04879150316870358 -0.03365008111937833 0.03174968207813725 0.0027462754694337834 -0.029536062255191134 -0.028974760066046077
-0.04081919334285639 0.0035137471846319046 0.05857831940288755 0.05336257873359222 -0.04397702261781328 0.03090614291346452 -0.02813038333085502 -0.007294313509355511
-0.005338010511973322 -0.011653266949861046 0.02640584499436082 -0.003007697667734912 -0.04941600600731453 0.018767506915699565 -0.029949578855047575 0.053445557740146823
0.013416884838267714 0.06794428148856288 0.025767834069614977 0.01608093688207015 -0.0024501995654956188 0.05439305712182071 0.057581853944316745 -0.04048922558623107
-0.015746529126156483 -0.029147970709651156 0.04136847736779962 -0.02185780116788378 0.03312367648313019 0.036341009285018655 0.0649641715091324 -0.05157548819428185
0.07041747353246887 -0.02342092678694276 0.07425653005457873 -0.05445213087379064 -0.04023068690861132 0.030384490648243147 0.06504720998817405 0.048521778748632984
-0.05593883277321669 -0.05202631347529093 -0.053626504747631976 -0.04563544594196038 0.03179446717415241 -0.03231942468192835 0.03429217651933281 0.05652016467583358
-0.06410370070710755 0.009627117053479196 0.0316079001567787 -0.036086911317692226 -0.03421793729790552 -0.030605031593833452 -0.036054029087129166 -0.04066203271180211
0.06643795846981884 0.013104902821595769 0.02487004198267367 -0.02222664269987262 0.0012904119189269983 -0.020204400912801058 0.00718986963418534 -0.005375742936169888
0.05579001229065751 -0.02723250680942661 0.05007093172813265 0.018292243840701362 -0.025315108912914292 0.009166989231625308 0.056072590175209346 0.010911156783995814
-0.056174630126887976 -0.027476878933450532 0.037508699878148526 -0.015028351660114177 0.023132389995380885 -0.00036589893181717634 0.012947062759704826 -0.03848209845318668
-0.002822235972864093 -0.039857945713349094 0.04638425628003374 -0.051845940234331034 0.009893111116105103 -0.00929972425829126 0.03808453603787926 0.03860059101223945
0.033148878645252004 -0.03858652727290648 0.024039330988922403 -0.04509335488257927 -0.009101657979107912 -0.034234910972913195 0.0021236954242837306 0.009879702271585362
0.049069323880416044 0.017837962640351326 0.025721523646075252 -0.005701606474617894 -0.023023287411346904 0.02334686771778196 -0.05460097125415799 0.02727205632975235
-0.014803746763450608 0.03907491475716319 -0.007778846877311687 -0.007578405606571405 -0.0024970814969149974 -0.02895542030845107 0.02251039598468897 -0.033020308617651914
0.007227233722256548 0.0340011983657706 -0.035303484711621556 -0.0062264134584710815 0.01861952952237624 -0.030609440641246898 0.053983124299978 -0.012734833247493985
-0.022038144849492694 0.025996239387618088 -0.013483055313500455 0.024898193324048752 0.026459622139293 -0.0056867277206067435 -0.015451618735399962 0.02592602420685376
-0.002596961744681494 0.021370263712593696 0.049710583526141015 -0.039311140095265276 0.04430884974006276 0.052713217975539434 -0.038371510994036746 0.045203652448920974
0.013208535277607776 0.041537374973486106 0.025501541429113535 0.053380575909171356 0.062103045552515154 0.01627401001385784 0.04866310547126643 -0.05375060720451556
-0.0087375733612343 0.044904985828588775 -0.050750025972756393 0.0021998122899948265 -0.036131655691200436 -0.033531098196208996 -0.0018946213499167286 -0.045925310883619876
0.0200238768187113 -0.009138169498958206 -0.0004335001975437151 -0.017638756075331306 0.004185048522707354 -0.03288147319349969 -0.016219361245475232 0.060587865482864656
-0.002562750171766746 0.0266528880449403 -0.04686343404914978 0.007384794305143343 0.03002099545635385 -0.0005338581930689164 -0.025268617142138454 -0.02063705859160965
-0.023311322170903013 0.03436237618196384 -0.003660908156775878 -0.0034690298342418737 0.006589938284748655 -0.045238472551786306 0.03396567208442524 0.03150529390885167
0.026175619325976614 -0.07156745469474621 -0.06145753358614261 0.026999776465919573 -0.05228478282954818 -0.07738930331557085 -0.05766518653934134 0.016075562067384443
0.0036646332902285418 -0.027015456336298694 -0.0001866475958047227 0.028705085479808493 -0.0016643004709919202 0.051714010909530525 -0.013985028423973579 0.009355374194232892
-0.033584872511273026 0.028927069491588527 -0.04771388628219322 -0.006029704006925557 0.02841417004415148 0.02628102633245772 -0.0196128212987039 -0.017925804647239172
-0.03303563698698174 -0.001956964252123909 -0.0015131771682389155 0.012378211112411918 -0.016913574148183865 -0.01906424644255564 0.027481128347467805 0.017574573854587817
00000000: c0e0 25d1 f390 94bf 3817 50b0 1028 913f
00000010: f968 0724 c494 a3bf f641 a96d 9fe7 61bf
00000020: 24b1 804d 438c a5bf d67d 254e e75b 75bf
00000030: aae2 4449 8fd3 9abf 6526 22d3 7632 75bf
00000040: 5bda 9e9a 9bd8 ab3f e882 1601 1656 81bf
00000050: c9f7 aace 0e46 a33f 28ef ebf3 50bd 943f
00000060: a2a4 8d25 a4f8 9dbf 4b39 cd62 9825 9fbf
00000070: 77f0 fb77 527d a43f 4861 4bc6 e231 8b3f
00000080: f301 c9a5 d686 ab3f b1f1 8a84 b705 89bf
00000090: 2816 6410 cc60 a53f 007d 045c fbf8 ac3f
000000a0: 9bed e1af 0426 95bf 6c39 3c9a c213 7b3f
000000b0: 9e5a 9089 5d1c ac3f 1c2a f51e b0f4 a33f
000000c0: 98db c61f 329c 9dbf 272b 084b 0b18 8f3f
000000d0: c604 f30c 4399 adbf 7f98 c2da 9c09 a73f
000000e0: 7678 0fc6 425b 9b3f 517e 49a5 eb12 a93f
000000f0: 3a0a 9931 5699 9c3f a190 8c42 6301 7c3f
00000100: 0033 1d07 2e1b aebf 49d0 0ab9 c23a 8cbf
00000110: 03bb 8422 919f 073f 6f2a 3f09 2ebc a6bf
00000120: 3dbb 2733 5c18 a4bf 9072 27d9 bbae b1bf
00000130: 2747 f996 2635 b0bf 47e4 a906 6e1c 90bf
00000140: f70d 31ec f538 8bbf 6b93 9e91 deeb a4bf
00000150: 7a51 dd2c 33fb a83f 67b9 d45b 953a a1bf
00000160: d434 5e8c 7e41 a03f 71fd 766a 5b7f 663f
00000170: a431 c195 b33e 9ebf a98c 923b 8fab 9dbf
00000180: 89d0 e9d8 40e6 a4bf c02c d2a7 dcc8 6c3f
00000190: 491a 2e3c fafd ad3f d664 fb04 5752 ab3f
000001a0: f881 d603 2884 a6bf 873e 3c24 dca5 9f3f
000001b0: f848 b811 36ce 9cbf 0ee1 825f a4e0 7dbf
000001c0: d8ae 3149 4fdd 75bf 9099 8703 abdd 87bf
000001d0: 9e33 b242 220a 9b3f 1f4c d063 99a3 68bf
000001e0: fd94 6603 0e4d a9bf 71b6 b811 ca37 933f
000001f0: e379 d836 1aab 9ebf b287 3855 375d ab3f
00000200: aba7 c1cc 4f7a 8b3f 7e8f f1e2 cb64 b13f
00000210: b293 7812 e262 9a3f e678 fd67 8577 903f
00000220: d74a 14e0 7012 64bf bb73 ef22 68d9 ab3f
00000230: e759 1167 5e7b ad3f c669 77f7 00bb a4bf
00000240: 404a 7dae db1f 90bf c557 c533 f7d8 9dbf
00000250: 6591 c2c2 3f2e a53f f2d0 b634 e461 96bf
00000260: c0c8 6f26 96f5 a03f b8fc c3ec 499b a23f
00000270: 1b20 0bf0 7da1 b03f 65ac 2336 1a68 aabf
00000280: e98e e329 e106 b23f c522 5eca a7fb 97bf
00000290: ad4e 19d8 7902 b33f a0d3 9952 26e1 abbf
000002a0: 21de 22d9 1d99 a4bf 8a2d 8fa6 1c1d 9f3f
000002b0: 7162 9817 efa6 b03f 25fe bcb9 d8d7 a83f
000002c0: e6bc acc2 03a4 acbf 9bcd d065 31a3 aabf
000002d0: 3003 2ee8 ee74 abbf 66db b777 875d a7bf
000002e0: 88d8 6949 5d47 a03f 2b9f 11f0 2b8c a0bf
000002f0: d181 5181 be8e a13f 66c9 b105 36f0 ac3f
00000300: f6ef 16a2 1969 b0bf 8716 32c7 61b7 833f
00000310: 0dec ef22 e92e a03f dba5 d8cf fb79 a2bf
00000320: 491d 4373 0385 a1bf a67c 27e7 ec56 9fbf
00000330: fef1 a277 ac75 a2bf dd44 5f69 a7d1 a4bf
00000340: ca43 d7fa 1302 b13f a2c0 4948 bed6 8a3f
00000350: 6fe8 dc43 8877 993f dfba fbbd 94c2 96bf
00000360: 4ec8 5e3f 6124 553f bd7d 9f64 76b0 94bf
00000370: 8baf 0fef 1f73 7d3f 490e a401 e004 76bf
00000380: 12b0 762c 8290 ac3f 8bd0 8998 d6e2 9bbf
00000390: f851 81ac e5a2 a93f 3adc 43b4 33bb 923f
000003a0: 15a9 8033 34ec 99bf 8bf4 9e77 24c6 823f
000003b0: 6b52 02ea 8bb5 ac3f 4eec 63ac 9658 863f
000003c0: 040f 85ce ebc2 acbf 034a a921 e622 9cbf
000003d0: af91 951e 5734 a33f 7ed1 2437 2fc7 8ebf
000003e0: 96ae 086a 04b0 973f 91b1 1ff2 c3fa 37bf
000003f0: 8aba 0e59 fd83 8a3f c9ff acf4 ecb3 a3bf
00000400: adbc 8f66 a81e 67bf 0e2f a6ba 4268 a4bf
00000410: 3147 8b5f adbf a73f c840 7913 8d8b aabf
00000420: ed4c 98e5 d642 843f 71d0 68dc bb0b 83bf
00000430: 6834 88f9 d07f a33f 50f7 01e8 74c3 a33f
00000440: 5761 5ccb e3f8 a03f e31c 6801 9dc1 a3bf
00000450: bd1a a931 c49d 983f b1a6 f9e8 7916 a7bf
00000460: 0c8e e0da e3a3 82bf 3f30 05fe 3c87 a1bf
00000470: 4659 9b4c b665 613f a495 3431 cf3b 843f
00000480: 7c3f 9b4a 9d1f a93f c499 ab68 1d44 923f
00000490: 7ae6 733b be56 9a3f 5b86 7d55 915a 77bf
000004a0: 709e e9a9 6a93 97bf c665 3fc5 3de8 973f
000004b0: a39e bb93 a8f4 abbf f7b2 1fb8 34ed 9b3f
000004c0: ac85 a841 6d51 8ebf c1b6 f391 a001 a43f
000004d0: 0fb1 044f b6dc 7fbf 75d9 c6c3 880a 7fbf
000004e0: 4998 ab6b c274 64bf 1522 115d 7da6 9dbf
000004f0: e307 4c1a f70c 973f 7eb8 3bb3 09e8 a0bf
00000500: 136a a4c7 4d9a 7d3f 59f7 02e6 9a68 a13f
00000510: 5be1 8a60 4c13 a2bf 01e1 ce22 de80 79bf
00000520: e548 7679 ff10 933f b614 03ca 1458 9fbf
00000530: 8301 cf12 ada3 ab3f a843 8b62 b814 8abf
00000540: 1484 92dd 2a91 96bf c289 f417 c29e 9a3f
00000550: 3820 f90c 019d 8bbf 22a0 3978 e97e 993f
00000560: 05d9 022f 3b18 9b3f 00da 4c59 f74a 77bf
00000570: 1f45 1c29 19a5 8fbf 43c0 5508 5a8c 9a3f
00000580: 0556 6538 3946 65bf 8d8b 021f 16e2 953f
00000590: 530b 0565 aa73 a93f 42c0 27fa 9620 a4bf
000005a0: 3e28 1d49 a6af a63f 6431 8b16 3afd aa3f
000005b0: 598e a241 6ea5 a3bf 3d11 dbe1 ee24 a73f
000005c0: 37f4 5c98 130d 8b3f 9347 2506 6344 a53f
000005d0: 3f16 be79 131d 9a3f d306 8be7 b254 ab3f
000005e0: 0696 426b f8cb af3f 791e 2353 22aa 903f
000005f0: d4b1 0add 5eea a83f 46c5 2a18 3385 abbf
00000600: 95c8 a93e 01e5 81bf ba4c 1f4b c9fd a63f
00000610: 96f5 a54b e8fb a9bf 7ac3 f83a 5705 623f
00000620: 2b8c 162f d97f a2bf 4ba9 4df4 fc2a a1bf
00000630: a9d4 1d2f 9e0a 5fbf 1589 9bb8 8583 a7bf
00000640: 3b4f 4da0 2381 943f 4e8a 2559 08b7 82bf
00000650: 96ae d72b ed68 3cbf 4953 f1e1 e40f 92bf
00000660: 4960 9868 5724 713f c550 0528 d7d5 a0bf
00000670: 6eff 71e8 ce9b 90bf 6013 9169 5f05 af3f
00000680: c928 9e05 7afe 64bf 2ce5 fc09 e54a 9b3f
00000690: 981b 3de9 7bfe a7bf 52d3 73a0 843f 7e3f
000006a0: a3af b6e6 d2bd 9e3f de6e 6ebd 537e 41bf
000006b0: 9e67 f630 04e0 99bf 1447 f28e e121 95bf
000006c0: 19f6 6659 ecde 97bf 252a d403 f297 a13f
000006d0: e80a d319 7bfd 6dbf ac39 fb35 156b 6cbf
000006e0: 9c84 a616 0dfe 7a3f 6707 4340 7f29 a7bf
000006f0: bf1a 94d5 f263 a13f cb90 fa3d 7621 a03f
00000700: 0f99 d413 c8cd 9a3f 9e34 5fa5 3e52 b2bf
00000710: b3cb b0a1 5c77 afbf 8586 ae53 d4a5 9b3f
00000720: 90a9 a930 12c5 aabf 33f4 cc0e c9cf b3bf
00000730: 7ac1 9b94 4a86 adbf f77e 60b5 1c76 903f
00000740: 8d85 4404 4b05 6e3f adbd cd95 f0a9 9bbf
00000750: f077 c4a3 da76 28bf f169 75ad dd64 9d3f
00000760: 03ff fd05 9544 5bbf 6eed 3343 427a aa3f
00000770: 9a7e b7bd 2ea4 8cbf 6709 a611 e928 833f
00000780: da09 2752 0932 a1bf a2f1 bdc5 0e9f 9d3f
00000790: 734e 4b5a f46d a8bf 5398 3a58 9ab2 78bf
000007a0: a198 54ac 9a18 9d3f b2b2 69d2 69e9 9a3f
000007b0: c1ab 3d28 6215 94bf a985 db62 245b 92bf
000007c0: be58 ec08 0cea a0bf 3c45 cb2e 0d08 60bf
000007d0: 4a49 d79c b9ca 58bf d34d 495f bf59 893f
000007e0: 07b8 4cbf ca51 91bf 3982 f9eb 9385 93bf
000007f0: 32c8 094e 0324 9c3f 3d4f c9af 11ff 913f

linear1.bias f8 [64]
0.05448309737427983 0.07034830478160108 -0.028364989560127844 -0.004445052970181467 0.08034714707922544 0.026189047419670628 0.034317344894716086 -0.0169892282615915
0.010313603114132 -0.02292126423416297 -0.03968499125430738 -0.05062439797467444 0.03785891222025694 0.02818987356872777 0.09777962454201812 -0.03357998374155439
-0.0623851579087133 -0.03995033937776542 0.030991949815196335 0.03767507113422371 -0.012368752411683545 0.05184364680317831 0.04865868025769592 0.01172423787118228
0.056310137971425894 0.0641936999590633 0.04805351244397008 -0.007353485055734957 0.04345775372877921 0.019554127714371452 0.008003616475532646 0.012407394111807742
-0.049480953053113896 -0.04000860609483228 -0.04058273863747029 0.05751249472662612 -0.007578555573658592 0.04291593431074658 0.05391351273372705 0.07392335214680228
-0.05509315514894717 -0.007335249428240219 0.04323713812138906 -0.030762181037902382 0.06767723803889755 -0.04184315764913184 -0.008821315285572139 -0.008176540565718775
0.0744752915364073 0.028011821379202273 0.0539560730693745 0.05988011067130478 -0.013496437222491045 0.034593599578338186 0.08821590771683413 0.026718576911801645
0.07671475508603438 0.03394082095021689 0.06116338151429443 -0.028602053249255834 0.05098506880990929 0.053512346031437605 0.05656559748965086 0.05276400251669221
00000000: a38b d062 35e5 ab3f 4bb3 5db4 5802 b23f
00000010: f16b 0c3a b60b 9dbf 5fb7 2cd2 f934 72bf
00000020: a23c 0871 a191 b43f 3938 b938 4dd1 9a3f
00000030: 8547 0404 0b92 a13f f23d 12cf 9f65 91bf
00000040: 080a a260 4c1f 853f 4227 1301 ac78 97bf
00000050: 8399 2857 9751 a4bf f0a0 5ceb 70eb a9bf
00000060: 2f3f b24b 3e62 a33f f267 3964 cedd 9c3f
00000070: 3d85 9fe1 1508 b93f 75bc f047 6531 a1bf
00000080: 598b f289 f2f0 afbf a6e6 2ef2 5e74 a4bf
00000090: d508 958b 5abc 9f3f dbbb ca9c 254a a33f
000000a0: f8d3 cdd8 c954 89bf 2ed0 0c1f 408b aa3f
000000b0: 6f24 bf60 cae9 a83f c969 d191 e002 883f
000000c0: dc81 0ab2 aed4 ac3f 2ef4 ee91 ff6e b03f
000000d0: 653f cf50 789a a83f 7752 371d b01e 7ebf
000000e0: 1ba3 0b3e 1840 a63f 97df 234c ff05 943f
000000f0: 98dc 1838 3364 803f 1ea8 823f 0c69 893f
00000100: 98ac 4646 9155 a9bf 74c1 780d 027c a4bf
00000110: 2ec9 75be 42c7 a4bf a0a9 ec17 4772 ad3f
00000120: 6ebf 6f05 b10a 7fbf df12 afcc 13f9 a53f
00000130: f4f6 014c 8d9a ab3f cb96 e10b a4ec b23f
00000140: ed44 3287 2b35 acbf 4bcc 6f06 910b 7ebf
00000150: ce72 689c 2d23 a63f 3ab2 0b06 1f80 9fbf
00000160: 3688 0fa4 4b53 b13f 622b 5463 776c a5bf
00000170: 2c1e 46e5 e810 82bf 69eb 97b2 dcbe 80bf
00000180: 9049 820d d010 b33f 1078 e682 21af 9c3f
00000190: 48d1 8162 21a0 ab3f 093a 071a 9ba8 ae3f
000001a0: fb6b dd23 05a4 8bbf 0005 ae95 40b6 a13f
000001b0: 4479 a156 5195 b63f f59c 2058 1d5c 9b3f
000001c0: 3515 3704 94a3 b33f b00d f6f7 b060 a13f
000001d0: fc21 a286 ce50 af3f ea4c 374d db49 9dbf
000001e0: d2e8 3e06 b71a aa3f ee46 4660 f865 ab3f
000001f0: a2ef 977e 2af6 ac3f de35 6e22 e203 ab3f

linear2.weight f8 [128, 64]
-0.08898953051676577 0.028484690360120562 0.0027201498374245184 -0.12795198353423756 -0.057145385000783346 -0.01986982412142913 -0.008127789490240888 -0.10924653995322332
0.04630983867400305 0.03144198689943832 0.09085589778874438 -0.1231207765581135 0.08623947849556993 0.05813859955134002 -0.11205125316785423 0.11862397921316889
0.11715375812740901 0.029888818807046264 0.10857571857368543 -0.010077625182742854 0.04803930411019726 0.10497529852907568 -0.0641084923141753 0.021990452067676244
-0.10967480606286183 -0.10542931145552999 0.09703744903282306 0.09297356834484406 -0.10448291732627712 0.036435363767119706 -0.04286308061202721 0.0192442994091364
0.04738896366537709 -0.02819189245974051 0.05616687263492638 0.012089654155488821 -0.043321459125688855 0.09137910961479534 0.01777617333088071 0.0022972453264518094
-0.0023007684093465904 0.06343367079853654 -0.1206547653355603 -0.03583684769046099 0.06099594512402069 0.08849108396805429 0.03701764334493459 -0.009410068270606108
0.020445405934791102 0.04625264190932947 -0.01016295102937242 0.04367782072404735 -0.07097024460236867 -0.10496957552929928 0.10253259267814971 0.043020261908961376
0.09479786419033708 0.10380519447121168 -0.053649871182436755 -0.03699959119889198 -0.02586889939059479 -0.043082969064153716 0.04171558224242177 0.0005896987043143452
0.0786582418702108 0.011783056286687021 -0.09263706321015445 0.05045700264035901 -0.10409652412220242 0.11571547813551003 -0.044674339605480666 -0.06870450524379136
-0.03233205780145237 0.08088469925607616 -0.020995929400284313 0.04704567791707569 0.08632063158849673 0.09858843872083595 -0.07044759369155273 0.08337722545110508
-0.015152419068421248 -0.08162136439262646 0.060323799251260204 0.01580004704887071 -0.07617188994956078 -0.09474257613453049 0.08136900540784149 0.03595068184289464
-0.003888453815886853 0.11965672764502827 -0.03650421890041399 -0.10052887944978013 0.10577840362739706 -0.08730880104027319 -0.03255563752512795 0.0421558478235026
-0.10410713609770908 0.10216362078228398 0.13211176302242397 0.011723371372909134 0.09044356679539141 0.03579860252544074 -0.018498787742090243 -0.032518700011429195
-0.0551002044935232 -0.12494857946846118 0.018986187825513 -0.02753071371199798 -0.09171265828851781 0.019834184779028707 0.049955600512761184 0.07592014332873968
0.013027830465541922 0.0007898542903123363 0.0021182890196109784 0.058668774714293444 -0.04907274328394349 -0.09759340414613683 0.10972839770041155 0.12215489686899812
0.043729840766752785 0.05163611093463842 0.04424143289846139 -0.0883502609121657 0.07555198551437785 -0.07451088338602793 -0.06423305981172897 0.06966430685906067
0.0720841020331419 0.06678340336246977 0.06526907960351624 0.04659588741342195 -0.001288083723861079 0.11682806020598373 0.08052401472721928 -0.061255207336201455
-0.04727009481269973 -0.01948226643399086 0.05378066737737282 0.04617276360951814 0.041882093813377014 -0.02727181283203817 -0.09313131836417664 -0.025042331401243317
-0.10866800464330996 -0.00857268231058886 -0.02668711676733148 0.10233721677285348 0.0780223602210199 0.05139375119681481 -0.07884198078135335 0.013317243957186203
0.0758439989591907 -0.0981236994301103 -0.07722208296148343 0.11639976616866606 0.04920222235857966 -0.04057988155378415 0.033243727728462374 -0.08676291282194115
-0.0914377351023603 -0.09048309732020401 -0.054118609966711535 -0.10873952805247825 0.015766360430959688 -0.09863791507225252 0.08569982552977624 -0.060595272347479696
0.0679489845320939 -0.10288631225635454 -0.011361227118184101 0.053868652950101195 0.0575355278437267 -0.004814558047158924 0.06261736206570588 0.0799854486380771
0.09987686637981161 -0.12314958709842412 0.06056371113241101 -0.02431814269975121 0.060792539301611895 -0.013000541083847099 -0.040624103834785354 0.013259655299421608
-0.08190225998068033 0.11753455227709944 0.0382595964057735 0.12946022991466832 0.08355939247491317 -0.031302694618910686 0.01076814094713004 -0.08579531140527434
0.06291081490717704 -0.02842172866937777 -0.08458056591256614 0.08399432635766972 0.07432835660997329 -0.03755756552670483 0.06264532160787636 0.08795567716510129
-0.0060105503876118046 0.014038359526963159 0.04001671764906047 -0.05821243191749628 0.05933914734124817 0.15216827277973416 -0.10822736115510576 -0.023276265990171987
-0.09021950689677147 0.10516369800865166 -0.004252843133866371 0.05603090510281842 0.0895657756727297 -0.10320576431359053 -0.08124290283230366 0.03346974682107411
0.059390141662100916 0.10057795308544176 -0.032029074731723305 -0.05221201736372024 -0.04535895712370893 -0.04101748985091108 -0.05183142424266637 -0.052849250280747835
-0.0708817001620692 -0.09615407880131333 0.1062719257167543 0.010988443795813988 -0.01823623035284122 -0.022527660857666183 0.08313743391028927 -0.053788271852527256
-0.008583210555077853 -0.01973347180016979 -0.11906124094062023 0.12472599556607307 0.014694472012740179 0.017342954052856657 -0.09012897358024026 -0.06091940981601314
-0.09685147704807683 0.09344969113258732 0.06009101088892761 0.02311856826146273 0.10040677973414039 0.004490183358490392 0.006792711721224988 0.03330092701074218
-0.11861463328625275 0.06743713184054217 0.03821588602069219 0.1306083915181145 -0.09674706840713493 0.12270193455757575 -0.13266330541309831 0.11829017893823664
00000000: db82 4193 04c8 b6bf bb34 2236 172b 9d3f
00000010: f451 f152 9148 663f e172 5e08 bb60 c0bf
00000020: ed31 64ef 2842 adbf 6180 1d53 c158 94bf
00000030: 5915 6570 4da5 80bf 49dd 4ccc 94f7 bbbf
00000040: 7dfe 2c55 ecb5 a73f 4ea0 e802 2a19 a03f
00000050: 91c0 a605 5542 b73f e174 c6dc d784 bfbf
00000060: aa37 c35b ca13 b63f 2d9f 6aaf 57c4 ad3f
00000070: 97ed d413 64af bcbf 0ef0 3d1f 245e be3f
00000080: 47be c2e7 c9fd bd3f 7559 2bad 2c9b 9e3f
00000090: d9e6 6948 9ecb bb3f 1f5a a6f4 93a3 84bf
000000a0: cadb 2690 9b98 a83f bdf9 1142 a9df ba3f
000000b0: c39f e205 6a69 b0bf dfd7 d141 aa84 963f
000000c0: bf31 3ce9 a513 bcbf cdc5 bd54 6afd babf
000000d0: 574f 153e 72d7 b83f 91fb 6ea3 1dcd b73f
000000e0: 4033 e878 64bf babf 9964 98ef a7a7 a23f
000000f0: a972 de52 26f2 a5bf 3dfe 6212 c7b4 933f
00000100: 48ac 44c2 5d43 a83f 1dfb 81e0 55de 9cbf
00000110: 92d4 2b82 e7c1 ac3f d000 bee9 75c2 883f
00000120: d0d5 51f4 3a2e a6bf 0049 550f 9f64 b73f
00000130: eea8 6acc ea33 923f f735 8931 acd1 623f
00000140: 3aae 5ca2 0fd9 62bf 7e81 8b65 303d b03f
00000150: 8008 390f 3be3 bebf abff a411 3559 a2bf
00000160: 5a18 fe4a dc3a af3f c960 a107 5aa7 b63f
00000170: ab3d 15ff f9f3 a23f 4c94 cdfb 9545 83bf
00000180: ef9c 5ff7 a3ef 943f a655 b520 6dae a73f
00000190: 1d81 6a32 50d0 84bf df02 2477 f05c a63f
000001a0: 4869 8e1f 1b2b b2bf f62c f93d 49df babf
000001b0: 5ea5 5374 933f ba3f 73be ed73 c006 a63f
000001c0: 0f9b 6d3e ac44 b83f 6da5 682b fa92 ba3f
000001d0: 298c 53f4 fe77 abbf d347 5444 9cf1 a2bf
000001e0: e3e7 7673 607d 9abf 294d 4a8e f80e a6bf
000001f0: 3ffa edaa be5b a53f 9897 2353 c052 433f
00000200: bbb6 6450 f222 b43f a09c 2f0b b721 883f
00000210: cb95 e204 10b7 b7bf 1f99 6310 80d5 a93f
00000220: 2b6d bbde 11a6 babf 1ca7 3b92 879f bd3f
00000230: 37e1 2617 8edf a6bf 5125 1c53 9e96 b1bf
00000240: c73e bdd5 d38d a0bf 7438 0d12 dcb4 b43f
00000250: 6b4e 7ef8 f47f 95bf cedb 2400 5f16 a83f
00000260: 3c85 a4e1 1b19 b63f 3cd7 1188 173d b93f
00000270: 90b3 fc7e da08 b2bf eb30 8bb8 3558 b53f
00000280: c44f d542 3b08 8fbf 80a2 b842 23e5 b4bf
00000290: 82c5 e8d1 c2e2 ae3f 9c90 6635 e32d 903f
000002a0: 4637 3540 0080 b3bf 865e 09aa 0c41 b8bf
000002b0: 6d7d 2261 99d4 b43f f279 91b5 2068 a23f
000002c0: d466 14bf adda 6fbf a455 fbc3 d2a1 be3f
000002d0: 6fc5 af54 aeb0 a2bf 3553 8ab9 42bc b9bf
000002e0: f5e7 3320 4b14 bb3f 32f6 1e9d de59 b6bf
000002f0: e613 f1ec 21ab a0bf b564 7987 7395 a53f
00000300: c2e3 d1e8 c3a6 babf add1 1922 6527 ba3f
00000310: 3f92 ccca 09e9 c03f c2ff 2945 6c02 883f
00000320: 7511 8541 4f27 b73f edb4 2dc6 3154 a23f
00000330: e1c0 78a1 58f1 92bf af73 1d82 4aa6 a0bf
00000340: a7ed 9a10 1836 acbf a9aa 7f4e a1fc bfbf
00000350: a629 257f 1d71 933f 7a41 1dec 0231 9cbf
00000360: e778 fa13 7b7a b7bf d0ff df9b 694f 943f
00000370: 94a0 e8cc c793 a93f ab5e b4a4 806f b33f
00000380: 4c76 4cce 55ae 8a3f 013d 392c c7e1 493f
00000390: 08ae 01c2 5f5a 613f f178 6369 d509 ae3f
000003a0: fd1f 0f07 1020 a9bf 81eb 1c9f e1fb b8bf
000003b0: f1d4 9007 2917 bc3f d53d 1917 8b45 bf3f
000003c0: dfac e7f7 c163 a63f 6688 835f 0c70 aa3f
000003d0: f1a8 da26 d0a6 a63f 39f8 3569 1f9e b6bf
000003e0: 539f eefa 5f57 b33f 9ecc 562f 2513 b3bf
000003f0: 96a0 36eb 9371 b0bf 187e a81f 85d5 b13f
00000400: 2b3b cb8c 1a74 b23f 867d 5b95 b718 b13f
00000410: b04d 5672 79b5 b03f 9632 2389 6adb a73f
00000420: 06cb fb5d 9d1a 55bf 63fe d699 71e8 bd3f
00000430: 91c8 cbc9 389d b43f 6bf7 6fb0 d75c afbf
00000440: 5146 992e c933 a8bf 7d69 bec4 28f3 93bf
00000450: 1af3 15bf 2389 ab3f 7d6f 56db f4a3 a73f
00000460: 9cd3 6ede 9171 a53f 416d dd60 24ed 9bbf
00000470: 4f85 9b3e 74d7 b7bf f825 8969 b2a4 99bf
00000480: 2189 1096 aad1 bbbf d1c6 4df1 8d8e 81bf
00000490: befc f516 de53 9bbf 4afc 3397 c532 ba3f
000004a0: fd89 81fd 45f9 b33f 65d9 3721 4850 aa3f
000004b0: 6cfd 01f1 fc2e b4bf e3d8 263a 1246 8b3f
000004c0: 38a9 2027 836a b33f b5cd 0380 a21e b9bf
000004d0: e53b d990 d3c4 b3bf 15db f404 60cc bd3f
000004e0: 755b d79f 0831 a93f 2551 4ce0 e2c6 a4bf
000004f0: ac20 c866 5205 a13f 9070 1321 1836 b6bf
00000500: 008c e2a1 7668 b7bf 72c0 d477 e629 b7bf
00000510: 69f2 d237 6fb5 abbf 0a93 c48c 5ad6 bbbf
00000520: bf30 b689 0e25 903f f185 619b 5540 b9bf
00000530: 0d5d ec7b 6cf0 b53f 699d 0cf2 5706 afbf
00000540: db9b 5cca 1a65 b13f adda 58e2 c156 babf
00000550: bffa 5117 8e44 87bf 4a88 660d ac94 ab3f
00000560: 8cd0 e4f4 4b75 ad3f 8e42 b715 6eb8 73bf
00000570: 47e7 3b02 b107 b03f 2072 0e26 ed79 b43f
00000580: c66e bac2 8791 b93f d587 1a39 bb86 bfbf
00000590: 93b4 46ed 3402 af3f 862b 61ee dae6 98bf
000005a0: b24d 4820 3320 af3f 4f8e 4816 07a0 8abf
000005b0: f5a6 ccba aecc a4bf 3020 f0ce e027 8b3f
000005c0: 17e4 15e8 8bf7 b4bf f21d 2e92 be16 be3f
000005d0: 6354 a406 c396 a33f b8dd ce1e 2792 c03f
000005e0: c010 f4f9 2564 b53f 536d 5423 e806 a0bf
000005f0: ea33 a769 9b0d 863f 13c3 a278 aef6 b5bf
00000600: 0c4e 9754 ec1a b03f c4e6 85ec 951a 9dbf
00000610: a9bd 786c 12a7 b5bf 5378 c1f4 a680 b53f
00000620: 9125 cee4 2e07 b33f 5b24 4fc7 be3a a3bf
00000630: 8ea0 8d17 8609 b03f ddf0 eb64 4384 b63f
00000640: 1d34 88d5 849e 78bf 2b5e 76b8 24c0 8c3f
00000650: 6324 313b 127d a43f d4cf 9c16 05ce adbf
00000660: 0708 6862 b361 ae3f 36f4 89fd 3f7a c33f
00000670: 268d b1d0 c9b4 bbbf c79a cdc4 bbd5 97bf
00000680: 9e37 9527 a018 b7bf b06f ac13 02ec ba3f
00000690: c3b1 cce2 6d6b 71bf 95b9 f631 15b0 ac3f
000006a0: 6ff1 5a5d c8ed b63f 594d 7c66 b16b babf
000006b0: c364 b2ba 55cc b4bf c7fa 0058 f222 a13f
000006c0: d57c 4978 6268 ae3f 2c5a 330b 7abf b93f
000006d0: 5bdf fc68 1d66 a0bf 0b1b 1296 88bb aabf
000006e0: 3b9f da0a 4a39 a7bf 8885 f292 3e00 a5bf
000006f0: 4b01 0e00 a689 aabf 41da 2593 0e0f abbf
00000700: 21ba 1498 4d25 b2bf 4022 d4bf 8d9d b8bf
00000710: fbb7 6f0d a334 bb3f c248 e5f5 1b81 863f
00000720: 9000 dfb3 84ac 92bf 9564 8eba 7d11 97bf
00000730: 60d2 b7af 7e48 b53f 16a9 07e9 228a abbf
00000740: 90a9 0705 1394 81bf b7b4 12e0 0235 94bf
00000750: e2a6 0f28 cc7a bebf cdd5 eaf7 0aee bf3f
00000760: 6d4b d0a5 2218 8e3f 3867 e4f1 59c2 913f
00000770: 75fd f241 b112 b7bf 6aea b331 d430 afbf
00000780: 0fa4 7d26 42cb b8bf 035b 3ca7 51ec b73f
00000790: 5a61 1abd 3fc4 ae3f bb0b 74da 64ac 973f
000007a0: 223b 413b 42b4 b93f 881a d86a 4c64 723f
000007b0: 0ee0 19ab acd2 7b3f d20f e0b0 d10c a13f
000007c0: ff9e ca52 875d bebf 0c8a ca53 8f43 b13f
000007d0: d606 4b59 0891 a33f c3a4 1399 c6b7 c03f
000007e0: 8ce2 ca76 6ac4 b8bf 12aa 14dc 6469 bf3f
000007f0: 3f73 1077 1cfb c0bf 7d4b fae1 4348 be3f

linear2.bias f8 [128]
0.09088610527496581 -0.08874698750955633 -0.008808177977521715 0.013274612665431665 0.11030205886191018 -0.11359999082507277 0.1482342997791307 -0.0629828378285825
-0.09071072726264337 0.055363833560290204 0.029730191388952745 -0.05110272165123343 0.07162182029908139 0.09852062060766838 -0.11698067384456126 0.13038814979958174
0.059262928901295225 0.06131440569731989 -0.013214957802665557 -0.015973060760080468 0.0055788314201590215 0.08898769759007027 0.020597445938582672 -0.004319695942927122
-0.07454693620033162 0.04790532465142672 0.08104319118307059 0.036836477865356376 0.09658829927833436 -0.0994004980516912 -0.09993822570962645 -0.11239214041657264
-0.053492540439161275 0.09400527514860303 -0.02608046018158016 -0.055735193613418735 0.06325606528896129 -0.028378795264748218 -0.11341529648413183 -0.12977650534051174
0.11641984421455812 -0.11148588667813515 -0.11019670627148677 -0.004988622508014185 -0.0588710143070506 0.04253234920685422 0.12559654431003764 0.12266654309896416
-0.12482414515267966 0.012193088435593427 0.07596688593134537 0.0772639147930148 -0.03769606351719141 0.07872548951933031 0.025823019071510668 -0.09353324122428673
0.012301599716056136 0.09756708832761371 -0.09502219027690034 0.14414254336161636 -0.08729395698856776 0.09638369153037636 0.05238619720472937 0.07176199242403193
0.11004256522302865 -0.03366541052852867 0.055567966171793465 0.04111704022781012 0.0458005389694276 0.016618666388470312 0.09152216255813114 -0.05882503082441596
0.10630323249581783 0.13553167632450785 0.017715171378752493 0.057472931449792895 0.08923739866073345 -0.05741032166480988 0.08984281699718447 -0.09527607942116431
-0.04029421485396373 0.0430959099388273 -0.006007520450260273 0.0550661877812057 -0.004163852428273503 0.03857281820748271 0.05007804723963876 0.08412973475958888
0.09439599477071695 0.09896202951646559 -0.002775802798669643 -0.027341229972683977 -0.022239561627534703 -0.06654957014529551 0.12316990350960833 -0.01795201441686211
0.025178734566882632 0.03517534972374436 0.14191314404307148 -0.1297800617641018 0.031143991563424782 0.10646652509912541 -0.1091945509914303 0.10718140442240887
-0.051586178851201786 0.009216591942835901 -0.0084900851120453 -0.06717833699940017 0.05099042884630149 0.1277563534978474 0.11215801721158943 -0.08316915170705252
0.04389761221029532 -0.1293674205911526 0.06761667492677076 -0.023481972248618886 0.13572849320166577 0.07778139948728027 0.11756094870752437 -0.020411107949514673
0.1447445686202796 -0.08152313283578135 0.09654063244446909 0.03966412135805491 0.07766146854716399 -0.03985443535208248 0.010330229019286237 0.1200353568093804
00000000: 3b19 d1d1 4f44 b73f 3fd9 f860 1fb8 b6bf
00000010: e771 cea2 050a 82bf dbea 1e5a b82f 8b3f
00000020: 934d 7e77 c13c bc3f 186a 6b95 e314 bdbf
00000030: 9b31 d96e 57f9 c23f 48db aeac a41f b0bf
00000040: 364b fd76 d138 b7bf a496 0bfd a558 ac3f
00000050: 47a3 e05e 9771 9e3f 2210 75cc 222a aabf
00000060: b952 ddbf ce55 b23f d5d6 7dbb a538 b93f
00000070: ba2a 6d08 72f2 bdbf 666b 9613 8fb0 c03f
00000080: ac12 feea b557 ae3f a9c1 7c0e 9a64 af3f
00000090: b7cc a49c 7110 8bbf 2c86 53f6 3d5b 90bf
000000a0: fcde fd27 d4d9 763f ee4b e5d2 e5c7 b63f
000000b0: 37d6 bf32 7f17 953f 6e48 db8c 87b1 71bf
000000c0: 1a57 ff0c 8215 b3bf 8041 5df5 0b87 a83f
000000d0: 09dc b11f 3fbf b43f 908b 7617 3bdc a23f
000000e0: 09a3 93c2 02ba b83f 638f 56a0 4f72 b9bf
000000f0: 6309 0b33 8d95 b9bf 90a7 6a37 bbc5 bcbf
00000100: 7d45 88cf 5f63 abbf d92b 6ace ba10 b83f
00000110: de95 2d0e d6b4 9abf e299 9cc3 5289 acbf
00000120: 1d92 b0ab 8c31 b03f eb75 3fb6 540f 9dbf
00000130: 27f7 43ed c808 bdbf 6f03 1d3b 849c c0bf
00000140: f2c6 81df b0cd bd3f ed86 3fcd 568a bcbf
00000150: bd1d 90f1 d935 bcbf c158 6228 f36e 74bf
00000160: 8723 4372 5724 aebf 8f21 bbd1 ccc6 a53f
00000170: 5caf 262d 8c13 c03f 9e65 ec16 1367 bf3f
00000180: 0d92 2ea5 79f4 bfbf 087d 8ba0 b0f8 883f
00000190: 8072 a7da 9072 b33f f369 3263 91c7 b33f
000001a0: b911 fdff e54c a3bf 7edc d88a 5a27 b43f
000001b0: 2aa1 9579 5971 9a3f 47ae 2564 cbf1 b7bf
000001c0: b565 c0c3 9431 893f 9675 881d 28fa b83f
000001d0: 0c32 a2cf 5f53 b8bf d8a6 d94a 4373 c23f
000001e0: 1e82 6792 e558 b6bf bd9f fd02 9aac b83f
000001f0: 1022 8317 5dd2 aa3f a998 8e72 fe5e b23f
00000200: d504 cde2 bf2b bc3f 90f0 73ba 973c a1bf
00000210: 2c80 d38a 6773 ac3f eb6b 2cee 4a0d a53f
00000220: 4196 0612 2b73 a73f 5f03 91d2 7b04 913f
00000230: d6de 0b17 ff6d b73f 3574 277f 501e aebf
00000240: c653 074b b036 bb3f 8262 b11a 1a59 c13f
00000250: 8dee db06 ed23 923f 2bd7 f691 176d ad3f
00000260: 79f5 d31c 43d8 b63f 43a3 01bc e264 adbf
00000270: 3a8e c858 f0ff b63f d67a 345d 0364 b8bf
00000280: 3813 087e 71a1 a4bf e3a7 8ec7 aa10 a63f
00000290: cd9c d27d 579b 78bf f876 45a7 a231 ac3f
000002a0: 48ae 13a0 1d0e 71bf 216f 6e01 d1bf a33f
000002b0: e798 486e d4a3 a93f f2e0 69bb 8689 b53f
000002c0: c2e2 69fe 552a b83f 67aa 5158 9355 b93f
000002d0: 2b9d b1c7 47bd 66bf a6a7 42e2 56ff 9bbf
000002e0: 1e76 78b7 f7c5 96bf 393f 5683 6409 b1bf
000002f0: c0dc 6c13 1088 bf3f 7e5e 454b 0362 92bf
00000300: 50e4 1346 74c8 993f 3fb0 60e1 8002 a23f
00000310: c2cd 44bc 352a c23f 078f 7910 a29c c0bf
00000320: 6e5f ede4 35e4 9f3f cc64 6be3 6341 bb3f
00000330: 62db 6891 2cf4 bbbf f0cc bb92 3d70 bb3f
00000340: 84db 2eee 8069 aabf d7ea cc07 26e0 823f
00000350: 8103 2cef 3f63 81bf c37e 6978 9932 b1bf
00000360: 2696 9be0 6a1b aa3f 7792 10f8 515a c03f
00000370: 7d71 e847 63b6 bc3f a02b 9ed2 924a b5bf
00000380: 91a4 a171 bf79 a63f 29ae 4d94 1c8f c0bf
00000390: cc88 798f 534f b13f 16e1 697b a80b 98bf
000003a0: a7df b71f 8d5f c13f 72f4 0857 7be9 b33f
000003b0: 0c4d fc6d 7918 be3f 5021 7944 a6e6 94bf
000003c0: 93b5 3f72 fd86 c23f 45ab 6535 b3de b4bf
000003d0: f08a 150b e3b6 b83f 4766 1d10 db4e a43f
000003e0: 54c4 913b 9fe1 b33f 861f e0f0 cc67 a4bf
000003f0: b15a 62de 0328 853f a227 dc1b a3ba be3f
