models/CNN_Model.pth (torch, 39519 bytes, 4 tensors)

convs.0.weight f8 [9, 12, 10]
00000000: ffc6 2ed2 b5db a2bf fe8c d0ac 7b38 93bf
00000010: 789a b2c3 78bc a23f 89e2 05dd 91c7 86bf
00000020: 7ead cb0c 42e9 a93f 9695 3a18 dc2d 983f
00000030: 45eb 1d77 9ec0 883f 517b c5ee d9c6 a4bf
00000040: 40f7 2b35 f0de a4bf e24c 3b2f 2dcc 95bf
00000050: 696c c8c9 d391 79bf a39b 71e9 ab06 903f
00000060: 53f7 3738 d5ed b5bf bf5c 3759 8ee6 bdbf
00000070: 4e81 be4f fec7 a3bf 6fd2 b804 d5d9 9ebf
00000080: f5ff a845 b057 a23f bf74 b59d c69c b2bf
00000090: ad02 d2ef 9e18 bcbf 0b7d ccf0 b85a a4bf
000000a0: c02c e484 0669 aa3f 979f 8352 bb88 96bf
000000b0: 875d 12b3 a88e a83f 09e7 7ce7 437f b2bf
000000c0: da49 947f d9ae 903f 2a07 b7b4 48e4 b5bf
000000d0: 1256 5d73 3e92 663f 6f18 f2db 35c7 b0bf
000000e0: 4c5a b9eb c904 a8bf ef11 48e0 8b48 a33f
000000f0: 3edd cdbb 8cea a33f 69c7 bc03 59ee b33f
00000100: 7b70 cac1 7a76 b03f 4b3c 0fce b29c a0bf
00000110: 53aa 2b91 1d96 b0bf b161 8c46 9a68 90bf
00000120: 6e93 e266 e7c6 b33f ebe9 0877 660c b4bf
00000130: 61f7 1e58 a6d4 8abf a98f 4e76 5519 a5bf
00000140: 260c a04c 0282 b1bf 3ba3 34d4 c024 b1bf
00000150: 30fd 16d8 dd5d b2bf abae 98c7 8e1d 72bf
00000160: 6532 d381 540b a4bf a7fd b8e5 7de4 aebf
00000170: d163 b15c 6ee1 66bf fd04 d490 e728 b43f
00000180: 83fa fa1a 3170 90bf bbcd 7555 ae03 92bf
00000190: 40fc 6eae 8a84 b03f afb3 792c de77 bdbf
000001a0: d1d5 f6d5 dd52 9bbf 2795 d1a7 01db a53f
000001b0: bedd 4d66 246e bbbf b120 a4b5 bc99 b2bf
000001c0: ef5d 10e3 e555 90bf 673e bf7c d0ab a9bf
000001d0: 1ed9 70ec 4f0c 92bf 629d 72c6 b686 983f
000001e0: 5018 6fd4 d78a b9bf 7889 a244 91e3 a1bf
000001f0: ea2f 83c3 2dfc b6bf 96b9 b538 12a7 b8bf
00000200: 19bb 42ef 817f a8bf 557b 6ac6 4969 71bf
00000210: c228 f426 55e5 9d3f bbc0 1aac 3f3e 9f3f
00000220: 07bd ca38 2b8c 93bf 3ca8 a8ae effd 97bf
00000230: a8fd 1909 5a77 863f 09a1 0d64 d416 a1bf
00000240: cf8e 0e42 cbe8 6cbf e155 626d 800a 8e3f
00000250: 9783 0f07 d1bb 90bf c27c c6de 61d6 953f
00000260: 1b46 98f7 826a f23e ab41 5ee3 e9b3 82bf
00000270: 5c22 466f b813 93bf 260e 0fe1 d3a1 9c3f
00000280: 1bde 5789 af2a 803f 381b e599 3206 95bf
00000290: d8d6 c4ac 4cb3 5c3f 900d 9be9 83d2 913f
000002a0: 0d28 4863 80b4 93bf 0219 7620 280e 973f
000002b0: d3ad adad b2e6 91bf 4e5c 210b 6e27 80bf
000002c0: 9643 47e8 9167 803f 669d ece6 8b73 7dbf
000002d0: dff9 023a bd63 aa3f 3a0d 8dfa 06a3 a4bf
000002e0: 84e5 4393 6da9 b0bf 75bd 9afa 993e b03f
000002f0: 66e4 2158 7ecd a8bf b0ff 5f58 54d5 903f
00000300: 4eca 7732 a6c4 863f a4f8 d3f7 811c b1bf
00000310: 9b84 d869 8148 83bf 064c fe97 2bd3 ab3f
00000320: 646d 40ea 6ddc 8cbf e274 3bc9 b8eb a1bf
00000330: 48dc 2b01 3fc6 8fbf 38e1 ac19 4455 8bbf
00000340: d051 6ff8 f795 8abf 4e39 0d68 1759 8abf
00000350: 9ed2 a1e4 eead 87bf 390e 403b 9082 85bf
00000360: 73b4 e228 6bda 84bf 2619 bf8f 8db6 7fbf
00000370: fe67 6b07 8114 393f 7f8e 7ed5 414e 713f
00000380: d850 4c34 a907 42bf b2d3 fbce e869 5dbf
00000390: 9bd1 46e2 6ad9 803f 313e e8a0 4a28 ab3f
000003a0: baaf 9410 de5a a3bf a4e7 fe8a d7da 80bf
000003b0: 3aa4 1156 36fb 933f be8d abaa 2048 463f
000003c0: d084 790e 8412 aa3f 2807 d790 c338 913f
000003d0: fd7c 5077 432f 903f d03b e742 9035 ac3f
000003e0: 4bfd 4e0f 82b4 a5bf 4a48 43b5 0005 aa3f
000003f0: f397 c701 981e 9ebf 6e64 cc62 38b1 b13f
00000400: 56e6 0bdc bdd6 36bf 642f 2558 eca0 843f
00000410: 0bdf 9f41 0978 b0bf 77ff 92de 537c a0bf
00000420: b600 e764 bf50 973f 7d48 e0de 0e16 88bf
00000430: 15bd 59e7 9c3a b23f 047b 70ba 0ccb 8e3f
00000440: 1e47 e7b6 b7ec 9b3f aaf0 396e 983c aa3f
00000450: e107 7f89 f20a adbf d0ea 5d2f 4fdb b9bf
00000460: 2130 88f1 4875 a9bf 5bd8 7519 0ac6 843f
00000470: 4734 e84f 2447 8ebf 2847 107e 31dc aabf
00000480: 3240 5185 9598 b03f d0a9 8a7b 84f6 acbf
00000490: 79d6 51da 5b70 a6bf 2243 d4c3 4382 9fbf
000004a0: edd9 dd3d 251d a53f a01a 75d9 fdd0 6c3f
000004b0: c0f5 fbad 5788 b13f 9db0 9860 9785 8abf
000004c0: 5971 ccb9 c0f3 b8bf 0f24 e2c9 7fb2 b43f
000004d0: e45a 93de dbf2 b33f 8ca4 c858 2e6b b43f
000004e0: 516e fa4b 35f7 a8bf 058b cd07 cd23 b3bf
000004f0: 5c1f 5544 94d0 a23f 3998 667f 2530 aebf
00000500: e926 6db9 68d7 b6bf e503 a72b 2a63 b13f
00000510: 139b 4d30 366d aabf 094d bb92 f4b3 9f3f
00000520: 0f7e a932 d5cc 86bf 0d6f edfd d460 b53f
00000530: 2239 cf0c 1cb7 a6bf 8994 f25d f51a b5bf
00000540: b992 c021 b824 9c3f a84e 4f53 b6c6 b6bf
00000550: 66ea 2868 e75d b4bf c361 1e94 e8b1 943f
00000560: b334 fc3d b6db 70bf b4d8 f48c a727 b23f
00000570: 4d4e 6517 909f b03f 03fb 1b81 d850 a0bf
00000580: 0dc9 bbe2 6696 b4bf d966 b8ef 5115 6bbf
00000590: f8d0 9b84 d691 973f 4cb4 1ec6 bf58 65bf
000005a0: c461 f852 960b b33f ec6a 0948 0851 b1bf
000005b0: 4260 8e5b f458 b53f 4259 8e9b fab0 713f
000005c0: 747a f569 a8ed 8b3f e249 0e42 ae47 a6bf
000005d0: 1cbf 8f4b 25c1 a7bf cc20 6a68 900c b7bf
000005e0: 25fa e868 5661 aabf 4d1e 0394 921b a7bf
000005f0: ec21 9eda 3930 703f d39d 99a2 cdc8 ae3f
00000600: 8ccd da0c fd43 90bf e566 d26f 73db 9dbf
00000610: 90d8 e758 1606 873f 45de 8272 e3a6 a03f
00000620: f372 3ad3 e977 a5bf 17a6 c485 6ef1 8ebf
00000630: b24c 2bdb ecdf 873f f785 2b73 9ddc a13f
00000640: 1b31 1f21 7660 91bf b850 5a2d 6753 b7bf
00000650: 1300 1462 9498 a73f 60b3 9eeb a21f a8bf
00000660: 2d4d 61d8 b1e1 633f 2163 2c84 a44a 843f
00000670: f579 fd57 8695 aabf 0da5 30e0 b447 a03f
00000680: 03a4 f4b7 1b60 76bf 586d 3516 e097 8f3f
00000690: 70d7 d560 ee78 943f b71b 327c cbfe b6bf
000006a0: f34c b4d4 64ff a73f c4fc 8578 65c0 b7bf
000006b0: 8aec 50bb 15b0 9bbf ecf3 2bbf 9b37 b53f
000006c0: 3987 b456 dcea 68bf d989 b26b 44ce b23f
000006d0: 9ce2 cca9 e89f a13f bb81 2d22 1c1f acbf
000006e0: 6d39 be5e c30e 793f 5818 4a11 0ba7 7c3f
000006f0: d311 ca67 eb2e b4bf e0b0 889b c2f8 763f
00000700: ad44 6ba6 0077 8b3f 3fe9 6923 d1de 8c3f
00000710: 6fd6 54e3 96f4 a43f da11 281d afd3 ab3f
00000720: 3d56 7fd8 e95f b03f e402 22e2 1e0a a0bf
00000730: c045 70b5 d8e1 a1bf 6287 e08f ad42 a63f
00000740: 6caf 9102 dbef b33f 3652 7586 b7d4 b0bf
00000750: d7be af1d eaf3 a73f 602f 8df4 3d4d 913f
00000760: cc77 8e4b 48f7 a3bf 50b2 6888 9c75 96bf
00000770: 2023 1b69 ea86 933f b225 3c38 1efe 91bf
00000780: 42fc 68ea 9e13 913f 1bbb 287a 19bd 9e3f
00000790: dd59 221c 6d6c b9bf 07c4 175a b51f 86bf
000007a0: ad0c 9737 e77b b2bf a0f0 826e f8c3 adbf
000007b0: 008b 855d 59fa b2bf ddac c404 08ad 9fbf
000007c0: 3ccf 267f dfc1 923f fc52 ec57 b267 a1bf
000007d0: 3d5b 08d3 8056 a6bf e120 61dc a384 abbf
000007e0: 4bc3 491b 50f5 53bf ae83 fe9d 2760 b0bf
000007f0: 4f2e e6c5 cd93 b0bf 1de7 f189 22bd a83f
-0.03683250609118537 -0.01877015344883847 0.0365941752327687 -0.011122836644731808 0.050607742368664596 0.023612441042720166 0.012086141595991537 -0.04057961501779651
-0.040763384333315944 -0.02128668404368462 -0.006242587373459598 0.01565044987037435 -0.08566029188656658 -0.1167992561162121 -0.03863520358504734 -0.030127838528829217
0.035825260642468416 -0.07270470953285989 -0.10975068430890174 -0.039754657167799655 0.051582530710299945 -0.02200596514822414 0.04796340166029283 -0.07225441361961428
0.01629199830228765 -0.08551458751665267 0.002755281423484809 -0.06553970927970608 -0.046911535286814215 0.037662860038867645 0.03889884750872817 0.07785564748044539
0.06430785399646936 -0.03244551434874462 -0.0647905806942302 -0.0160240274009042 0.07725378286211335 -0.07831421285747069 -0.013100909771192883 -0.041208906833417665
-0.06839002962810578 -0.06696705990601697 -0.07174479032163528 -0.004422719700908277 -0.03914894184854204 -0.06033700398665625 -0.0027930408009919435 0.0787491539558864
-0.0160529778211136 -0.017592166868281228 0.06452242621070159 -0.11511028848481318 -0.026683298286760696 0.04268651174133203 -0.10714938638363145 -0.07265834269140005
-0.015952674850351952 -0.05013896487036789 -0.01762509232158848 0.023951392996108274 -0.09977482735038845 -0.034939326885495114 -0.08978544257405444 -0.09629930386083738
-0.04784780545866436 -0.004250801261746447 0.029195147039936094 0.030510897521424534 -0.01908938917284522 -0.023429627452209653 0.010969832804447702 -0.033377301419763646
-0.0035289735682953803 0.014668467844141499 -0.016341463142342496 0.02132561609471107 1.7562924290065196e-05 -0.00913222050783776 -0.01862991503870358 0.027961073504924404
0.007893916491396749 -0.02053145469951831 0.001751732709704459 0.017404614575537602 -0.01924324613541022 0.022514941197663958 -0.017481605387201626 -0.007887706484480141
0.008010044003556687 -0.007190271847128704 0.051542199450967045 -0.040306299290501404 -0.06508526654569918 0.06345522278092182 -0.0484427912314878 0.016438787359220164
0.011117266097220437 -0.06684124279488174 -0.009415637056976947 0.05434547644031089 -0.014092310630124678 -0.03500153976868049 -0.01551484319996467 -0.013346225770519568
-0.012981354970102027 -0.012865240919975787 -0.011562219955729088 -0.010502936180279853 -0.010182225404003575 -0.007742455458304575 0.0003826918613590856 0.004225022472300942
-0.0005502296631641158 -0.001795270301895285 0.008227191000380432 0.05304177488517004 -0.03780263855364248 -0.008229907922089393 0.019512986186246396 0.0006799849992060109
0.05092251469319253 0.016818099704102668 0.015805296094296917 0.055096157233144205 -0.04239279209968546 0.050819418074425984 -0.029413580998060195 0.06911041652746672
-0.00034849295847969497 0.010072561683635413 -0.06433160640869688 -0.032198544425681534 0.022768965276328067 -0.011760822464598636 0.07120686195570543 0.015035724105528121
0.027270193613566744 0.051243556456911435 -0.05672414711399632 -0.10100264460008224 -0.04972293804539186 0.010143355276096047 -0.014784129799432345 -0.052461191786404904
0.06482824806994428 -0.05656827934338404 -0.043825979614592954 -0.03077035792108796 0.041237987329555505 0.0035176237103401037 0.06848667142545306 -0.012950117717160753
-0.09746937309359306 0.08084868124764476 0.07792448219275233 0.07976045291492734 -0.048761048817337234 -0.07476502838612127 0.03674758276116449 -0.05896107845482885
-0.08922438170443638 0.0679193836758852 -0.051614468952541646 0.030959912734783965 -0.011132875069221474 0.08350878905679 -0.04436576515546366 -0.08244260352747025
0.02748382287986104 -0.08896960767679707 -0.0795578603073551 0.020209917107054453 -0.004115783580130361 0.0709175795680917 0.0649347359770271 -0.03186680389443632
-0.08041995082365734 -0.003306064636274236 0.02301726517085087 -0.002605795439157654 0.07439555669441861 -0.06764270552359236 0.08338858828790399 0.004319170890900561
0.013636890157326699 -0.043515630305723155 -0.04639545962697708 -0.09003546284850755 -0.05152387648239579 -0.04513223702229805 0.0039522418900408245 0.06012575731147831
-0.015884355458820873 -0.02915745134359939 0.01124207934206492 0.03252325795022818 -0.041930491480547526 -0.015108931977539304 0.011657572210799525 0.034886284169043984
-0.016969533702465883 -0.09111637933011962 0.04608596513026 -0.0471163666364649 0.0024269555606594357 0.009907994540797884 -0.05192203353975692 0.031797077528901686
-0.005462749744119757 0.01542639796996663 0.019992565784796523 -0.08982536108133742 0.04687037559974696 -0.09277948563066035 -0.027038898046367645 0.08287976662900548
-0.0030416778078156373 0.07345988873797839 0.03442313263662308 -0.054924849674310626 0.00611759487573092 0.006995242340627504 -0.07884093555373477 0.005608329950103491
0.013410573080735533 0.014096864598503898 0.0409285690788409 0.054349396046777534 0.0639635232504014 -0.03132721434031341 -0.03492619719339585 0.04347746259033049
0.07787865460130455 -0.0657458022372531 0.04678279507049659 0.01689621739505698 -0.03899599001236673 -0.021933027101271485 0.019069349923287793 -0.017570945913609477
0.01667640977597907 0.030018232422828733 -0.09931070267553062 -0.010802666484751823 -0.07220311267069475 -0.05813576077477589 -0.07413252385371649 -0.030933499613792093
0.01831769193240905 -0.03399426768570454 -0.04362871719438608 -0.053746338512213894 -0.0012181551257095132 -0.06396720511703677 -0.06475530702135156 0.04831798490427117

convs.0.bias f8 [9]
00000000: f8f4 e65e f2c8 c4bf 4fa2 95a0 c62e a3bf
00000010: e16c 4220 e928 b8bf 42be 65e0 ba2e a1bf
00000020: d68d 0f06 0042 b03f 8708 e214 6aab b0bf
00000030: 1cf3 733e 55e1 c2bf 4aa7 33e8 b1df babf
00000040: 4c94 209f 9bf4 c5bf
-0.16238240846534047 -0.03746624670276743 -0.09437424695572673 -0.03355964650370115 0.06350708148925518 -0.06511557588422266 -0.1475016169496478 -0.10497581404675063
-0.17152734060178643

linear1.weight f8 [50, 72]
00000000: fc44 69e5 cf9c b43f 4d8b 9065 4b8d ac3f
00000010: 53e8 0884 388a b33f e44b 0bd2 e7e4 ae3f
00000020: 0f21 6b84 f9c3 9f3f 5331 a863 3370 a43f
00000030: 266e 98b0 2459 a13f 501d 9969 1cbe a73f
00000040: 3610 d84d 55b5 a63f 3575 36ac 804d 953f
00000050: f24c 511f 657d 8f3f ebb6 2ced 29af 8abf
00000060: f9cb 001d 2623 76bf 78ec 4563 fc34 a1bf
00000070: b145 b021 b2d8 70bf 2077 8d74 9ba1 b0bf
00000080: 74f2 8ac5 c657 b83f 9083 3e74 0d28 b03f
00000090: f7bb 5fa8 7a70 763f 02df 7e52 424e 9a3f
000000a0: a0ed c2a0 7c90 b13f fbed c4a1 b962 b23f
000000b0: a6be 24cc e0a2 95bf 464c d0f5 d15d aa3f
000000c0: fb49 ba56 e6d1 b83f 5a81 e42b 8742 b1bf
000000d0: 80f4 34c6 252f c03f b58e 1a14 60ea 96bf
000000e0: 6714 d4bc c793 9a3f cf62 e271 e95c 953f
000000f0: 54f3 d385 5c77 8ebf 2c2b f675 3d0a 76bf
00000100: b835 3e04 6115 a0bf 4174 6bcb dfae b2bf
00000110: fcf0 891c 7b34 9fbf 2a6e f44c 6d57 b3bf
00000120: 25bb 57ea f013 a0bf f3d4 ca9f 98fa 70bf
00000130: 642f 8392 dba3 89bf 9e2e 5cea c3ba afbf
00000140: 072e bf05 96a5 773f b02a 785b bee6 883f
00000150: 096e 609b 3aa6 b7bf 3a66 5eba 8ab7 8abf
00000160: b4c4 daae 8db8 90bf 9665 59d4 69d8 a23f
00000170: 82ec 4930 cbdc 84bf 4ba8 335e 6002 94bf
00000180: ba82 a810 a106 a1bf 5534 d028 2f8d 91bf
00000190: 6a2c 2f93 f11a afbf 7b73 5fa5 29ef abbf
000001a0: c8c5 fe11 f7d1 963f 6446 3614 c4f3 a03f
000001b0: ad67 38ac 16a0 a5bf 678d 7054 5142 bd3f
000001c0: 5d8e ad90 7818 9f3f 3802 8366 f7b9 80bf
000001d0: 327c 884f 648d 9bbf e65c 0de8 165f aa3f
000001e0: 383c 1f08 c1f8 b23f 4cf6 ecfb 7cd9 b13f
000001f0: 3b32 43b6 a2e2 b63f 7e0a b18d b0eb b73f
00000200: c674 818f 6ba6 b53f c11f 2247 4203 a1bf
00000210: ef55 04b2 1491 a1bf bad0 2c5d 060c b53f
00000220: ddfc acad 9678 b9bf 5454 b640 ac82 b5bf
00000230: b2e3 b01c 411d b7bf b4c9 0497 f62e a63f
00000240: 410d a5b7 8dbd ab3f 9d51 aeeb 17c4 af3f
00000250: 5348 cf65 8bb0 b23f 6b1c b42d 334d a33f
00000260: d984 8d31 c27a ac3f 17ba 6070 e231 ae3f
00000270: 00fb 0402 9318 b43f ad36 412a 3dd8 ac3f
00000280: 1190 a152 e2b5 8ebf 2259 89ac e366 9abf
00000290: 4acc d5d8 6b24 913f c91e e232 f3e2 6e3f
000002a0: 67e6 7e9d 152d 9c3f 6afc 3417 eb44 643f
000002b0: 5afc 5aa6 31ca 99bf acab 461f b1cb aebf
000002c0: 8ff3 677a 4980 b43f b1bf c232 a928 b73f
000002d0: a991 66e2 7264 943f 3219 596e fd1e a53f
000002e0: b960 b402 f0c7 ae3f 00af 2ae5 5595 a63f
000002f0: a59d 0537 d141 72bf ec69 67ae 3f61 a43f
00000300: 2e2e 1e98 de76 ae3f c3ac 2545 9186 a83f
00000310: 7658 30bd 9331 aa3f 7779 06fb 0560 963f
00000320: cb98 5c25 3aa9 913f 8677 d733 21a6 7a3f
00000330: 30de 2eb2 540d a93f 4d56 1861 54ae 893f
00000340: e141 2dee a455 b0bf 0130 e1ea e9b8 9abf
00000350: be86 fe1f 95d1 a7bf ee56 9547 10e7 b1bf
00000360: 6988 df2e b9c4 9ebf e919 b763 61cb a3bf
00000370: 369e 98e5 2c9e a2bf 5172 58ca b2d4 a4bf
00000380: 651e fb79 3d2e 85bf ce4d d979 8e7b a1bf
00000390: 9521 a8ff 63c5 83bf 6fb3 a90f d013 68bf
000003a0: 1e48 2133 4210 873f 5936 3503 b673 a7bf
000003b0: 9ab1 f8bf b4db a0bf 5e7d 4365 879c a3bf
000003c0: 1d78 eda9 f504 9fbf 43f4 3ef1 1183 bf3f
000003d0: 47de a52d 3137 abbf 0615 2d25 2c2c b73f
000003e0: 1597 6087 da3d 983f afa4 0eb0 0e85 873f
000003f0: 000e 32b8 656f ac3f 498f bc18 0c05 a33f
00000400: 0e07 cf79 e38a a83f e3b9 8992 4d24 b0bf
00000410: 5e6b edde b07c 913f 04fb 3550 d44f b73f
00000420: 145a 9bac 4337 81bf 272a 6f90 9694 923f
00000430: fa29 cf8a 7004 99bf 5782 fb36 b91e a93f
00000440: 7759 d48b a14c 96bf 9f87 88da fb1f 8fbf
00000450: c2a9 8a69 32da b0bf 965e 7526 313b a3bf
00000460: 1116 51d6 d22a 6a3f c41b d9d8 d70d a0bf
00000470: 17c0 fcf2 c9e3 9a3f 7199 7748 2317 b1bf
00000480: 0ee3 9656 1ff0 b03f 58a6 89d4 5b60 b73f
00000490: 4278 ba89 b584 b53f ae5a 36c3 1252 933f
000004a0: 3d70 0b49 7ab6 b13f 1fd0 bb57 e9e4 af3f
000004b0: 64be c67c 3dea a83f 9b01 4225 24ac af3f
000004c0: 6a55 6b95 8a31 8f3f 21e7 96c2 be63 7f3f
000004d0: 236a ac52 7e6d 69bf 24df bb40 f7da 953f
000004e0: d33a 73d3 4e7e 92bf 12e4 7b13 a564 a4bf
000004f0: 4679 0c82 4082 913f 1a3e a960 9cf4 9bbf
00000500: 1c24 6665 4b51 ac3f f572 8f2c cc10 ac3f
00000510: 26d9 222e f779 8d3f d678 be31 67d4 a03f
00000520: 1803 ecf6 cf04 9c3f 07c0 d0b3 c7d5 963f
00000530: 4431 1fc1 9229 a23f c6cc d50e f4c0 aa3f
00000540: 7af2 b69c 72bc b83f ea9f 6a93 462e 763f
00000550: fc00 c94b 82f1 a73f 2e9c d469 cf76 9bbf
00000560: 1c37 bf5f 09b6 863f bfd6 dbc4 b1c5 a43f
00000570: 40fa 09ec 7c38 8d3f a48f 3299 8ad4 b33f
00000580: 10b5 7697 5f6e b1bf a78c c410 1344 a9bf
00000590: fa50 90cd c6ab b2bf b1b8 bbc0 44bb 89bf
000005a0: bf76 1a31 2bdd 90bf 0954 7327 d1d6 91bf
000005b0: 855f e6f4 d3d3 b3bf 84fb 936f 9008 a3bf
000005c0: ec6a 65db 582f 88bf 48d7 14a6 4a73 aabf
000005d0: e7ed 7486 790e 90bf a808 9b7c 47c3 a3bf
000005e0: 6028 72cd d732 8f3f 8d01 ae15 7072 9ebf
000005f0: 81ca 9b14 9558 89bf 861a 4a4f 178f 6bbf
00000600: 58fa ebb9 5722 b33f 043b 32f3 aad6 b93f
00000610: d37b 09ac ff90 a23f cfbc 4206 a26b b1bf
00000620: dc9d a752 62af b0bf 32e7 3f9e a599 b5bf
00000630: 28d7 a2f0 8d0c 9fbf bdbc 92e3 21b6 a2bf
00000640: 3ac9 14cb 4855 b83f 4567 586b 2d34 ba3f
00000650: 88a8 aec5 ac63 a3bf 82b5 208b 428d 87bf
00000660: 9019 07ce 5bbb 953f 3d23 b052 5cef 98bf
00000670: 06a9 5465 d70d 843f e7d0 8ff8 5fce 9c3f
00000680: 8301 4f79 e023 a53f 0f87 9d61 5710 a9bf
00000690: 2114 23a0 1d06 b03f 49ac ea68 b7c1 b33f
000006a0: d3d7 0c69 c396 a0bf f21b 068d 4c8a b23f
000006b0: a712 06bf e043 acbf 3111 b9c3 fbf0 8d3f
000006c0: 2762 e1c6 11ab bb3f d48b d7b6 a21f b93f
000006d0: 61db 6f0d f00b a63f 5ae6 f8ae a0a2 b33f
000006e0: 8c3f cc12 4e6f a13f 335d cd40 8676 a63f
000006f0: b82a b243 4260 a33f 2726 421a edd8 a23f
00000700: 3254 0062 20d7 92bf 2cea e323 aab3 9b3f
00000710: f270 288b 5a5d b03f 74e8 1839 683f 9ebf
00000720: af8d 1314 82aa aebf 40c4 4e74 68cd 93bf
00000730: 09b7 d3b1 9356 583f adb9 5b9d e29c 8b3f
00000740: ed14 ef8b ce00 b83f 5182 690a 4ea7 bc3f
00000750: b2e4 cc7c 4ebf 88bf e19d dad7 a540 983f
00000760: 40f6 efe4 4dda 983f 6000 463d 9d36 913f
00000770: 08e6 7f2e 5cee ac3f 5dfd 22cc ca28 a03f
00000780: a344 0d3f f074 87bf d8a9 0abc 60ab b43f
00000790: 65c5 7d94 91e0 a43f 24a4 f476 87db a9bf
000007a0: 36a6 c413 4c4a acbf f7ba 3760 7df4 953f
000007b0: 2572 435d ba10 a7bf f32e d292 a492 683f
000007c0: bb47 3e6a a014 abbf 6848 c397 7c34 7abf
000007d0: a31a 6ba6 53d5 a2bf 7c9d 498e fe2a b3bf
000007e0: db5c 2c87 8c0f b3bf 7741 5814 1795 92bf
000007f0: 219a aeea f0dd 9bbf 137b 427a fee8 adbf
0.08051776266917793 0.0557654916267639 0.07632783149247872 0.06034016074195117 0.03102102156370373 0.039918523707543806 0.03388323455530111 0.04637230671920156
0.04435221266979321 0.020803461562185894 0.0153758907492034 -0.013029410887237932 -0.005404614334156393 -0.03360737525778118 -0.004112907244249995 -0.06496593089601932
0.09508936236211146 0.06311115348809282 0.005478362209017532 0.025689159665232893 0.06861094403114132 0.07181892585224851 -0.02112914319985628 0.051497040993262064
0.09695281617522504 -0.0674213869247117 0.126438829212848 -0.022378445841822543 0.025954361820386043 0.02086224324793556 -0.014876101335625037 -0.0053808594524394175
-0.0314131086043789 -0.07298086849500952 -0.03047363626181808 -0.07555277947215502 -0.03140213833454756 -0.004145237148511105 -0.012519565018372432 -0.06197178111878297
0.00577314951437869 0.01215885845797024 -0.09238020223022415 -0.013045390903971488 -0.0163290155384785 0.0368073531833019 -0.010186755572467957 -0.019540315389271517
-0.03325370148036684 -0.017140137544675877 -0.060752438752012264 -0.05455904144012088 0.02228532836278932 0.03310978647926957 -0.0422370038251779 0.11429317771449164
0.030366786795083523 -0.00816720277396242 -0.02690655456001085 0.05150672514599268 0.07410818527499508 0.06972485685852198 0.08939568471687036 0.09344008883730656
0.08457062009388769 -0.033227988417877004 -0.03431000397737793 0.08221473479062782 -0.0994962858212491 -0.08402515964401519 -0.09029013586486093 0.043327051100635755
0.054180554072923666 0.06204294921841156 0.07300635562504114 0.03769836361794251 0.055624073552061844 0.05897433873939322 0.07849997329047298 0.05633727207951487
-0.014995353838635624 -0.02578311672763179 0.016740498647277037 0.0037703275657497743 0.02751573346879468 0.0024742690672208594 -0.025185371187714224 -0.060147795741918614
0.08008250463895038 0.09046418656612222 0.019914431637191452 0.04125205966970426 0.06011915238394878 0.044108089661078154 -0.0044572994669133436 0.039804449119134805
0.05950065237911094 0.04790166825372346 0.05115949329790308 0.021850675054900983 0.017247112779977408 0.006506089875498838 0.048929831267227164 0.01253953858671788
-0.06380682768691016 -0.026096014939227533 -0.04652086272768717 -0.06993200061455315 -0.03004731510726125 -0.03866104452349701 -0.03636303236663389 -0.04068526001012585
-0.010342102322638167 -0.03414578664219513 -0.009653836478734227 -0.0029391349501594537 0.011261479554523442 -0.045804679767212426 -0.03292622416879283 -0.03830359564903561
-0.03029235696464393 0.12309372081559027 -0.053155457327133386 0.09051776797885588 0.023673452866339668 0.01148425555023133 0.05553739427071136 0.037147882480239654
0.04793463575289368 -0.06305394008243285 0.017077220541391262 0.09106184919617638 -0.008406189637224983 0.018144943776670665 -0.02443099829887705 0.04906252666637972
-0.021776699218287256 -0.015197723013503693 -0.06582942082119472 -0.037560974068296435 0.0031942480004854075 -0.031355614872658616 0.026259570556419556 -0.06675930518358598
0.06616397727965426 0.09131406725796276 0.08405623066434578 0.018867772259535336 0.06919063838307778 0.062293331107781784 0.04866211078785623 0.06186020808036404
0.01523121136180335 0.007663483769130315 -0.0031039683575617857 0.021343100858728495 -0.018059951454058542 -0.03983035910454914 0.01709843438867977 -0.027300303840375496
0.055307727935606205 0.054815655173774326 0.01439278707071574 0.03287050707079835 0.027362107702177146 0.022299881315291283 0.03547342879719165 0.05225336724370204
0.09662548376122429 0.005415225684068029 0.046764442206496754 -0.026820412477857207 0.0110893947929998 0.040570788651093086 0.014267898515069821 0.07746187439130253
-0.06809041450351949 -0.049347492024275845 -0.0729336025108899 -0.012564217693093434 -0.01646869170382703 -0.01742102435385465 -0.0774509880924353 -0.03717471468006919
-0.01180905742210344 -0.051660855077371226 -0.015680216628636414 -0.0385992374044844 0.015233694035732437 -0.029733420680260237 -0.01237598866598444 -0.003364129568868282
0.07474277772051019 0.10093182027251763 0.0362625024324569 -0.06804859783982241 -0.06517614858568471 -0.08437571633831167 -0.030321328937780084 -0.03654580977433273
0.09505133588826178 0.10235866423354618 -0.037869834071288244 -0.011499900694696977 0.021222528886732983 -0.02435058836639147 0.009792025356166533 0.02813100771523205
0.04128934365099026 -0.04895279947846919 0.0625933185538803 0.07717462836687718 -0.03240023286200224 0.07242277567830493 -0.05520536739189668 0.014619795713891466
0.10807906251410114 0.09813897098460639 0.04305982746148263 0.07670025131019412 0.034052314562472125 0.04387301960985681 0.03784377170912506 0.03681126542603535
-0.018398767453693128 0.027052553597039772 0.0639244642010828 -0.029538753971998635 -0.05989462370942122 -0.019338256930215403 0.0014854852991521025 0.013482828547662995
0.09376231113772678 0.11192786935999634 -0.0120836383663224 0.023684111880951767 0.024270264719225887 0.01680989920123499 0.0565060431253635 0.03156121961500944
-0.01145351116579924 0.0807400187574453 0.04077582299840791 -0.05050299956412399 -0.05525434247313081 0.02144046687856879 -0.045049499401759875 0.002999612267165713
-0.0528917436305529 -0.006397711458889878 -0.036783804001563135 -0.07487479184930196 -0.0744560079586906 -0.01814685880350583 -0.027213825534682216 -0.058418228554037686

linear1.bias f8 [50]
00000000: c8f7 2024 8bf1 c5bf d154 57ac c3fe bdbf
00000010: 61aa 3065 8f3b c4bf 4083 acc1 1092 b9bf
00000020: 141a e07e a098 c4bf cced 47b9 8580 c3bf
00000030: d151 6c30 31cb bdbf f79b f7b2 df87 bebf
00000040: 6435 f6f9 741e c2bf 4b4e 45b4 e677 c0bf
00000050: c370 7f1f ace9 bbbf 66cd a4e5 ec7f c2bf
00000060: 9f5b bd08 8cd3 bcbf e68a 9344 1923 c3bf
00000070: e8a8 2c00 b35d c0bf 96df 824a bd46 c2bf
00000080: a554 018d 1df4 babf 8715 b9f4 37aa c0bf
00000090: 60bc 746a 57d8 c3bf 5e7e 5175 2a34 c1bf
000000a0: 4742 136f f9b6 c2bf 9d4c fb75 ce73 c1bf
000000b0: 4366 17a0 5d2a c6bf a9c4 66f1 c1a9 c3bf
000000c0: 9018 ec7a f0f0 c2bf 6358 623d a8d2 c2bf
000000d0: ab64 9705 930f c3bf 6087 e721 b3db bfbf
000000e0: 6215 28cf dfd1 c4bf a3d0 b8cd cefa c1bf
000000f0: 145f 3249 c08a bfbf a9f8 c54d 689d c3bf
00000100: 6776 2e6c 1c5c c0bf fd95 84bf 96fd c7bf
00000110: 1b09 346c 6737 c5bf 75d1 dd82 3fb6 c2bf
00000120: becb c79e 53ce c6bf cb6f bf33 c5df c6bf
00000130: 66fd e55a 1b82 c0bf 8761 d0d4 f73a c5bf
00000140: 1f5d ad59 0a17 c5bf ee76 c39b edfb c2bf
00000150: 867d abb3 1518 c3bf 5864 985e 5289 c1bf
00000160: 827b f89e a70a b3bf 1f1a 99a3 eb53 bebf
00000170: 2c90 e140 8704 b9bf 1d23 989e 0d19 c4bf
00000180: cc54 aa31 eb0e c0bf 9a0f c0fc 8972 c1bf
-0.17143382324314715 -0.11716864545390428 -0.15806763115809289 -0.09988503197065501 -0.16090780444228925 -0.1523596911136863 -0.11638171608166849 -0.11926077002827627
-0.1415544720188492 -0.12865909387856997 -0.10903430718412026 -0.14452897275041748 -0.1126029511773212 -0.14950862739995968 -0.12785947330969027 -0.14278379572146765
-0.10528740589627945 -0.1301946587501954 -0.15503971765562863 -0.13440447548326778 -0.14620893405528276 -0.1363466335375038 -0.17316789929354756 -0.15361809050731282
-0.14797788621962527 -0.14705374715112204 -0.1489127900411281 -0.12444610193008776 -0.1626548539644928 -0.14046654744163786 -0.12321092402487138 -0.15324119374776515
-0.12781100542354126 -0.18742641784153583 -0.1657532957397699 -0.146186770343444 -0.17817158940269268 -0.17870392824886347 -0.1289705461349328 -0.16586206332500472
-0.1647656381489719 -0.14831323724404605 -0.14917250893539008 -0.13700322741422855 -0.07438132887953766 -0.11846802467435012 -0.09772534688960438 -0.15701456302510844
-0.12545528340402823 -0.13630795327491968
