models/cnn_2.pth (torch, 693499 bytes, 12 tensors)

y_convs.0.weight f8 [16, 10, 9]
0	0xbfa29f824290a624	-0.036373205781569135
1	0xbfa4481dc7f64461	-0.0396127039522376
2	0xbfa5c0453ebaa4f7	-0.04248253241287075
3	0xbfa4bdc6c5cd8d83	-0.040510379453531996
4	0xbfa647069983ae65	-0.043510633697079006
5	0xbfa86c27cf966085	-0.047700161066303294
6	0xbfa4e337b38fad8f	-0.04079603259000485
7	0xbfa4c1553b6c53cd	-0.040537513259699766
8	0xbfa5d23d5c0a304f	-0.042619626508071044
9	0xbf9d3acc74e8307d	-0.02854461158317222
10	0x3fafc80fe30e3775	0.062073227373828845
11	0x3fab8a4e30125dc6	0.053789561622746215
12	0x3f895f5248e79229	0.012388842439528496
13	0x3facf0c10f97cf02	0.05652430835098522
14	0xbfa40cd673bfc663	-0.039160443906337127
15	0x3f7951fe8224060e	0.006181711362161403
16	0xbf99fb5408f61773	-0.025372803732828197
17	0x3fb0af9e5c568c10	0.06517972711894537
18	0x3f6f15b88a335595	0.0037945370000708836
19	0x3f6baefc8b7a9ed7	0.0033793385044481416
20	0xbf8b0848390bef89	-0.013199390641140745
21	0xbf3e4b832c196fc4	-0.00046226456115560873
22	0x3f629188db5b913f	0.002266661928716967
23	0xbf93944e58567b7d	-0.019120430127823596
24	0xbfa1ee6ee901b035	-0.035022226279437886
25	0xbf9c6efd91977f69	-0.027767145167558214
26	0xbfa00678c48b608f	-0.031299375526658506
27	0xbf9a183a95c28149	-0.02548305071889104
28	0x3f9289a102993222	0.018103137763590856
29	0x3f704d316d691974	0.0039798670537208765
30	0xbfabd1c8192f326c	-0.05433488185335453
31	0x3f6c771f2c3a5aab	0.0034747704356264584
32	0x3f87b5d7ffa11c9c	0.011577308167160454
33	0xbf9f31cd3900c540	-0.03046341572207223
34	0x3f929439ae3fe60f	0.018143559704162423
35	0x3f5f4269a6bfb793	0.0019079238654699834
36	0xbf860e94dee31994	-0.010769999553656352
37	0xbfab644d139f838f	-0.05349961151637849
38	0x3f9c6f5556cf7e26	0.027768453048223084
39	0x3f88df505e2b3308	0.0121446875322362
40	0xbfa146588f2c0729	-0.03373982188897024
41	0xbf9e51d4073542d3	-0.029609024944252504
42	0x3f7e42880618345b	0.007387667983050762
43	0xbf923f3ad35cbc35	-0.01781932749798561
44	0x3fa1a1fce0423827	0.03443899381191811
45	0xbf9de2c786820fcd	-0.029185407242508
46	0xbf84eb7831a935e4	-0.010214747443707269
47	0x3fa7f0b849947ddf	0.04675842188066403
48	0xbf8fd30fc0026515	-0.015539286658440102
49	0x3fa8a695f998f3a4	0.04814594909519279
50	0x3fb0317346423fa8	0.06325455155660953
51	0x3fa13033ae94b293	0.03357087617982759
52	0x3f9fb5fac93a1b68	0.030967634708328445
53	0x3fa3e76ce47482a9	0.03887501038321279
54	0x3f8cfdd569302dc1	0.014156024239148192
55	0xbf410c2025e7cdbc	-0.0005202443097104751
56	0xbf8be89f52acfe16	-0.013627285681308481
57	0xbfb242f40e40d9a7	-0.07133412693006012
58	0x3f7a930f1c3048f6	0.006487902664064507
59	0x3f8d23b789158106	0.014228280898067169
60	0x3f9cf579c8117d24	0.028280165516091263
61	0x3f9e2b6b6d2269da	0.029462507759129376
62	0xbf939698d003e94d	-0.01912916917442802
63	0x3f8aff307a736ba0	0.013182047593024937
64	0x3f85e90c0c8309d1	0.010698408252555776
65	0x3fa15b371b88ab84	0.033899042235439075
66	0xbf9d2e6b4cbb6edb	-0.028497387464866058
67	0x3fa4bb773c696322	0.04049275028655176
68	0x3f93a67611643700	0.019189686595431077
69	0xbf8efcebfb57d4fa	-0.015130847556955807
70	0xbf999c8f413d9deb	-0.025011289936996233
71	0x3f92f79e04d99ae2	0.018522709890386298
72	0xbfa2e53c9dfa8085	-0.03690518787812017
73	0x3f93848fe4c6101b	0.0190603717214942
74	0xbf6529411b106696	-0.0025831481548380204
75	0xbf60222bddb01e88	-0.0019694191701125664
76	0xbfa01c14decb4863	-0.031464245029966496
77	0x3f82c2cbf04ef588	0.009160607596522721
78	0xbf81bfe443046cf9	-0.008666785521703068
79	0x3f927b0e973a69f0	0.01804755018256715
80	0x3fa0f5cb95486e50	0.03312526891042167
81	0xbf86f3e1fa1a1eb6	-0.011207356877334856
82	0xbf7564150f4d10a4	-0.005222399010396259
83	0xbf969ef0d4723c08	-0.022090685812653305
84	0xbf9c6cc27642a63c	-0.027758635013617403
85	0xbfa9bf53e9d5a100	-0.050287840170144094
86	0xbfa538274ae9cef8	-0.04144404210538072
87	0x3f87e70b4c24a7c6	0.011671150456624601
88	0xbf988837b8dd7011	-0.023957129152549387
89	0xbfa4d6a6d2c40925	-0.040700162151568166
90	0xbf8af4ca7410d677	-0.013162213961645393
91	0x3f7e00918ee80093	0.00732476099665304
92	0xbf7148c54224d810	-0.004219790020490791
93	0xbf7b0f6e7e958fd8	-0.0066065136137218525
94	0x3f6203c175129bdb	0.002199056478804346
95	0x3f745ca6d3d31224	0.004971172017751022
96	0x3f7f7e82d25a62a4	0.007689009687645996
97	0x3f86c56731e524cc	0.011118704042603865
98	0x3f8613f7d2a4e3f0	0.01078027354798114
99	0xbf6967affa9d902c	-0.0031011998261636555
100	0xbfa0418da23c47a0	-0.031750131658682124
101	0x3f9d26da042b3fcb	0.02846851969189838
102	0x3f6b0a40e75ebe19	0.0033007877018105367
103	0x3f94347d288d015b	0.01973147926332906
104	0x3f935c60c60d2bb5	0.018907081688023648
105	0x3f7eb95c7668b058	0.007500992948319483
106	0x3fb4b0e598d3a9ee	0.0808242319214185
107	0x3f8da02cba3377df	0.014465665275959992
108	0x3f750541f3715343	0.005131967183008626
109	0x3f76ebbd257b7710	0.005595911839660919
110	0xbfa2d5e057fb26cd	-0.0367879969977146
111	0xbfa84d259cf63387	-0.04746358433758418
112	0xbf74de6acf51b2a5	-0.005094926095904261
113	0x3f8ed929276e96c8	0.015062638774746687
114	0x3fa1e6c522dd32f0	0.034963760858408466
115	0x3f9c51d32541ccbd	0.027655886792172114
116	0xbf9510be9b7169be	-0.020571687924851416
117	0x3f8d89117756d64e	0.014421593145793523
118	0x3f953b562bd997b7	0.020734163690938803
119	0x3f83dc67573a99ae	0.009697730397715567
120	0xbf933b6e91b1ee48	-0.018781402246970808
121	0x3fa357ceb6c36541	0.037779292879074784
122	0xbf9ad4972fb7fb9b	-0.026201593673245687
123	0xbf95fedc8e708882	-0.02148003215200634
124	0x3f7b5feaf86b8068	0.006683271267974168
125	0xbf94c52b1df321bd	-0.020283387854563396
126	0x3f66fdbaea916624	0.002806534834729717
127	0x3fa3968793c4fbcd	0.038257824695839916
128	0x3fa41bd55b3ba9e7	0.039274852167938516
129	0x3fa10704e201325b	0.03325667628141523
130	0x3f83caf4ab0d7b61	0.009664451093781503
131	0xbf80f9ee16b05234	-0.00828920370808204
132	0x3fa1364c5bfa1471	0.0336173879887064
133	0xbf95a35a09772ab2	-0.021130949809768658
134	0xbf08cbd7b48cf233	-4.729511289844716e-05
135	0xbf711515bcb1ee6a	-0.004170498762615086
136	0x3fa5ca63cfe6d5a9	0.04255973732817193
137	0x3f8ff386234af9eb	0.015601203872731303
138	0x3f528f1d4f1a587f	0.0011327539654409078
139	0x3fa95a769e87bee9	0.049518305637205114
140	0x3fabba41d4700ff5	0.054155404264775976
141	0x3fa26028c1c1048f	0.03588988652382696
142	0x3fa39026ef1c2237	0.03820916813680635
143	0x3fa062197e27cf39	0.03199844040855599
144	0x3fa51091552faf3d	0.04114202656623298
145	0x3f8e82a30b49997e	0.014897607595412362
146	0xbf9371cb9baf89e0	-0.01898878228883827
147	0x3f37dc1fad489626	0.00036407254563850173
148	0x3f95f5cf18f30f3e	0.021445499322694454
149	0xbf89a7bfc2d8adc2	-0.01252698720335033
150	0x3f69def803737a05	0.0031580776227280193
151	0xbfa56ad1b37d09a5	-0.041830590400894686
152	0xbfb0a90e1096f2e7	-0.06507957367916682
153	0x3f9cecf643e629a3	0.028247688192587394
154	0xbf7eff24083b2273	-0.007567539930911071
155	0x3f94385534b2663a	0.019746142712938154
156	0x3f95aeaad631e561	0.02117411548940618
157	0x3f9ac29d8101b00f	0.026133023261010687
158	0x3f610d75d2b97441	0.0020816136582611226
159	0x3f402ac28814f22c	0.0004933786259822596
160	0x3f85219333cd8d06	0.010317945497894342
161	0x3f7bdbc2de4f5c65	0.006801377491647197
162	0xbfa1aad128b3793e	-0.03450635549391955
163	0xbf9622d92580b974	-0.021617310441962315
164	0xbfa585fc8ad25636	-0.042037860818862446
165	0xbf7a450708e53b1e	-0.006413485984309712
166	0xbf8ce473bcb4581a	-0.014107612797072778
167	0x3f8c5501b071d1c9	0.013834012219583596
168	0x3f9dde89c9887bd5	0.029169228482824956
169	0x3f9686672cfd5c1d	0.02199708187194115
170	0x3f8b1952430b3ee5	0.013231890364664387
171	0x3f8a83d10aa5ac42	0.012946732652116325
172	0xbf52eea7b19f0e2c	-0.0011555326113786941
173	0xbf8a2f385641ec88	-0.01278537762867972
174	0xbf90b5ecca4bc211	-0.01631898865429277
175	0xbfacf14067c3f683	-0.05652810351055584
176	0xbfa5e42b2d5035dc	-0.042756413728152615
177	0x3f8ba0ef6cd3cfb9	0.013490553387306524
178	0xbf994b92ebdcd715	-0.02470235409346973
179	0x3f9a780047663da0	0.025848392827865774
180	0x3fa70f7dc067fb90	0.045040063607294845
181	0xbf8e7478f0ed2993	-0.014870591022959434
182	0x3fa452cf2ef60670	0.03969428489928084
183	0xbfb17ca132023918	-0.06830794783511285
184	0x3f95e7f90ec54f72	0.02139271881726707
185	0xbfaff27a48f77b9b	-0.06239683285433913
186	0x3f9046b9b17364f1	0.01589479585240822
187	0x3fae60c09b7d6c19	0.05933191202230876
188	0x3f89691892cf4316	0.012407485943101853
189	0xbfb90152806bb2af	-0.09767642627020721
190	0x3f93972af5d24de9	0.01913134694457411
191	0xbfa5e98a4c23fe35	-0.04279739551020293
192	0x3f92fe0b6ed59fe9	0.018547228469657204
193	0x3fbb2a9af0050ae9	0.10611885413986112
194	0x3fb54cdbbd7bbe5c	0.0832040155034916
195	0xbf7d68b32ad124ce	-0.007179927703938561
196	0x3f9b86904dd62da5	0.02688050723149406
197	0xbf98ce184642817c	-0.024223689354245334
198	0x3f99628364198902	0.024789860710719765
199	0xbfa24f165dc880ba	-0.035759638736864344
200	0x3f558179907b72fd	0.0013126074936088965
201	0xbfabb05b778da850	-0.05407987436667894
202	0x3f8ccfecf5afd599	0.014068461654441576
203	0x3f83fb82813d733c	0.009757060593693738
204	0xbf97542f1074de56	-0.022782073382784006
205	0x3f8a0d6efbbcf6de	0.012720934922636425
206	0x3f826491f82154dc	0.008980884919007108
207	0xbf74270540151ac5	-0.0049200253573135665
208	0x3f8703ebe312116f	0.011237948290962333
209	0xbf94c2379a5d2bea	-0.020272129818561448
210	0x3f9485adb3ec1d35	0.020041193110072093
211	0x3faf7d429e5bfa99	0.061502534705131846
212	0xbfa598a074881738	-0.04218007490639625
213	0xbfaaa16398d92577	-0.052012550743323276
214	0x3f935648f05b95ca	0.01888383833911237
215	0xbf5afe6779f38850	-0.0016475687514732225
216	0x3fb19f383b3e9e19	0.06883574911500324
217	0x3f8ab091bc26c782	0.013032091669490379
218	0x3f9693847143154a	0.02204710904404309
219	0x3f9246b42e7ca7e7	0.017847838723504508
220	0xbf5f0deecafed946	-0.001895411678544416
221	0x3f9a5dc82d5d1d39	0.025748374718458342
222	0xbf9be5684709dd71	-0.027242307029579253
223	0xbfa2d95037075dde	-0.03681421920526494
224	0xbf7431c4fc48c68f	-0.004930276369621857
225	0x3fa927ba593926e4	0.04913122500563619
226	0x3fa401431e3edf77	0.03907212967118217
227	0xbfa6e74ede29e1f7	-0.04473349058111247
228	0x3fb4fab360321135	0.08195038889431745
229	0x3fb900eaf27733a5	0.09767025394030655
230	0xbf9014f451191321	-0.015704934549165665
231	0x3fad63df19ffb258	0.05740258400314663
232	0xbfa68feeae8b71f5	-0.04406686669037533
233	0xbfa7a78e139cb5d0	-0.04620021809965247
234	0x3f88e22daa7820bd	0.012150151028450623
235	0xbf94565a28b603b1	-0.01986065743904292
236	0x3f9ce69b846d44a2	0.028223447759334726
237	0xbfa48559c0d4e68c	-0.04007988432790652
238	0x3f9ee0ebace11f71	0.030154879023285234
239	0xbf9f6340e0b2318c	-0.030652059282645847
240	0x3fa254bc0a211a88	0.0358027231564409
241	0x3fb1ec5adc00dd16	0.07001273986030684
242	0xbfa6668ec17e4381	-0.04375120269754174
243	0xbfa0568040afbb86	-0.03190995015744762
244	0x3f8e4574e0b5f75e	0.014780915362958499
245	0x3f7fd86c1b950b73	0.007774755760069907
246	0xbf980de866cdc190	-0.023490554117815032
247	0x3fa533816e496c53	0.04140858145975614
248	0xbf27415aee2ffcf0	-0.000177423810868028
249	0xbf80245394f4de4a	-0.007881787284176007
250	0xbfa838a4cfc06ce8	-0.04730715786009815
251	0xbf80e0ab60e0a1e2	-0.00824102296253754
252	0xbfb31f78346d6b7e	-0.07469893722502083
253	0xbfa5f9442df3a7ea	-0.04291737614569498
254	0xbfaf12d03018856d	-0.06069040858370554
255	0xbfa9c1405ccd9649	-0.05030251629686384

y_convs.0.bias f8 [16]
0	0x3fa8c5470ed5bb7c	0.04838010841455451
1	0x3fc69c5af2c48a25	0.1766465840710946
2	0x3fab9a50da19efdb	0.05391171133393843
3	0xbfbb2ccc95926f5b	-0.10615233089123192
4	0xbfa0a88eafb9fd9a	-0.03253599066828912
5	0xbfbd4e8e260f503d	-0.11447990826792505
6	0xbfa34a6f9254c93b	-0.037677275288290756
7	0x3fc21b92621bb8c3	0.1414664248508811
8	0x3fabd32c73979bb9	0.05434550200498429
9	0x3fc7ae0a7eb721c6	0.18499880969308274
10	0xbfc73e58ed8fcb88	-0.18159019088451722
11	0xbfd0176d9f8ce232	-0.2514299448116929
12	0xbf88a2badb2ef92e	-0.012029132665585775
13	0xbfce5e96ee2af91b	-0.23726164464273655
14	0x3fc2b65fc8ca445a	0.1461906176014363
15	0xbfd1747dea9d6473	-0.2727350989494603

n_convs.0.weight f8 [32, 4, 3]
0	0xbfd0d05d506d22e1	-0.26271756033069776
1	0xbfa33d1c439eab7a	-0.03757561040341435
2	0x3f94f48f58d039c2	0.020464172168482404
3	0x3fb07e429273bf83	0.06442657542697643
4	0x3fcab722110ace66	0.20871377784861805
5	0x3fd695b423ff3521	0.352887187150218
6	0xbfbb5864992213ee	-0.10681751955605964
7	0xbfb0bff81817bdd6	-0.06542921627237006
8	0xbfb9adb796eee658	-0.10030696329968103
9	0x3fc0a35a3e7570b8	0.12998512315505706
10	0xbfd91ab95e3cc5c1	-0.3922561092650448
11	0xbfad121c37098e07	-0.05677879497377707
12	0x3fb3b33721b60667	0.07695335934661217
13	0x3fbf1fa2e5417d58	0.12157648179117098
14	0x3fc065097ed84012	0.12808340734091012
15	0xbfd2b708f382d105	-0.29242156772967604
16	0xbfc2fa1aef955788	-0.14825760553747735
17	0xbf78693264ad65c6	-0.005959698532785612
18	0x3fc4ba76578ce6c5	0.16194037699624722
19	0x3fcd678b180c8820	0.22972239183678855
20	0x3fc50faba517ff7c	0.16454072533815267
21	0x3fc08baae3eefecc	0.12926231507844077
22	0xbfd037a380e56bfe	-0.2533959158660649
23	0xbfd11633bc705cfe	-0.26698010828245333
24	0x3fd1e1592771ba37	0.2793791661451083
25	0xbfd76d5530f3675f	-0.36604814319945506
26	0x3fbfaea967d5715d	0.12375887665752346
27	0xbfbfa3545d977ae2	-0.12358596119836876
28	0xbfd7826bd17d608b	-0.36733527620300127
29	0x3fc06291d6c1f7fd	0.12800810800757736
30	0x3fd0662ff0c92bd0	0.25623701585999203
31	0x3fb5be17c30fca46	0.08493183624504139
32	0x3fc3a827815d7b1a	0.15356916252763925
33	0xbfcb6a14e9214b99	-0.21417485602668476
34	0x3fb916487a2d18b7	0.09799626334015242
35	0xbfd2853a0b6fb8d2	-0.2893815147098283
36	0x3fa2e12a0147b2b2	0.036874115616091344
37	0xbfab8ae9c134bfe0	-0.053794197878573646
38	0x3fb26da1a48a2a86	0.07198534266550824
39	0x3fb126b84995ecd0	0.0669970683720067
40	0x3fb038241bfc9090	0.06335664447084555
41	0x3fcb0719e62324c6	0.21115421044513577
42	0xbfe07240b9434dbc	-0.5139468782821761
43	0xbfd0d8cfc1164664	-0.26323312622216677
44	0xbfbab587f6060924	-0.10433244472918496
45	0xbf78832d2dd75db5	-0.005984474640590977
46	0x3fd0417a3baf5da6	0.2539964278089094
47	0xbf992ada66705ce2	-0.02457753420102627
48	0x3fa788429adf908a	0.04596145763915256
49	0x3fd142e550bebbed	0.2697079933668068
50	0x3fc7d18f2d72cfc9	0.18608274192012988
51	0xbfbce556682e4f7a	-0.11287441295126924
52	0x3fa29ef4a10a5363	0.03636898485016251
53	0xbfceaee38d17363c	-0.23971218480294165
54	0x3fc8d09f8d977351	0.19386667646076686
55	0xbfd30ef46282fce2	-0.297787758066944
56	0xbfcd23b68f92f21f	-0.22765237818193015
57	0xbfc61373f34607e1	-0.1724686563357514
58	0xbfc43b1b889cc053	-0.15805381937525684
59	0x3fd4ee2abf64c0d6	0.32703655901697226
60	0x3f9f36f4b5f2bbe2	0.030483077626452977
61	0xbfc9af4e2ebd0019	-0.20066239626066887
62	0xbfc61d6ec9693c6b	-0.17277321657681752
63	0x3f9dcfbdf7fd7371	0.02911278558837033
64	0x3fd75a112de8dd1f	0.364872259935014
65	0xbfce073fa724637b	-0.23459621106374215
66	0x3fb1a37c95ef4ade	0.06890085850254077
67	0x3fd11a3f7f5e1d11	0.26722705305333344
68	0x3fc4713bc0ef8811	0.15970560951888094
69	0xbfd36b533e91ee82	-0.3034256087337114
70	0xbf9f5e94c5d18566	-0.03063423592937422
71	0x3fd275076cba9240	0.28839288347288417
72	0xbfd434e4b4b34e0b	-0.31572835585140585
73	0xbfdba530191893c8	-0.43195726824552283
74	0xbfc0c21208fa14b3	-0.13092256010364664
75	0x3f83a2989ee36280	0.009587471341022225
76	0xbfd6e62c9d362ab3	-0.35779872276968233
77	0xbfb807491b15d4ec	-0.09386116896878932
78	0xbfc547967ea622f5	-0.16624718841583044
79	0x3fcb94d25b4a7b90	0.215479178023966
80	0x3fc63d6a492a6c75	0.17374924252075954
81	0x3fc00700be195fdd	0.12521371156867547
82	0x3fc06fae25345689	0.12840821091292678
83	0xbfd6f6cd4b5ba61f	-0.3588135944288257
84	0xbfc0975b7fa2d5ef	-0.12961906177740398
85	0x3f89174c44881193	0.01225146850720974
86	0xbfb166b601b856f9	-0.06797349493021078
87	0x3fc5200560ae18f3	0.16503970356661277
88	0x3fd110c36b2ec816	0.2666481539446307
89	0x3fbd855b7c4289fe	0.11531612189950377
90	0xbfd24e4a3c5ec101	-0.28602844138642075
91	0x3fab7521d0fc0f9d	0.05362802196580605
92	0x3fc14359a3d2640d	0.13486786364663353
93	0x3fd3fb526153de88	0.31221446518564067
94	0xbfd55a53ae979558	-0.3336381154061505
95	0x3fb8254632945e7f	0.0943187592969199
96	0xbfd4e3b78d8f84b4	-0.3263987429073254
97	0x3fc01fd79afef5ff	0.12597174709473788
98	0xbfd317b7c9749066	-0.29832262681362065
99	0x3fb835043ca3a607	0.0945589683575677
100	0x3fac6f94b9f05005	0.055538795182798174
101	0x3fba5e6f3e166770	0.10300345674332134
102	0x3fb7a8b18f861514	0.09241781000135446
103	0x3fb803c47688fa46	0.09380748647615986
104	0xbfce2f928ddc8692	-0.23582679678752477
105	0x3fb330edb3391316	0.07496533990440599
106	0xbfd6574fc0354cf7	-0.34907907266933996
107	0x3fc7c8ef2a7f33b8	0.18581952643435584
108	0x3fb7330ee2c4bc32	0.09062283550586939
109	0xbfbca79d6fab79e7	-0.11193260170282536
110	0xbfc5131436cde1f2	-0.1646447436903738
111	0x3fc6e8b2a768dcaf	0.17897637533471797
112	0x3fb2bd817f073780	0.07320412970804391
113	0x3fd0ccf59c04cbe1	0.26250972973065073
114	0xbfd36e3552886ed0	-0.30360158023698336
115	0xbfd2b97a2d2576a2	-0.29257063301870734
116	0xbfd12428a3b3dcb8	-0.26783195482807853
117	0x3fc76bdddb958470	0.1829793283641581
118	0x3fb043b40e331ba2	0.06353307100935848
119	0x3fc9d06228773082	0.20167185760363188
120	0x3fc60534e989446d	0.17203389552244933
121	0xbfcd62dfa76cb429	-0.22957988429098578
122	0x3fce1e6235820933	0.2353022347707082
123	0xbfcc29c75826425c	-0.220024984399532
124	0xbfc7b549a28ebf2e	-0.18521995961554566
125	0xbf8e39ec3c99570b	-0.014758916472753755
126	0xbfbea48f057c3bed	-0.11969846614759634
127	0x3fd832ab4a28d151	0.3780925964558906
128	0x3fd09f6ea4bac5dd	0.2597309693038293
129	0x3fc4f0499af860f1	0.16358299319177363
130	0x3fa4819fe35cae8d	0.04005145693221577
131	0xbfd6995f374ce7db	-0.3531110801737875
132	0xbfba3197e29bb42b	-0.10231923372676081
133	0xbfc7d011457309f1	-0.1860372151478056
134	0x3fb2b0665c8c3937	0.07300414809671883
135	0x3fc4b8aebcad3148	0.16188606465073918
136	0x3fd583f79291382f	0.3361796313591893
137	0x3fcb543d32c9ac75	0.21350827197906921
138	0x3fc6ba6a0847d9a9	0.1775639095719275
139	0x3fbe31f48f0d95d0	0.11794975750452541
140	0x3fc0e84141fb36db	0.1320878574537606
141	0x3fc8ce5f6b50a0cf	0.19379799594867683
142	0xbfd032d661d989ce	-0.2531028705181172
143	0xbfd42f3d433293fb	-0.31538325845968956
144	0x3fcc3095a8f6f05f	0.22023268461441867
145	0xbfcb89764111a111	-0.21513250519934293
146	0xbfb1b89939141c54	-0.06922299998778786
147	0x3fc21a80a8d3ed66	0.14143379443690235
148	0xbfc3ee6db2723246	-0.15571376050174218
149	0xbfd165d5997f8fec	-0.2718404768950211
150	0x3fb5ea404efe871f	0.08560563973017253
151	0x3fdb1eae816f8785	0.4237476600666173
152	0x3faed348e278218e	0.060205724377797684
153	0xbfd4a44223311913	-0.3225255340261281
154	0xbfcdc81f20e70d22	-0.23266972643441713
155	0x3fc925be4264b09f	0.19646433107243852
156	0xbfc81dcf6419d7bf	-0.18840973270169845
157	0x3fa75c86ee459f34	0.045627800546581915
158	0x3faa5cc2aa07b11b	0.05148895574152076
159	0x3fce6364579de336	0.23740820196305784
160	0x3fafedb39b6b1a6d	0.06236039421269344
161	0x3fcde0ade06a4167	0.23341916520849823
162	0xbfcd2ae2364335fc	-0.22787120484865386
163	0xbfb5ac8222a57a20	-0.08466351838931319
164	0xbfd1743fde8c26d4	-0.2727203057589638
165	0x3fce2448dc5ee75c	0.23548231849945978
166	0x3fbc4343dfb6d4a6	0.1104013844659045
167	0x3fcbc7dfaf3b7904	0.21703716331735035
168	0x3fbafe4a4c90cc09	0.10544266099240941
169	0x3fcaecae5fe3ca15	0.2103479355060506
170	0x3fc03accd5cafe7f	0.12679443778141672
171	0xbfd46f1144be6d6c	-0.31927901948230075
172	0x3fb95a559a8b5d19	0.09903464339310054
173	0xbfd2743f93203084	-0.28834523551700664
174	0x3fc7b947110a9bd7	0.1853417237482222
175	0xbfc1a7915f25aba5	-0.13792626520020437
176	0x3fce0f1d07f43e6a	0.23483622444517788
177	0xbfa33e2758706c69	-0.03758357004718322
178	0xbfd1997023a5480c	-0.27499011498468984
179	0x3f70d1ce9c68241e	0.0041063376179489
180	0x3fb55ee1bd522326	0.08347903129664455
181	0x3fbfa9bc12b431bc	0.1236836953796176
182	0xbfd7b7c5b8cf88a8	-0.37059157417219035
183	0xbf998d08a65f6250	-0.024952063707902206
184	0xbfcde5e9e21c91a5	-0.23357890644650783
185	0x3fc570d2471e1d97	0.167505535817537
186	0x3fccee2aa42c3ab2	0.22601826683281484
187	0x3fc851eb54950dc3	0.18999997739784477
188	0xbfcd5a5db7df57ac	-0.22932025411745138
189	0xbfd447c26e8fa641	-0.3168798522661725
190	0x3fc7e767924fa9f6	0.18674940723515449
191	0x3fcd36bbbf640193	0.228232830479112
192	0xbfadf95df1562dbf	-0.0585431439495454
193	0x3fc9dff91bf71ad0	0.2021476160573088
194	0x3fcbdebb3c3bf0e7	0.21773472252960532
195	0x3f9d1ec303e70e7c	0.028437659371560717
196	0xbfcd61502ee997f8	-0.2295322636666126
197	0x3fc5e4cca1e481fa	0.17104490189468874
198	0x3fb138446e9a0eca	0.06726482105483025
199	0xbfce0adc3e98885f	-0.23470643097340635
200	0xbfcb10944dd45c19	-0.21144346046705279
201	0x3fb2c0460daa9b14	0.07324636300709769
202	0x3fc71bd90f510894	0.18053735015752592
203	0xbfcc26bc13f932f5	-0.21993208861604044
204	0xbfc29f8e6d32832b	-0.145494273489953
205	0xbfb6b6523abe5a61	-0.088719500867549
206	0xbfb627841752e185	-0.08654046601703243
207	0xbfaddac2822fdc9a	-0.05830962981411254
208	0xbfd384eedf2a4198	-0.30498859208548756
209	0xbfbc555dc52391eb	-0.11067758620226413
210	0x3fa22b427918e58d	0.03548629501569698
211	0xbf9df6c620025494	-0.02926168032043515
212	0xbfd884a80f0d7f43	-0.3830967089652299
213	0xbfad55b7bec1f7f3	-0.05729459956727103
214	0x3fd55113fadd72e9	0.33307361124552287
215	0x3fd4de80910677eb	0.32608045733093033
216	0xbf9994d877280e48	-0.02498186328194965
217	0xbface2625333dd2d	-0.05641467347771321
218	0xbfa71ab528658ba0	-0.04512563818095505
219	0x3fc66da23a5ee065	0.1752207551014663
220	0x3fbc7fe5f391cfec	0.11132657238505289
221	0x3fd030d233813bed	0.2529798033692135
222	0xbf86161b13c6b86c	-0.010784350911162664
223	0xbf9afad9c377182a	-0.026347544245958122
224	0xbf98b3efe62a97fd	-0.024123905585518902
225	0xbfd7ffa099e917e7	-0.3749772551567489
226	0xbfa3c4e1bbc31bb9	-0.03861146370905239
227	0xbfd493fdb151f50a	-0.3215326530115169
228	0x3f9b4c780b7aa02c	0.02665889329969688
229	0xbfc14e0864a9b0bd	-0.13519387164286015
230	0xbf9027c4a547f99d	-0.015776703441582652
231	0x3fd3fd7686e42752	0.3123451535508269
232	0x3fd0a5d88e07a10f	0.26012243146989616
233	0x3fbdc14efa2cdf84	0.11623090369982775
234	0x3fcba8698afb2697	0.21607703481850102
235	0x3fb2b2e63562afc8	0.07304228595120243
236	0x3fadede527d57e7a	0.05845562087301644
237	0xbfcaa4d2ca685529	-0.2081550110166657
238	0xbfd28d70fdea69e0	-0.28988289638951237
239	0xbfd82dbf3d8dc08a	-0.3777921773062266
240	0xbfc6a6dd35bd5ff4	-0.17696728824625974
241	0x3fcf8191382b8212	0.2461415790812827
242	0x3fa2d45f758f2c52	0.036776526546952085
243	0xbfd1dedf22677c71	-0.2792280040720874
244	0xbfcb2ae96577978d	-0.21224706129504192
245	0xbf76fa6547441f6e	-0.00560988962048002
246	0x3fcfe7c0f26698d5	0.24926006160712313
247	0x3fbfbb65b657c6aa	0.1239532060788188
248	0x3fb64172b4c337ef	0.08693615830563294
249	0x3fd27e87369441fe	0.2889726670264564
250	0xbfcfb5a24dc1599f	-0.2477305297531531
251	0xbfbec26a423ab73b	-0.12015403859069533
252	0x3fb577b56ca283f6	0.08385785963265832
253	0xbfd9a6abb06dd26f	-0.40079776982682963
254	0x3fbdc1a07081dffb	0.1162357592273792
255	0xbfd0afed05766cca	-0.26073766263443743

n_convs.0.bias f8 [32]
0	0xbf8c44039588cbfa	-0.013801601410795773
1	0xbfa3bebf7efa91c6	-0.03856466698678988
2	0xbfa18cd5040ea5dd	-0.03427758860136596
3	0x3fa8d1fff2590b40	0.04847717126224049
4	0xbfcc9fd922cf74af	-0.22362817954755118
5	0xbfc45c16ec5f7417	-0.15906034986156278
6	0x3fc0ca5fb5b12385	0.13117596027066383
7	0xbfb25581c6bcdfba	-0.07161723234173581
8	0x3fb59e38d5b71d98	0.08444552629145219
9	0x3f887ad1c59a285d	0.01195300945552818
10	0xbfc943e28c51fdbc	-0.19738418437553473
11	0xbfc28daa7036ffea	-0.14494829634895662
12	0xbfc7e994e4b1c0b1	-0.1868158451720823
13	0xbfb3521f58f846a8	-0.07547183916201539
14	0xbfb18dcf7ad2e73a	-0.0685701060164349
15	0xbfa84869380421d4	-0.04742745217123781
16	0xbfab7309c9933583	-0.05361204705841784
17	0x3fb8af79d991bf1b	0.09642755090476067
18	0x3fb66811fcf8ffa9	0.08752548624124636
19	0xbfb5cf3aec3590f6	-0.0851933314020846
20	0xbfa965a0967c15f7	-0.049603479737964244
21	0x3fba7d128be96e23	0.10347095409218147
22	0x3fb5f8602cd8a59b	0.08582116217498596
23	0xbfc1a137a19c4f24	-0.13773246184484222
24	0x3f6a51c01d471270	0.0032128097757058646
25	0x3fb0f29a3b8db256	0.06620181993430072
26	0xbfb0e501cfdcc53f	-0.0659943706966901
27	0xbfb7c00ae028da80	-0.09277408573766799
28	0xbfb83392991fe020	-0.09453693617240377
29	0x3fc3f828dc8cf0da	0.1560107304484351
30	0xbfce9bcf586dfa8d	-0.2391299421105554
31	0xbf9bb10ec80c9d4e	-0.02704260917667272

n_convs.1.weight f8 [64, 32, 5]
0	0x3f834b9b47ec2237	0.009421551830670711
1	0xbfab1ed422b63797	-0.0529695789692674
2	0xbfb63e320d6a627f	-0.0868865282776685
3	0xbfc0239b10eeabed	-0.12608660055897705
4	0xbfb408b685b4d15e	-0.0782579494887776
5	0xbf63f0f2298a86bb	-0.00243422791784628
6	0xbf63bf7fc712286a	-0.002410649839082392
7	0xbf6566eb58fc8f5b	-0.0026125523217092445
8	0xbf89db3101b0e3ad	-0.012625105728249009
9	0x3f7426449ebadb4b	0.004919307753587908
10	0xbf9b684d829dea57	-0.026765071007938648
11	0x3f96237fba489616	0.02161979269489763
12	0x3f8cf321de39a99a	0.014135613054538965
13	0x3f8e52c16bbf5113	0.01480628118580588
14	0xbf41255584709b3c	-0.0005232493939545178
15	0xbf9ab3f7faf9c758	-0.026077151006070082
16	0xbf7f285fee6218b3	-0.007606863719166568
17	0xbfc939a8ecfe14ad	-0.19707213947200355
18	0x3f813d77c1028beb	0.008418021753021384
19	0xbf84bbed19ab6ca9	-0.010124065729021874
20	0x3fa1b48820863578	0.03458047291779115
21	0xbfc556b8c56ebfd0	-0.1667090381647527
22	0x3f830f1ebcc6c71f	0.009306182991028642
23	0x3f97afab44ae503b	0.023131061617803744
24	0x3fa3a8b9152e41b6	0.038396629176648586
25	0x3f8e14aa0d3e5c87	0.014687851456797197
26	0xbfa5ecf721a4779f	-0.042823527199501436
27	0xbfa9ecbeead57f8d	-0.05063435188890173
28	0xbfbd5c07db2e6826	-0.11468552685838115
29	0xbfbd33ba0c450837	-0.11407053756286777
30	0xbf9fcd0ec1d9e99f	-0.03105567033933598
31	0x3f5ab2f73876bfa3	0.0016295828116703402
32	0x3f8c0c281413b937	0.013695061791136538
33	0xbfb838343ae6b5f6	-0.09460760534303589
34	0x3f737819b2dfadaa	0.004753208528181766
35	0x3f8920c421752f1f	0.012269527693795688
36	0x3f9e14895a683088	0.029375215666775506
37	0x3f55205932d6c4b6	0.0012894507484413737
38	0xbfbf9465d438b1b9	-0.12335812026203187
39	0xbf52c60aa6229537	-0.0011458496087837897
40	0xbf801782c53f9f89	-0.007857343334720006
41	0xbfb9792a7975dedc	-0.09950509515135358
42	0x3f4fa021744a0aa5	0.000965133986554474
43	0xbf63ea635576d003	-0.002431100856222558
44	0x3f83d7e7bf0993bb	0.009689150350092981
45	0x3f937fa2748dfd73	0.01904157482522124
46	0xbfbf9f7498431e2c	-0.12352684705103262
47	0xbfaa2b977da07716	-0.051113828740410636
48	0xbfb33365c2a5d095	-0.07500301363126234
49	0xbfb4bf37a0fd688c	-0.08104274444977672
50	0xbf97758056cae1a5	-0.02290916948069967
51	0x3f7a53f539d917b6	0.006427724756184297
52	0x3f831cbcb122c1e0	0.009332155376200413
53	0x3f982550b9a62175	0.023579846697914648
54	0x3fa7af958bb15b22	0.046261475851386416
55	0xbf91d7e5d747380d	-0.017425147308863177
56	0xbf91da48d6b1a567	-0.01743425188434369
57	0xbf981cdfc05a1539	-0.023547645678737104
58	0xbfacfb6ff652d0e2	-0.05660581476095829
59	0xbfb68e6bb15079ae	-0.08811066702808176
60	0xbf961c6e9d8c6ca6	-0.0215928348217004
61	0xbf4399a33915a0b8	-0.0005981490123021715
62	0x3f897f5e0bee12d6	0.012449965228151266
63	0xbf9192d3d57ad51d	-0.017161664871953797
64	0xbf9a127ad3cc1748	-0.02546111982066826
65	0xbf9c2bbf77c78b82	-0.027510635076292818
66	0xbfa503411d6dfdb8	-0.04104045376061144
67	0x3f700930ef580fb7	0.003915015365695432
68	0xbfc1d2900b20a2bc	-0.13923836272558343
69	0xbfaed1a2d02ce2d9	-0.06019314566805684
70	0x3f84b9f26bcc5e0d	0.010120290674918509
71	0xbf95beb354aac073	-0.02123527721659042
72	0x3f621d2b0ca41fc1	0.0022111740883054847
73	0x3f552193aec8abb8	0.0012897436346388357
74	0x3fa1db047eba67ea	0.03487409636473145
75	0x3f78d381b261d911	0.006061083439013141
76	0xbfc287179fcdacef	-0.14474768927480094
77	0xbf895b076068a8c8	-0.012380654935516225
78	0xbf9eb7fc40ce698a	-0.029998723464453238
79	0xbfaafc9f6a927a40	-0.05270860839776903
80	0x3f7fced97423f28c	0.007765626362239996
81	0xbfb044bd3da39ba7	-0.06354887728558244
82	0xbf90291e6cc06f0d	-0.015781855952908198
83	0x3f8811f76ab17572	0.011753018325346008
84	0x3f60f71c334c9531	0.002070956305390802
85	0x3f85e8634857f967	0.0106971508457689
86	0xbfa366de8fd13415	-0.0378942061002833
87	0xbf94e9e9bd4acc4b	-0.020423557451703805
88	0xbf6e8b51ecde4748	-0.0037285423376908523
89	0xbf9e904546f6a171	-0.029847223716985952
90	0xbfa28e3cd5cadc9c	-0.03624143705149516
91	0xbf769084f4fb06a0	-0.005508918154818382
92	0xbfaaef4d53c27070	-0.05260697982268503
93	0xbfc96a371972a462	-0.19855393164224028
94	0xbfc4c0244e7fb08b	-0.1621137030882703
95	0xbf987391f4db8383	-0.023878365106500887
96	0xbf94720eb3f9dafe	-0.019966344580519817
97	0xbf96feaa56600a26	-0.02245584633056743
98	0xbfa9c7f49f755b24	-0.050353664841784856
99	0xbfc2a8acab519fc3	-0.14577253689935618
100	0x3fa0342532a9604e	0.03164783709934281
101	0xbf899aa87c791528	-0.012502018259633887
102	0x3f70f2c4ad00020a	0.004137771858950598
103	0x3f84d97e0421b6f6	0.010180458546723763
104	0x3f9024932672683e	0.015764521810162295
105	0x3f8167c808681b66	0.008498728519965314
106	0x3f501326ed067f77	0.0009811287055540832
107	0x3f69873d34f82f6e	0.0031162448356151706
108	0xbf733dd8fa0f2d37	-0.004697654309846747
109	0xbf986311fe72e7c7	-0.0238154231599095
110	0x3f68c74ea4c5fbe6	0.0030247245796881537
111	0x3f5db991aa2296dc	0.001814262629105049
112	0xbf88b0ce47c54f5a	-0.012055980267781475
113	0xbf4a99caead06e1d	-0.0008117905432558113
114	0x3f8481b475a19832	0.010013017501659591
115	0xbf9de6145e3a82fd	-0.029197996379141767
116	0xbfc15b7d8d271156	-0.13560456649987412
117	0x3f9b4eeb186d3a48	0.02666823708141866
118	0x3f976399f3a375dd	0.02284088658858773
119	0x3f9a10808b97cfc9	0.025453575630265655
120	0x3fa6d02883bd6913	0.044556871491936566
121	0x3f516b2b42e6a702	0.0010631487344689443
122	0xbf9e3cfad04704db	-0.029529494249577275
123	0xbf8249fd4efb47e5	-0.008930186245752434
124	0xbf8d6d83723935c3	-0.014369036601375456
125	0x3f79534678b1a194	0.006182933119909601
126	0xbfb3bdb7bcbff02d	-0.07711361272953417
127	0x3f9cfece91a465c4	0.028315761222165184
128	0x3f8f02b558705d78	0.015141884576265183
129	0x3f9b394c3cabd21e	0.026585761263918532
130	0x3f98b254da0a9683	0.02411778050249903
131	0xbfa38b6dd45bb28c	-0.03817313401473141
132	0xbfa742e6ff9ed18a	-0.04543229933134103
133	0xbfb892d757a4481c	-0.09599061860743102
134	0xbfc0f55bd4723a53	-0.13248775361394624
135	0xbfa5719d2be4b7c1	-0.041882430656513765
136	0x3f8da96efc2fe4bb	0.014483325072421107
137	0xbfbe45f57eadcf6a	-0.11825498907802304
138	0xbf66dd9ee793c60f	-0.002791223869842658
139	0x3f76c3249cef9235	0.005557196635866781
140	0x3fa4a787a76c0053	0.040340651690713124
141	0xbfb50300560bbaf1	-0.08207704640129145
142	0xbfc1d05679de70ca	-0.1391704649985342
143	0xbfa19fc2be5b5c44	-0.034422002541469016
144	0xbfb6efa8bfc34925	-0.08959440881452403
145	0xbf65e8daa45553b0	-0.0026745100355278426
146	0x3f86c66cd40d3e6d	0.011120653363519051
147	0xbfacaa5a8ac1990d	-0.055987195432679916
148	0xbf890c70c1dd8173	-0.012230759540842162
149	0xbf67b607d8313bbe	-0.0028944161618151545
150	0x3f7f5dee206f250c	0.007657938177495948
151	0xbf5bb033afc17fc1	-0.0016899590255192584
152	0x3f8086d5b8c801e8	0.008069677068307038
153	0x3f7a8bb3a3ea9098	0.006480886192239542
154	0x3f72d4f1a25ef935	0.004597610362848938
155	0xbf9b693768e96cd6	-0.026768556383427754
156	0xbfc96d94b99f16d2	-0.19865664542719813
157	0xbfbff6296996c767	-0.124849880484161
158	0xbfbc9b4024364a3c	-0.11174393543323274
159	0xbfaee763f464fff8	-0.060359119017903085
160	0xbfa45f1fd4b25875	-0.039788241113613156
161	0x3f96cc2839d08d68	0.022263172653891244
162	0xbfb545589d58275e	-0.08308938828863918
163	0x3f96605929ae5dcf	0.021851914567006688
164	0x3f7694f361071542	0.0055131442063090525
165	0xbfa26d4c47e05d9d	-0.03599012734792526
166	0x3f37ea08ee04f2f9	0.00036490171443741244
167	0xbfa6a12150b07de8	-0.04419807538965498
168	0xbf88fe4b82484be2	-0.012203779137996255
169	0xbfa6adaa310c2d1c	-0.044293707358600026
170	0xbf8d00f9cefca251	-0.014162017468678874
171	0xbfc01b7af6875410	-0.12583863294153774
172	0x3f9030b2ee860d38	0.015810771759345615
173	0x3f2ea925979dedaf	0.00023392280473531537
174	0xbfa8892967da0b5c	-0.047921461035932394
175	0x3f77e19540e49f6d	0.005830367108764151
176	0xbf9f4ee8bdd5a654	-0.030574452005941957
177	0xbf7e9e5d5596086b	-0.007475246989431121
178	0x3fa6480525028656	0.04351821972637697
179	0xbf9189e7edc10b87	-0.017127632032735398
180	0xbfb1bbdc29f2a0f6	-0.06927276634326404
181	0xbf27748cc9198bc3	-0.00017894953321037467
182	0x3f85cafee61832b6	0.010641089817931753
183	0xbf9919c7951b3102	-0.024512403941842294
184	0xbf96f86566c140ea	-0.022431930920277766
185	0xbfa0020abe33a0b7	-0.031265578954675126
186	0x3f949779b61ef2c0	0.020109082928444932
187	0x3f9def9c7d1bbc11	0.029234357009894355
188	0xbf674623d91fb82f	-0.0028410625609387656
189	0x3f802188d3aff126	0.007876461944754509
190	0x3f898ff44c5d190a	0.012481602268632947
191	0xbfbc52b1a70e33f8	-0.11063680962088529
192	0xbfbe45d498fcfa92	-0.11825302825034559
193	0xbf8a368a154dce50	-0.012799338126320198
194	0xbf8988fc38c3da56	-0.012468309862453324
195	0x3f75fecfde11be27	0.00536996076799271
196	0x3f99aae176dc4c11	0.025065920715018623
197	0xbfa50023cab8a305	-0.04101669168114167
198	0x3f6926bb123a7737	0.0030702260717835566
199	0x3f92e9446728521d	0.01846796874640876
200	0xbfb9fb5d97ec3e0e	-0.10149178465894002
201	0x3f9397491cc8d15d	0.01913179624735172
202	0xbfc31572b30f5a31	-0.1490920423809299
203	0xbf3854998ffef10a	-0.00037125348171308857
204	0x3f92f6cd75fdf713	0.0185196021334298
205	0xbfb56b80b5cca51c	-0.08367161215268876
206	0x3f8242b3412c1bbf	0.008916283060455997
207	0xbf875a684b7e10fc	-0.011402907184454573
208	0x3f955a6d3d7b92ae	0.020852763059240935
209	0x3f8b0f70605b820e	0.013213041248890025
210	0xbf5489c74c96518b	-0.0012535520821518066
211	0xbfc1674fed223e7b	-0.1359653385047642
212	0xbf84723f6aad58da	-0.00998353523543154
213	0xbf978eb6a424aa18	-0.023005346077448946
214	0xbfa44db117c00e26	-0.0396552411548579
215	0xbf74cc3f80dcbbfa	-0.005077598629028119
216	0xbfb7cecec40cf81b	-0.09299938475030027
217	0xbfb39bad40c8e4a7	-0.07659418899210611
218	0x3f8750384310c395	0.011383475825000914
219	0xbf77d1e1bead1bc3	-0.005815393272150029
220	0xbfb24f08262fc911	-0.07151843006412074
221	0x3fa05f7e2aeea57b	0.03197855257105694
222	0x3f3c2bd2978830af	0.00042985812572805376
223	0xbfa6ec50436a0457	-0.044771679143203506
224	0x3f9286657c5c349e	0.018090806689589393
225	0xbf644a641508f1c8	-0.002476878617271281
226	0x3fa6a40562dfe9ff	0.0442201312252628
227	0xbfbf0fcab3d016f4	-0.12133471384012379
228	0x3f693212af6a4596	0.0030756344743358517
229	0x3f8f8c47cec5b961	0.015404282567683837
230	0x3f8de1e100d7d70a	0.014590986097555287
231	0x3f8f0a32fdad02c4	0.015156172148296128
232	0xbfa7c782f79d5377	-0.04644402763975724
233	0xbf85ef3869158dd5	-0.010710182864108223
234	0xbf9afe19394c0b92	-0.026359933969625944
235	0xbfbedfbfc05a7138	-0.12060163923382994
236	0xbfa2b4a4cfe0da46	-0.03653445279671934
237	0x3f914b270262435d	0.016888246078966208
238	0xbfad113711c6af94	-0.05677196590417491
239	0x3f88b5375f0e7eec	0.012064392650983767
240	0x3fa1150740d76e38	0.03336355844996003
241	0x3fa3aa80989242b9	0.03841020452921868
242	0x3f9760139c71ead7	0.02282744066585959
243	0x3f9a9f101d012695	0.025997401972097284
244	0xbf9549f5f2adec7a	-0.020789950310682738
245	0x3f9c88104694bf5f	0.02786279135506164
246	0x3f449d737bc7e9a2	0.0006291211971636743
247	0x3f83d8720d51a0f7	0.009690180808505462
248	0x3f7a35ea3e870dc5	0.0063990736165950345
249	0x3f813accd19dd118	0.008412933489787153
250	0xbfb1600a6bec35c3	-0.06787171492415837
251	0xbfbebeaf3ecc9f54	-0.12009711535631357
252	0x3f8e8168e16e2e4c	0.014895266894902857
253	0xbf8af5d762b8d6ef	-0.013164217663056614
254	0x3f5c7817a55386c2	0.0017376166263648883
255	0xbf9a0af0fa04cdd9	-0.025432362804350326

n_convs.1.bias f8 [64]
0	0x3fc4c139df4c14d9	0.1621467914884878
1	0x3fbda88437aaacee	0.11585260733652422
2	0x3fc29c8766d64be8	0.14540188332884374
3	0x3fa3bc517f6e10d8	0.038546129994786404
4	0x3fb9f4b29e58bbd1	0.10139004102596451
5	0x3f9f954b84231236	0.030842952671053157
6	0x3f98a73d4aaa0fec	0.024075467760226774
7	0x3facaf089f1288b5	0.056022900980012315
8	0x3fb70e1c30448f20	0.09005905321515373
9	0x3fa693bfdb1b209b	0.04409598874696138
10	0x3fb587b0fc3d045f	0.08410173566973488
11	0x3fb1a9db0b3b003c	0.06899804138356641
12	0x3fb248b64ebb8042	0.0714219991891705
13	0x3fb6d55afc92328f	0.08919304529463033
14	0x3fad710af2c57ce2	0.057503072867570074
15	0x3fb446e301c28aa0	0.07920664589850412
16	0x3fb46da51f86ed81	0.07979805011466647
17	0x3fc07a98d7761f26	0.12874136467530056
18	0x3f9be3aaf4a41592	0.027235671216677533
19	0x3fa18da8c95f4128	0.03428389986186381
20	0x3fb5adcb5205a83e	0.08468313934795987
21	0x3fa8a9944094e174	0.04816878593777832
22	0x3fae21f29eee4134	0.058852750683515614
23	0x3fb8c7b307a215ca	0.09679717003208235
24	0xbf82e3906c2b6248	-0.009223106671400264
25	0xbf96197ac06eaeea	-0.02158157157434363
26	0x3fb4bd8299fa53ee	0.08101669558739363
27	0x3fa18eccb1723e04	0.03429259935466791
28	0x3fba5e5d8c1326cb	0.10300240201754744
29	0x3fba373c2c45dc44	0.10240531998521002
30	0x3fa6c7a77f025b65	0.04449199128537521
31	0x3fb34a26ec2c46ba	0.0753502203554274
32	0xbf699dd5544d2a65	-0.0031270186031282948
33	0x3fb2f851d52201d4	0.07410155728758322
34	0x3faf2b46a2003726	0.06087704398679099
35	0x3fb25884be1fe34e	0.07166318551743453
36	0x3f9ce4c26b0afd80	0.028216398032552714
37	0x3fc5e79db76b701b	0.17113086181677847
38	0x3fc178a49a1d83e2	0.13649423146401235
39	0x3fbc4ba01d296e94	0.11052895271262236
40	0x3fbc87827f1c03cb	0.11144271472222937
41	0x3fa9458b81785177	0.04935871081775905
42	0x3f8087917eaa7eab	0.008071076086081893
43	0x3fbca757d8e9ae3e	0.11192845388148329
44	0x3fbf3262ef2cdcd3	0.12186258639563911
45	0x3fb1744cb9524c02	0.0681808426327706
46	0x3fba040e546a6a1e	0.10162438927583436
47	0x3fb5435501e926f0	0.08305865570687465
48	0x3f96c5dca6eadb27	0.02223915833266257
49	0x3f95c9384060f5a3	0.02127540486275382
50	0xbf84f03860aac9d7	-0.010223808717772549
51	0x3f8642cde00115af	0.010869606398169333
52	0x3fb4a30d82e851ca	0.0806129879568466
53	0x3fbb9b091b14b0d7	0.10783440505173601
54	0x3fc0d31302069537	0.1314414749041732
55	0xbf9ff696caf01393	-0.0312141000140574
56	0x3fbff1065b4f4a36	0.12477149705163346
57	0x3fc027bb9a23c3e4	0.12621254946091576
58	0x3fa03ea8babd4760	0.03172805099042253
59	0x3f4387cc656ec746	0.000596022417872024
60	0x3fb03f9e5a6d84ab	0.0634707422991762
61	0x3fb9e19a30b73897	0.10109866799686738
62	0x3fba98059c3d36d6	0.10388217033797828
63	0x3fa353df26def58e	0.03774926518915854

n_convs.2.weight f8 [128, 64, 9]
0	0x3f90664ba54aed98	0.016015226329484017
1	0xbf96524b92b06881	-0.021798306301299867
2	0xbf4d5b6265c8fe5e	-0.0008959036309263526
3	0x3f8c72d57d41df8d	0.013890903363275498
4	0x3f9ecfdc9b334889	0.030089804623294945
5	0x3f83346e568edb1e	0.00937734796194217
6	0x3f6a9aaf612d3800	0.0032475877173174794
7	0x3f7c3b8a8544babb	0.006892720314040697
8	0x3fa45e29f20e4e9d	0.039780913160169386
9	0xbf928e308c864cba	-0.018120535447064802
10	0xbf99287ba7879672	-0.024568492984960284
11	0x3f786cdc2f523154	0.005963192078649666
12	0x3f905e629f3aa7a1	0.01598505112512039
13	0xbf8f2987ba602e26	-0.015215931296572793
14	0xbfa6831ece8d068b	-0.043969118798952676
15	0xbf9dc686c7b63268	-0.029077630938945026
16	0xbfa6fa4592cadacc	-0.044878172081941864
17	0xbfad4f12eb6f66f2	-0.05724391101803218
18	0x3fa0162845877d64	0.031419046866853845
19	0x3f89a755da0cd62c	0.012526198117124819
20	0xbf833e09288e9dde	-0.009395667600826604
21	0x3f552ef5564ca717	0.0012929340238749304
22	0x3fa0cf585e94d731	0.032831918283063984
23	0x3f6a0092c18f78c8	0.003174101479529321
24	0x3f7c6e2bf594852d	0.006941005435949149
25	0x3f89bd81d96e30dc	0.012568487594557025
26	0x3faf9c0220cc3398	0.06173712396967018
27	0xbf8aa8692de984bc	-0.013016530717495527
28	0x3f8279274921a0d7	0.009020144385616309
29	0xbf703585800c4bc4	-0.00395729206572332
30	0x3f845f2fa378be22	0.009947178055056464
31	0x3f9b9ca7b394c160	0.02696477922035123
32	0xbf7b341a745e5db5	-0.00664148649038714
33	0xbf7924dbd7c807a2	-0.006138666878998141
34	0xbf806cf83c63cb07	-0.008020343153906774
35	0x3f86a612f70a1445	0.011058948673289612
36	0xbfa6927a84c90df5	-0.04408629294314529
37	0xbf8e6c158cb60a2c	-0.014854591709768071
38	0xbf85e4ea4fe00fd7	-0.010690527498816422
39	0xbfa016a3f82c2ef2	-0.03142273334932878
40	0xbfa7d9051f28442c	-0.04657760625207916
41	0x3f7fc333525beccc	0.00775451705498682
42	0x3f97748dd46fe939	0.022905555812010567
43	0x3f88d67aa916cde2	0.012127836499394588
44	0xbf7f4765b81bb0be	-0.007636449184911407
45	0xbf9932109d8a10dc	-0.024605044951855656
46	0xbf8d26f721c64ad2	-0.014234476774423941
47	0xbfad00552bff19f8	-0.0566431633192685
48	0xbf98ef74f1c1d916	-0.024350955253305072
49	0xbfab26c2a175d625	-0.053030092439183364
50	0xbf7539a596543137	-0.005181929421507462
51	0x3f9149a0f789a604	0.01688243399477153
52	0x3f866fc7a9675617	0.010955390794076298
53	0xbf746b5a7bd23765	-0.004985192729817321
54	0x3f6b3e23f4fada1e	0.003325529316352118
55	0x3f8d5a16c91b854a	0.014331987392724916
56	0xbf7aef901e720dda	-0.0065761212964647545
57	0x3f9015156801d58f	0.015705427620976983
58	0x3f8cdb99c2d74f03	0.014090729960038134
59	0xbf88c890e92af3c7	-0.01210129939624406
60	0xbfb2f4092d361143	-0.07403619149960598
61	0xbf790caf5b31556c	-0.006115612969627687
62	0xbf704b3ca5c40fc8	-0.003978001503359203
63	0xbfa6b4448a64ee69	-0.04434408368476001
64	0x3f867f18484f5349	0.010984601694795553
65	0x3f90c5241701e1db	0.016377033142335278
66	0x3f7ce70d655e2675	0.007056286170958982
67	0x3f892e5c389be801	0.012295456388063288
68	0x3f9bfddbe9342b2f	0.027335582836751356
69	0x3f86051382d66c45	0.010751869612070428
70	0x3f9ea7a71e58c27b	0.029936419703690192
71	0x3f77238b035c65a2	0.005649130840333612
72	0xbf89d079da905009	-0.012604667646918715
73	0xbf95528f687a7e70	-0.020822754623280593
74	0x3f5473705dd2b4fc	0.0012482259110513918
75	0xbf94358dc0f76a5f	-0.019735541250933127
76	0x3f933b2db021d11a	0.01878043544316297
77	0xbf8c0c2b2acf1827	-0.013695084804464198
78	0x3f97f6dc022900d8	0.02340263140854479
79	0x3f8d786d2ac73908	0.014389851444232452
80	0xbf9a3eb152a930df	-0.025629778547497813
81	0x3f8dbc6dba91d3d1	0.014519555336144936
82	0x3f8dd6ea51921750	0.014570074667300453
83	0xbf4e8ed82ee3a895	-0.0009325557309953931
84	0x3f373db84ef4c7d8	0.0003546309444174534
85	0x3f7d8fe377a62818	0.007217300934266667
86	0x3f92f6bce5491931	0.018519355291823195
87	0xbf935048fc433170	-0.018860950848464453
88	0xbf96d04c53e9f659	-0.022278969403933455
89	0xbf9d9e03ae788e48	-0.028923089526996543
90	0xbf6c19cb38bfee6a	-0.003430268208829014
91	0xbfa01a4ed0f63b1b	-0.03145071316531852
92	0xbf981e3390a7b755	-0.023552709297227043
93	0xbf9f120e4830d03b	-0.030342314869088432
94	0x3f84a4f8e2f409b6	0.010080284524978871
95	0xbfb19146c49c4a33	-0.06862299251614772
96	0x3fa21b241f23e5af	0.03536332016114884
97	0x3f7f2e08d68436f6	0.007612261317502469
98	0xbfa5ff3151eafaeb	-0.042962590455763415
99	0xbf919b8b7df226c9	-0.01719491916859431
100	0xbf9211ef193b9d5e	-0.017646537699787294
101	0xbf948ae5d943af55	-0.02006110323502182
102	0xbf7729af1c179e1d	-0.00565498735657102
103	0xbf7ad9042a71dd1e	-0.006554619095474194
104	0xbfa28d3815674e81	-0.03623366605066015
105	0x3f9f905b0971f5bc	0.03082411046169907
106	0xbf8498e4e9f29c73	-0.010057247533337787
107	0x3f870b222a41b589	0.011251704134532374
108	0x3fa6377dd8d3a70e	0.043392117231475166
109	0x3f9f3561537c411a	0.03047706672720194
110	0xbf89e929cfbf9760	-0.012651755001524101
111	0x3f97535ad90e42cb	0.022778911111859295
112	0x3f94a7912c4a12f9	0.020170467689712066
113	0x3f72cc3aae98cbfe	0.0045892994181029306
114	0x3f89d37a7bc9e3e1	0.012610394385079661
115	0x3f902fd5f7a0e875	0.01580747913269716
116	0x3fa1f76cfd506f9c	0.03509083358969109
117	0xbf934ec9440133d2	-0.018855232978513055
118	0x3f88ecb697baeeeb	0.012170244698942642
119	0xbf9867ad1ec257eb	-0.023832993509664318
120	0xbf80581aae0354a1	-0.007980545459228163
121	0xbf96a95479d2a226	-0.022130317626450367
122	0xbf820f014a8bf572	-0.008817682349667708
123	0x3f997f557db2765e	0.02489980296797111
124	0x3f8b9886a594611a	0.013474513938988287
125	0xbf4438d12c149434	-0.0006171246861056468
126	0xbfa2d22b8461ddea	-0.036759719762752344
127	0xbf9e158293fb0e66	-0.02937892940714306
128	0xbfa70d82c0ba0b1c	-0.04502495386716118
129	0xbf8213af86985b9b	-0.00882660989286226
130	0xbfb2255d446ecd97	-0.0708826343605352
131	0xbfa6861c1090f4db	-0.043991925260778074
132	0xbf8a57df5295d61d	-0.012862915714076323
133	0x3f8295fab814f5e1	0.009075125448926026
134	0x3f89b0b9ee06af18	0.012544109894256958
135	0x3f97fecb9f1e3e66	0.023432904803085818
136	0x3f8717b69aaf2775	0.011275698276125937
137	0x3f854d37619ba117	0.010401184717423946
138	0x3f5cf0f7fdfaad1a	0.001766435794631266
139	0x3f8e4c308d183fff	0.0147937577303594
140	0x3f8fc20cb5c666ca	0.015506839082081742
141	0xbf9a382f520ccfb3	-0.025604953177392264
142	0xbf81610331e66acb	-0.008485817871407694
143	0x3f78fa3fb4560d16	0.006098030896626546
144	0x3fb4ebe9f6075926	0.08172476059494169
145	0x3faead9aba133eff	0.05991824647355592
146	0x3f8b9e58b41a8ea4	0.01348561572678559
147	0x3f9062df028e4625	0.016002163439742163
148	0x3f7d0970d414ca70	0.007089081512548931
149	0x3f9a953cb0ccd540	0.02595991925337171
150	0x3f93adbe1062fb61	0.01921746230140842
151	0x3f950209ff8e4b6b	0.020515590880289574
152	0x3f929441612c645e	0.018143674427026794
153	0x3f7edb61261fccf6	0.007533435333232355
154	0xbf7c215ef5ca799b	-0.006867762506458065
155	0x3f9b0896d76b5d30	0.026399952791362924
156	0xbf93ee8b91b66c1e	-0.019464665192213564
157	0xbfa4f02ca692defb	-0.04089488538141769
158	0xbfa25fa9497ac074	-0.035886087627091806
159	0xbf9ffa68ac7047ab	-0.031228671574417593
160	0xbfaab75b4306f1b1	-0.05218014901354041
161	0xbf91d314cd78833e	-0.017406773606242647
162	0xbfb24e58afe286f9	-0.0715079717070032
163	0xbf98f01fa0ce438d	-0.02435349863987173
164	0xbfa66cf1f3db2e87	-0.04379993535766596
165	0xbfaa52cf1b455435	-0.05141303260703759
166	0xbfa36c36437f0e71	-0.037934966792389065
167	0xbfb231adfdd6b880	-0.07107055136904883
168	0xbf84b6786c7b2921	-0.010113659678058941
169	0x3f83e52aee8e0790	0.009714446454157671
170	0x3fa3dd513c76797f	0.03879789221831497
171	0x3f92306258de58c6	0.01776269595537696
172	0x3f8d071baf73b594	0.014173713962430758
173	0x3f90dce377d7d0bc	0.016467622937810886
174	0x3f94e0e1b2e92df8	0.020389105362751153
175	0xbf7bd1c3261eb072	-0.006791841793454366
176	0xbf99b08f82302619	-0.025087587662744413
177	0xbf922e9f2de9c205	-0.017755973031343703
178	0xbfa3c9506efe19c5	-0.03864528040780927
179	0xbfa793c37ff5981f	-0.046049222345388545
180	0xbf96a4e935a8d459	-0.022113460445514075
181	0xbfa9fb5716cc2526	-0.05074569848336301
182	0xbfb0f6022b56191b	-0.06625379140868796
183	0xbf921a1abf6e8573	-0.017677705701890156
184	0xbf9a77739c4d13f9	-0.025846296706067282
185	0xbf9a55fe6f5084d3	-0.02571866564187959
186	0xbf962dff78eb67f9	-0.021659843211502026
187	0xbf986d82aff9d455	-0.02385524939605362
188	0xbfb08f333e5cd066	-0.06468506119273484
189	0xbfac41b6ff761ccb	-0.05518886440682421
190	0xbf66e3dbc6165a59	-0.0027941982704747068
191	0xbf728e0b3941365d	-0.004529994814289032
192	0xbf56a811016f5122	-0.0013828435964927184
193	0xbf6a95f929c53a38	-0.0032453409641342267
194	0x3f928c1e13ddcfcc	0.018112630808403016
195	0x3f77332528f2fd22	0.005664010196766685
196	0x3f91d45391607d57	0.01741152357874162
197	0x3f88694dd52881fb	0.01191960150487236
198	0xbf793af802512c8c	-0.00615975264106362
199	0x3f54af51ac134f12	0.0012625024394780676
200	0xbf67cdfd3cb92826	-0.0029058404959743265
201	0xbf83664550ec497e	-0.00947240975577723
202	0x3fa133caf29d5d46	0.03359827243428497
203	0xbfb001f2eba1a11c	-0.06252973797530043
204	0xbf9370911ed78ba8	-0.018984096057362315
205	0x3f8662c88e4501b9	0.010930601922724091
206	0xbf87d89c534fb11c	-0.01164362076993846
207	0xbf61000fe38450f1	-0.002075224907580269
208	0xbf919a99997d8cfe	-0.017191314690887964
209	0x3f842d5f515407a7	0.00985216586059663
210	0x3f7c111d07a247ca	0.0068522581078855425
211	0x3f3ae6aad1ae879f	0.000410477355837208
212	0x3f9216f4fe31b8f7	0.017665699019226513
213	0x3f737f3b107506be	0.004760008544794024
214	0x3f7fa74d6f8d07cd	0.00772791145647207
215	0x3fb12dc518adb0c6	0.06710464336873931
216	0x3fae3f1224716bf0	0.0590749425398015
217	0x3f9c66fa4641bc91	0.027736578500875245
218	0x3f9c9bdbe2cce328	0.02793830463199068
219	0xbf5871a535df2c27	-0.0014919389136476364
220	0x3f98b3c2430abc0a	0.02412322553817251
221	0x3f9e3b044338c7d6	0.029522005656140347
222	0x3f85600e0c116887	0.010437116378103418
223	0x3f94854a5e534837	0.02003971291271275
224	0x3f9479913cef0947	0.019994992584323936
225	0x3f9ba7da78cef21b	0.027007497428472953
226	0xbf95a43fee491a30	-0.021134375494762547
227	0xbf91624b92f64eb5	-0.016976528973443112
228	0x3f6853558b5ff28c	0.002969424323053643
229	0xbfa04dc22adfe8c3	-0.03184325002071511
230	0xbfa592b196db4b33	-0.04213480917464665
231	0xbf9edbb0f68965d3	-0.03013493065586721
232	0xbf72005847c79665	-0.0043948601200774805
233	0xbfb1a74f690c896d	-0.06895920099899451
234	0x3f95c9d6891bfa5d	0.02127776347969711
235	0xbf8ea63b10554219	-0.014965497432656115
236	0xbf65fb895591761c	-0.002683418494185087
237	0x3f6cda376af8f938	0.003522022474299249
238	0x3f81df6f2e100d25	0.008726948350164474
239	0x3f7fcc2f701b191e	0.007763085655545758
240	0x3fa620da5f0090bf	0.04321939859099321
241	0xbf707c183174106f	-0.00402459574184287
242	0x3fa1d0553bdf77db	0.03479257923002851
243	0x3f8410d5e97effb7	0.009797736347422743
244	0xbf7c996db09a1881	-0.006982258296949096
245	0xbf82362e68f776bf	-0.008892405107811084
246	0xbf6f09557515b31b	-0.003788630398665294
247	0xbf720c2d380db74c	-0.004406143795547223
248	0x3f93074527582391	0.018582420851121
249	0xbf8b5c56e4389de7	-0.013359717216260015
250	0xbf7a2b811e29c28c	-0.0063891452469852054
251	0xbf950919471ddc98	-0.02054252144395416
252	0x3f97f113c78ca952	0.02338057427838553
253	0x3f7b40399e97a2c7	0.0066530466806191185
254	0x3f80537623426c15	0.00797169013121927
255	0xbf83a4dbb9d89ee5	-0.009591786011767531
