models/Dense_Elongation_Model.pth (torch, 3607 bytes, 6 tensors)

layers.0.weight f8 [9, 12]
00000000: 1937 d7f7 6312 eabf 984e 8ba5 0c55 e1bf
00000010: 4b0a 91cf 9bc7 d9bf 9a30 699f 435d a5bf
00000020: 814a 7581 667d e8bf 59bf 8d12 78f1 e5bf
00000030: b423 069f 07a7 f8bf f7e4 81fa f9b1 813f
00000040: e5e7 ad6e 0e45 933f 7ad9 52e2 9551 b7bf
00000050: d0b1 a023 2867 e5bf d6bb 219d 207d 813f
00000060: 51eb c54e 22d5 9c3f a683 9d97 2873 d6bf
00000070: 2255 fe74 dfc8 c93f b2b7 fffb 500f e4bf
00000080: 2941 0afc 3199 d3bf 622c b095 e156 a53f
00000090: 4583 6a7b 7db1 debf 4bac e20b 5d97 813f
000000a0: cd83 c1ca 226e c6bf 394e bf04 de9e ddbf
000000b0: 6ef8 0a1a 98a2 e73f bf39 7e28 b4d0 b0bf
000000c0: bf40 1940 1447 d5bf 99cb 0070 9e83 803f
000000d0: 59a0 c621 bcb2 93bf 13b9 68db 3591 74bf
000000e0: 0fb3 eb50 731e bebf 4d21 4ec4 022e b6bf
000000f0: 71ef 2a33 4e09 ccbf 3d7d 39b4 0608 97bf
00000100: ea02 de4e 8d54 8cbf 28a8 e5f6 35f6 d4bf
00000110: ffaa 6b4c bf6e 8fbf 6406 1e6e e705 833f
00000120: 786f 302b 3d5f bc3f d61c 9e61 348a d43f
00000130: a3ed 40b5 9e73 d03f 9ef0 ae7b 8ef5 9fbf
00000140: 1143 3223 3227 cebf 9f2c 543e d3ad c13f
00000150: 5178 0ad2 3b30 a4bf 6db3 35a2 3019 623f
00000160: c0bd d6ed 584e c23f 4c03 f861 e14f c33f
00000170: f556 a548 d543 09c0 058c 2083 96ed babf
00000180: b9d2 dab5 f624 be3f aeba c355 de29 d33f
00000190: db43 029d cffe c3bf ae81 b012 f45c c6bf
000001a0: 3feb 6faa fbbf cf3f 5896 fc71 8dfc c53f
000001b0: da58 0b07 c43c c23f e7fc b9cf 6971 d23f
000001c0: a023 3b34 9901 cb3f cd0b b1a2 3402 a5bf
000001d0: 2f50 ab5e 512b f93f d968 c0db c2f4 903f
000001e0: 4d94 af55 d986 ddbf a94f 7d88 bc9a be3f
000001f0: 4a0e f709 fdf6 e2bf 67bd b2ba 462c d9bf
00000200: a6ca fe9c b44d b9bf c7f8 b8b6 e55c 993f
00000210: 3506 e863 e9a1 aebf 6d58 c422 df18 713f
00000220: 6d95 2688 c9c8 9bbf ad53 5820 1df8 cfbf
00000230: 81f7 ead0 5f51 f43f 5fd1 74fe c3e7 adbf
00000240: c11b 7f06 3b6f c4bf 8d3c e6f6 c6c2 e9bf
00000250: 59aa ee76 e1c2 e6bf e963 0dbc 8d76 d03f
00000260: e463 9a56 1825 dfbf a89d 96aa ab33 cd3f
00000270: 8075 f286 f7e7 e0be 2ebc ca56 86db c8bf
00000280: 0d5a f3b1 82b4 e5bf 908b bab4 ea03 993f
00000290: b66f 8a7e 6aff d5bf dffd b488 9711 c93f
000002a0: 05fc 53ab e9a4 b9bf 11bb ef28 2888 bbbf
000002b0: c256 5fe9 c75d 993f 9893 8930 1286 bc3f
000002c0: 1b70 32ff 062e b63f 8c78 9d5b 4b3c a0bf
000002d0: fe62 08cc 92ed c4bf 5223 9863 6383 d4bf
000002e0: ad70 a6ba 8d99 cb3f 4a25 34c2 9376 bc3f
000002f0: df24 fffe b1a3 e93f ceb2 aca2 591a c13f
00000300: ddcc 5a80 317e dfbf 6469 e45f 6bc1 a0bf
00000310: 85db ee5a 1cc5 913f 8e72 07ce 3e39 98bf
00000320: e269 556e eaf2 c83f d5d8 b60b 26c0 a8bf
00000330: 45ae 73a1 35cb bf3f 4a24 0c1d 0931 c7bf
00000340: 9ac8 26ec bfbe a13f 0693 f5ee 8ffa b53f
00000350: 5917 7275 de58 13c0 0ffe 15b1 6c3b 583f
-0.8147449341429108 -0.5416320069584399 -0.4028081442849369 -0.0417271740048772 -0.7653076675872655 -0.6857262003304455 -1.5407787525057133 0.008640244443301344
0.01881811666996915 -0.0910886457012107 -0.6688423820356153 0.008539442820817127 0.028156791742257884 -0.35077872091465634 0.20144265377590737 -0.6268696710446788
-0.30622529614722055 0.04167847587822206 -0.4795831399188056 0.008589484143462075 -0.17523608112517622 -0.4628214880333164 0.7385979183816411 -0.0656845663890868
-0.3324633241618464 0.008063543122352178 -0.01923650699760091 -0.00502129590908697 -0.11765213704684306 -0.0866395692120296 -0.2190339803545345 -0.02249155497554266
-0.013833145112358964 -0.32752751456303253 -0.015347952384634931 0.009288604782116745 0.11082823090003824 0.32093534024211345 0.2570568819098417 -0.031210161494286674
-0.2355711624009236 0.1381172231998322 -0.039430493726499656 0.0022092771411536456 0.14301597226356755 0.1508752563823016 -3.15812165026261 -0.10518780423494441
0.11775152149022973 0.29943045020528813 -0.15621371427962924 -0.17471171295711713 0.24804635831955044 0.1717697912765057 0.14247942298852118 0.28817220006744865
0.21098628092138672 -0.04103245244962004 1.5730756471648524 0.016558689749310716 -0.46135552757033765 0.11954859096778016 -0.5926499552373994 -0.3933274100517878
-0.09884194214718409 0.024768437650202892 -0.059829038091276855 0.004174110054256369 -0.027133130011539764 -0.2497593315062238 1.2698667679646578 -0.058408856212198705
-0.15964448754513508 -0.8050265142682221 -0.7112891505142428 0.2572359405945109 -0.4866391034825581 0.22813936070927565 -8.061466557680473e-06 -0.19419936406981847
-0.6782849765393749 0.02442900398331066 -0.34371435506340775 0.1958493630900042 -0.10017261917890614 -0.10754633902955059 0.02477180826084325 0.11142076191897698
0.0866398213424308 -0.03171000951145783 -0.16350016558205732 -0.32051930166249065 0.21562358487870395 0.11118434420872805 0.801232336082787 0.13361664240928522
-0.4920772317374949 -0.032725673156351914 0.017353480386840942 -0.023655873608606152 0.19491320025811293 -0.04834097760196846 0.12419448081680524 -0.181183947737994
0.03465842969616624 0.0858545263668696 -4.83678611286981 0.0014790116732398305

layers.0.bias f8 [9]
00000000: c231 97c0 7aa6 cb3f 07ef 553e 624a ecbf
00000010: 6d7f d455 dda4 e4bf d187 1fd8 25a1 98bf
00000020: e63c c2dc 7e3e d83f 2bf5 7315 264c d6bf
00000030: bfa9 af34 c359 db3f c222 b946 5b98 d1bf
00000040: 6462 ea08 6c18 d2bf
0.2160180511840633 -0.8840800492757531 -0.6451250721329252 -0.024052230182753768 0.3788144260260665 -0.34839775176063154 0.4273536695970072 -0.2749241057067985
-0.2827406012598088

layers.2.weight f8 [6, 9]
00000000: fdd8 4dea 8017 873f 2e47 8622 ec7c b0bf
00000010: 2233 2d76 855a cabf 58e9 a5be 12bf d2bf
00000020: 5de1 69f8 38ce d0bf e98b cd73 2c46 a93f
00000030: a76e 7a73 9b52 d2bf b447 a88c 59f5 d4bf
00000040: 28fd 93c5 8d89 cabf 07ad 287e afa4 e1bf
00000050: e637 d99c 625b 6cbf 3c17 ef82 4dfc cbbf
00000060: 1484 fefc 78a1 9cbf c3be 4eb5 8809 a5bf
00000070: 5b2a 3f7f b6f9 b63f 1747 1a1c 8983 d1bf
00000080: 1e95 184a ffcd c0bf 863f 84df aa62 84bf
00000090: 765e 0d8a 1f67 e13f 29a3 4395 5acf c4bf
000000a0: 8aae 2b5f d61b c6bf 7d67 6531 08e5 d4bf
000000b0: b6aa 8a75 207e dcbf 3181 a031 4a97 d7bf
000000c0: 6bf1 c2eb f12d ca3f 8d19 e7f7 cda9 d5bf
000000d0: 300a de5a cf40 edbf b24f e85c b40e ddbf
000000e0: 62d1 2470 e02b dabf e094 618c d534 c2bf
000000f0: c788 8128 d0e5 adbf 24c8 5567 3fc9 d0bf
00000100: 2908 c0ba e7fa b63f e11b 56e2 e494 d2bf
00000110: c1fa 9b42 6549 91bf 2ea3 7476 4311 d2bf
00000120: f0a5 82f6 ac92 e4bf 7b9b 6a77 4867 cbbf
00000130: cb70 de21 dc00 82bf 19e6 7495 56af d23f
00000140: 69d4 95b8 07c0 cc3f 047d 2232 07a2 a2bf
00000150: d965 1bab b251 dabf d021 6b2e 71ae a7bf
00000160: aff0 85ce 2fc6 e03f 9b1e 9219 de45 e3bf
00000170: 6ee0 2fb7 db63 cdbf 12b9 db8b e7cb 4fbf
00000180: eabe e3f3 0972 a0bf 9385 5ffb 034d ccbf
00000190: be31 4ad1 44c5 c33f 2797 d75d e0d3 dabf
000001a0: a88c 5a0d 41f7 babf 7a87 cc2d c85d acbf
0.01127529826201767 -0.06440616457828405 -0.20588749189701 -0.2929121839330455 -0.26258682498111857 0.049363507400606306 -0.2862919452397627 -0.3274749635321499
-0.20732280871741549 -0.5513532127419304 -0.0034615446118442137 -0.21863716977366632 -0.02795971912530966 -0.04108836377360838 0.08974781614885201 -0.2736532949867167
-0.131286536388111 -0.009953818269906167 0.5438382812817071 -0.162577937014498 -0.17272452971461788 -0.3264790041335955 -0.4451981685512395 -0.3686089977873222
0.20452713023940858 -0.33848904809237795 -0.9141613745453636 -0.45402249405855877 -0.40892802192253985 -0.14223737101125433 -0.05839395994623114 -0.26228318301503095
0.08976600941971981 -0.2903377733531994 -0.016881544294842458 -0.2823036820214381 -0.6429047407775084 -0.21408944922333348 -0.008790702613446296 0.2919517955338918
0.2246102954192424 -0.03639242636676879 -0.4112364455191631 -0.04625276271469014 0.5241927179008793 -0.6022787570409095 -0.22960993237188937 -0.0009703522298119291
-0.03212004758995397 -0.22110032819822986 0.15445766658048216 -0.41918191112778164 -0.1053352983095005 -0.055402999487582386

layers.2.bias f8 [6]
00000000: 90c3 30bc b8b9 bbbf f46a d687 9cab 96bf
00000010: 9405 814c 1d2d a03f 070f a160 a76e 1ebf
00000020: 0c8c e02c 4a6e d03f 126a d807 a84e a53f
-0.1083026370477127 -0.0221390207203553 0.03159419592749227 -0.0001160897883503675 0.25673155195744424 0.04161572547691973

layers.5.weight f8 [1, 6]
00000000: ce10 c090 cc81 ba3f 245c 81b6 bde0 b63f
00000010: 79fb 946c 0c27 cd3f 20fc 5c14 034b 32bf
00000020: 8a23 8958 bf5b c5bf 4d14 1016 663b a93f
0.10354307683889205 0.08936677652069186 0.2277541666207659 -0.0002791292684953279 -0.16686240981132655 0.049281301682676394

layers.5.bias f8 [1]
00000000: edc4 26c4 6073 c2bf
-0.14414605691630503
