models/LSTM_Model.pth (torch, 9051 bytes, 8 tensors)

lstm.weight_ih_l0 f8 [36, 12]
00000000: 2583 f568 e13c e8bf 6fa9 1121 bb0e e0bf
00000010: 5913 d1b0 e259 cebf 289e 4f80 302e a33f
00000020: 88ad 1bb7 a842 e9bf fcfb cacd eafd 8a3f
00000030: f793 e6f6 8633 eebf a088 cd2a 5c20 d53f
00000040: 2a58 ae91 27b0 c13f 7769 b1e7 508b cfbf
00000050: b02d 8ce5 3bc7 0fc0 ac05 d072 3e0b e1bf
00000060: 99c4 8e5a fbb6 aabf 7c6b f7f7 9771 b23f
00000070: bb35 4b85 5ffc b6bf fbd7 04db bc63 c5bf
00000080: b9a7 057e c43f e03f 912e 226c 36f8 e73f
00000090: 21fa 2149 344f df3f 0c36 bcbf 2521 c83f
000000a0: e7db a675 a59c e13f 65ae 7f5f ea06 cb3f
000000b0: 9ba8 2087 57cb f23f 5909 39d7 ddd9 c7bf
000000c0: b65a 2d7f 1d37 eebf 1e5f b957 dd00 f03f
000000d0: 2ca0 f97b 6042 ab3f c899 2bc7 f7d8 d73f
000000e0: fd36 b5de 41af ce3f f66c f506 605c de3f
000000f0: 790d 7a0d 33fb b83f a24a cd61 8652 c63f
00000100: ec23 87b7 30c9 e0bf 1f31 7e79 c548 963f
00000110: a653 cdf2 45ce fa3f f16c d4b0 ef47 e1bf
00000120: 9f19 0853 518b cb3f cb07 a851 41ec a63f
00000130: 5897 446b a771 d5bf 1677 2641 ff44 bc3f
00000140: dc3c da58 40aa bd3f c128 300c dad1 d93f
00000150: 6e65 848e d415 dd3f 131d 7d4c 5ab5 e13f
00000160: ea9d 8f8d f5b7 e83f 315e ee00 6b09 b93f
00000170: 4589 9470 9909 11c0 b133 5295 73e9 d63f
00000180: 5fe8 4c29 c215 e1bf 323a 4ac1 a64a c3bf
00000190: faf5 75e5 5069 cb3f 2f05 fa9e c398 cb3f
000001a0: 6547 3f9d b831 d33f 9997 4293 4820 e43f
000001b0: 3659 7184 ce9e b63f b54e 8f9b a19e 833f
000001c0: 975b f847 e76d d3bf cb27 d2da a61a be3f
000001d0: a25d 7e71 a812 0f40 12be 9d9f 6e60 babf
000001e0: 6e51 f8e0 a97f cbbf a085 f78c 8387 d83f
000001f0: 4afd 7073 9fd9 c03f d395 1e97 8dc3 d6bf
00000200: b653 b78a ceb0 d03f 9da3 c4ec 53d0 e13f
00000210: 8022 28a5 92be e4bf 85db 6593 4c34 ddbf
00000220: d3c5 f3cf 1469 d7bf 801c d68b 9c45 d0bf
00000230: f0ea 930a 4d47 1540 e51e fd8d a473 c8bf
00000240: 9291 9819 4122 cb3f c4d3 47f7 d690 b43f
00000250: ab6b d694 e93b 7abf 39c4 cb1e 1507 ba3f
00000260: f0ee f805 e675 843f cf2e 2de7 5095 d7bf
00000270: 5bf2 81ab 7e4b c23f d774 f1ab d02f d4bf
00000280: 8cfb 5191 4530 91bf a119 1587 9baa 843f
00000290: 1e66 f8dd 1ec0 1cc0 2b78 10e7 a6c5 e7bf
000002a0: 8140 3e5b db65 d73f 41de ba80 2e81 d4bf
000002b0: 0181 64c6 fde4 d9bf 25ae fbfa d02b e2bf
000002c0: 9869 de96 4935 bfbf e56d 1516 53f1 d43f
000002d0: 1f22 e21a 4452 913f cb58 50fa cbe3 cdbf
000002e0: 1b64 cb3c aba3 b4bf 8c81 ac26 3897 de3f
000002f0: 2ca2 3ec0 5499 f53f 961b a584 0a83 b23f
00000300: 9ddd 482e 7722 a0bf fe48 6b46 03cc ddbf
00000310: fbeb ce09 a946 e53f 45b7 002d 4a00 abbf
00000320: 14cd 3967 04c7 d53f fead 5a96 1b0a b7bf
00000330: 52b3 097f 178c d3bf 0858 cfef 1fbd bfbf
00000340: 741a c432 9c7c d0bf bba8 59f7 48e4 c23f
00000350: 88f2 157c 76a7 f1bf 1aac c7c7 868c e03f
00000360: 4e91 7c6c 428f e4bf c81f 4667 1d3b d23f
00000370: 9008 9ca4 e953 ebbf 1d63 6f87 bf79 953f
00000380: a248 89f5 042d f2bf aa02 edaa 4b09 d53f
00000390: 23df 52d4 9ce1 dabf e51a 6afe e8f8 a3bf
000003a0: fcce 6071 c9eb ef3f 33b7 06e2 86fa ec3f
000003b0: 20ac 3847 add9 e1bf d901 1aa3 1358 ddbf
000003c0: f58b 6814 d1b1 c1bf 7121 f0c3 2786 dfbf
000003d0: f394 4ffa 8dfa e2bf 5f5a dee3 57b4 eabf
000003e0: 2ec7 3da7 6ad3 b93f 8bfb ed17 34a2 e8bf
000003f0: e29e d18a 2e2b e4bf e0eb 961d b94e b2bf
00000400: 9d2b 251a f932 e2bf 73a0 bbb5 27a4 bcbf
00000410: 1c7c 5bcf e15f f43f b9ae 17d0 15ab a53f
00000420: e69c 0e05 1c86 dfbf a254 05f7 b47c d53f
00000430: 787f 1592 78c3 d23f 093f b5cd c952 b63f
00000440: 5f99 9d17 d5e4 db3f 8568 e6ab 19ba ca3f
00000450: b4ef d231 2cee e03f 39b0 5dfd d346 bfbf
00000460: d4fb 7ad4 e726 e8bf c41b acef 9c7f c8bf
00000470: 0c08 59d7 76c4 ec3f 4c36 11e0 1132 c13f
00000480: 59a5 ec3a b9ec d93f e8d3 4c16 ce69 e6bf
00000490: ab4e 9c8e ed3b e6bf 9ad0 e009 cbd2 e1bf
000004a0: 23ec 5e5a e716 d4bf a348 0762 74ba e8bf
000004b0: 8163 ed13 0844 bbbf 5829 b4e8 ea08 d63f
000004c0: 4ab5 5b25 79c0 dfbf dd9d d3b8 8166 c7bf
000004d0: 4ec0 5dbf 5383 f03f e0d3 e35e 1d7b b53f
000004e0: 2f3f 9f53 403e c6bf 46f6 93df 40db a73f
000004f0: f480 09db 9cb9 d83f ad37 8999 9e41 c7bf
00000500: 7086 81e9 3517 d0bf 24e8 9bf0 c4a9 cb3f
00000510: 7d83 1b9b 8377 9cbf d111 e8e0 2c16 ecbf
00000520: 8717 79c1 d601 e8bf 1651 9213 e074 d2bf
00000530: 609d 269c b2bb 0f40 212b ef2d d25e d53f
00000540: ec51 d502 98e3 c2bf 8652 226b 3850 d2bf
00000550: b5dd 31e0 8e5c babf ff8f acc0 a50a 9d3f
00000560: 03fd 1349 4f18 d3bf a9b6 ca34 ec73 913f
00000570: 9191 c6fe 7ede c7bf 24a6 748e 5330 b4bf
00000580: 8d13 d44a 02a4 e63f 61a7 d369 20c4 d1bf
00000590: 4db7 9cfd 95a1 f8bf f8f4 dc73 3655 953f
000005a0: 06ba 099f 908b af3f 5af2 0437 4056 e0bf
000005b0: 5457 9cc5 1fea d0bf 0641 8e97 1147 92bf
000005c0: 974c 50dd 060d d23f d417 64d2 e6a4 b03f
000005d0: 81d2 98ed 8531 e5bf e4e4 cc25 c002 b9bf
000005e0: c935 bd6e 359d c7bf 064c 75ef 9eab d7bf
000005f0: 624a 3f65 4bcd f63f 9de9 91a3 f1e0 c4bf
00000600: 286a 94ba 87a1 d03f 6bf6 0e45 586c 833f
00000610: 8815 76e9 c161 e3bf b749 cbd3 fcc4 bfbf
00000620: 37b1 4d27 e2a0 d7bf 52f7 52b2 3fc7 d83f
00000630: 4c61 c06c 8877 d0bf 3812 49d9 536a ad3f
00000640: 9e71 bdf5 86b6 e83f 75ef 0fa8 9f1b b43f
00000650: bf82 6950 ea9f b6bf 1c08 41d1 9ff5 a63f
00000660: 2563 cb52 c670 cf3f 96a4 d8fa a0c3 e1bf
00000670: 41af d939 55a0 9e3f 91fa 5254 b9ea 963f
00000680: af66 42ec fb87 77bf 468a 494f a546 b23f
00000690: 05af 20bc b1da c8bf 6eca e996 583b e23f
000006a0: e0aa c651 5f43 d93f ff6b e23a d129 bdbf
000006b0: 6487 288f b64d febf 6d73 18b2 20a3 f13f
000006c0: a5f8 5680 bd10 d53f dfc8 60e6 42e4 b4bf
000006d0: 795b 9107 3629 da3f 4032 60be c7b4 eabf
000006e0: 9448 e159 3729 f63f 1fed 6b8c e538 acbf
000006f0: 6863 0341 f5ce e73f 5d61 667a 3f6e d73f
00000700: 7459 d880 3de8 e13f 0007 0ca1 9fb9 d23f
00000710: 47b6 de25 0313 f5bf f85f a84d 6c3e e33f
00000720: 9a31 73e5 56eb f1bf 11af 2fb2 a0df e8bf
00000730: 56be 2bdc 14e8 e0bf d4be 828a 5b98 e43f
00000740: ff5c 8df9 a7c5 f3bf b24b b298 e652 c1bf
00000750: e724 6913 38b1 ecbf a998 01e8 ab0b cc3f
00000760: be89 0604 8b8d c2bf 3c2d 1fd4 a5a3 923f
00000770: 0118 2012 3e0a cdbf 7e6a d136 851d a3bf
00000780: 5d8c c19b ea5b ab3f bcda 7db9 0ff1 e4bf
00000790: c3f3 b9de ac7c e2bf 0684 9751 8bde bbbf
000007a0: a187 c77d 303f d2bf f634 00b3 3c8a eebf
000007b0: 7619 aa22 69e6 f0bf 4531 5716 8b67 bfbf
000007c0: 4a50 51fb 6bf6 d73f 7377 b272 85de bc3f
000007d0: 185d ab70 c8b6 efbf 4290 c52e 72e6 b23f
000007e0: 4cda e73c 4cb8 df3f 448c 2273 1d17 ef3f
000007f0: 2d8e 1f9f 6506 c23f 6598 f397 a08e bfbf
-0.7574317026120282 -0.5017982145193808 -0.2371180880892563 0.037461772597279286 -0.7893870903330233 0.013179621129323131 -0.9437899420050816 0.3301000993725527
0.13818831075030974 -0.24643908799300693 -3.972282212582023 -0.532622551196416 -0.05217729072990913 0.07204580119961962 -0.08978840831988226 -0.16710625356944306
0.5077841245049434 0.7490493881209251 0.4892092432200191 0.1885115801054983 0.5503718660246449 0.21114854491257798 1.174644019929963 -0.1863362599270413
-0.9442279323510181 1.0002110888216929 0.053240790494612916 0.3726176686308489 0.23972342848212938 0.47438812903938243 0.09758299902937563 0.1743934609936178
-0.5245593628434313 0.02176197580369987 1.6753596767859817 -0.5400312856394561 0.21518913797644942 0.044771233766382666 -0.3350618884600087 0.11042781200964344
0.11587907952547333 0.40343333425756717 0.45445741574947973 0.5533877843780907 0.7724559559691759 0.09779995701534784 -4.25937438875764 0.35799874860895914
-0.5339060598992197 -0.1507156795309626 0.21415148929729338 0.21559949171572998 0.29990973812265614 0.6289408565687494 0.08836069806543353 0.009579908904846371
-0.3035829737504456 0.11759417383487329 3.8841103426636474 -0.10303393742446357 -0.2148334835516254 0.38327111021325244 0.13164132248673815 -0.3556856132293806
0.26079143091674994 0.5566806434991239 -0.6482632852285661 -0.4563170852119856 -0.3657886534484451 -0.2542487493123602 5.31962982681101 -0.19102913792652668
0.2119828581791237 0.08033507859347738 -0.006404793193179363 0.10167057039122164 0.009990498597395953 -0.3684885270674671 0.1429289185943102 -0.31541840354277667
-0.016785704607623894 0.010091033038986565 -7.187617748533311 -0.7428774369216219 0.3655918494268989 -0.3203846223000007 -0.4046015202930136 -0.5678486730589084
-0.12190685208626062 0.3272292819653713 0.01691538251955837 -0.2335143062816257 -0.08062238916626578 0.47797969605201085 1.3499343404347526 0.07231202829744485
-0.03151295127866691 -0.46557695271361854 0.6648755256240969 -0.052736585610871724 0.3402720459045707 -0.08999798222310315 -0.3054255238155764 -0.12397956471190252
-0.25760559995288834 0.14759170606277458 -1.1033844801997095 0.5171541120483909 -0.6424877280119661 0.2848580845388793 -0.8539932456044586 0.02097224487428938
-1.1359910575161298 0.32869235698675914 -0.4200203011964609 -0.03900840860028668 0.9975325788895755 0.9055818953108655 -0.5578218833010204 -0.4585007756031963
-0.1382390355730362 -0.49256319174357716 -0.593085278404628 -0.8345145655210436 0.10088221152343799 -0.7698002307296162 -0.6302712165169988 -0.07151371929550931
-0.5687222967766165 -0.11187980830038828 1.2734087085625623 0.04232090153877039 -0.4925603913674891 0.3357365047753068 0.2931806017495471 0.08720074913184929
0.43584182077611006 0.20880432981067912 0.5290738080143371 -0.12217450080578453 -0.7547492170341408 -0.19139444067715605 0.898982449151164 0.13434050980360934
0.40507345918975585 -0.7004156528042786 -0.6948154244768906 -0.5569815819676649 -0.3138979322936299 -0.7727605738275724 -0.10650682913309419 0.3442942879197708
-0.4961226334406389 -0.18281575703370737 1.032062289737968 0.08390983168267452 -0.17377475817783636 0.04659464577887866 0.38632890119880803 -0.18169004914164813
-0.251416662247812 0.21611844776617872 -0.027799660055169085 -0.8777069466310029 -0.7502244738359288 -0.2883835021141449 3.9666492652210508 0.333912415368717
-0.14757061136573613 -0.2861462637168092 -0.10297482465272519 0.028360929379360297 -0.2983587468770141 0.017043772432478708 -0.1864775413533946 -0.07886240222855939
0.7075206243031161 -0.2775956185783937 -1.5394496828771083 0.020832873174403382 0.06161167088872692 -0.5105286669346001 -0.26428980157776505 -0.017849230647301283
0.2820450936571403 0.06501619946001763 -0.6622953072133698 -0.09769822047100579 -0.18448512942488396 -0.36984990486706726 1.4251207308740494 -0.16311474310698496
0.259859020430357 0.009483995063301628 -0.6056832847395279 -0.12409954233888852 -0.3691945442031001 0.3871611825414806 -0.2572957098032205 0.057451839708424435
0.772281150780646 0.07854650357324806 -0.08837761367022788 0.04484271458979114 0.24562911074351593 -0.5551304721203845 0.029908496528533893 0.022379775783287818
-0.005744918893606218 0.07139046846126815 -0.19417401967927375 0.5697443912052458 0.3947370813936413 -0.11391933143242737 -1.8939729301568713 1.1023261029106053
0.3291467431371394 -0.08160799145187835 0.40876532305758634 -0.8345679014469809 1.3850625525415454 -0.055121587172801016 0.7440134305753476 0.36610400155179496
0.5595996395593787 0.2925795624470169 -1.3171416739745767 0.6013700024368509 -1.119955917633979 -0.7772983055305948 -0.5283302593433727 0.6435983376777252
-1.2357558963902304 -0.1353424306476803 -0.8966331843486416 0.21910618618421054 -0.14494455048141036 0.018202391693006734 -0.22687507519748354 -0.03733459753194256
0.05343564177817293 -0.6544264433749372 -0.5777191496014144 -0.10886450521458366 -0.2851067760767539 -0.9543746467694791 -1.0562526086883657 -0.12267369552063652
0.37441539328324736 0.11277040529463793 -0.991062374169732 0.07382882730377197 0.4956236452848415 0.9715716599206492 0.1408202197045382 -0.12327007016901488

lstm.weight_hh_l0 f8 [36, 9]
00000000: ae07 edd4 5090 e4bf 6c5e 568e b8ba b93f
00000010: 93af 99a0 a936 c73f cc25 79a2 d165 d63f
00000020: e5f9 0361 e806 db3f 0da3 31d5 fdf9 b83f
00000030: 4f5c 097c e9b7 e23f 9ede cb35 2ec1 7cbf
00000040: 0591 059a 42f6 bcbf d30b 0d8a 53fc b6bf
00000050: 227d 6d33 9dfc e43f ca26 60cc 4adb ea3f
00000060: 6891 d036 3c99 f7bf 5bb7 7896 2e0b e13f
00000070: 942f 13d5 eb16 e23f 3388 7332 89f9 f2bf
00000080: 1a75 1ab2 9f48 c4bf e262 ff25 4ea4 d23f
00000090: 0bd9 56b0 c9b9 debf 90d3 875d 93a2 e83f
000000a0: 99f6 9c2b aeac ea3f 4291 e7a2 2a6b edbf
000000b0: d2e4 ac08 b136 b9bf c6d8 5de3 436a ea3f
000000c0: 52d7 827c 9da8 f9bf 397d 342c c2a8 b1bf
000000d0: 1dff a595 f0e4 ef3f d989 d62e ec90 d0bf
000000e0: 47c2 e76d e676 da3f ca48 6993 4128 dc3f
000000f0: cea0 bae0 c295 c2bf 5074 d5d9 1db9 d43f
00000100: 4db5 0032 40f6 cfbf 9d23 7e3a 5d03 b3bf
00000110: 73c7 cd6c cc70 e9bf 73f8 bbbe ca0a db3f
00000120: 62ac 3dd5 5ae4 db3f be1f df71 6156 a2bf
00000130: 7770 e64c ff21 d53f b7dd e13c 7557 d4bf
00000140: dd0c e43a be9d c93f b27a 1fde c8d8 c7bf
00000150: ba4f d043 d147 e2bf 0122 a415 cbdd d5bf
00000160: 6d14 15f5 8042 dfbf 5959 db22 5597 ba3f
00000170: 66e7 b6c1 fbed d63f 6874 b98d f57b d83f
00000180: a875 1be5 746c e2bf 6c79 8b0e 1266 c5bf
00000190: ce97 2739 d4e8 a6bf b78b 320f 58f2 be3f
000001a0: bd75 d9b1 d88d cdbf de16 8b93 7d83 b8bf
000001b0: 0bbf f184 8bd6 e0bf 6471 1e94 e11d f13f
000001c0: 4dc6 0b76 0e66 bbbf 1e7a c446 6246 e7bf
000001d0: 84d5 c450 b200 e8bf 23ae 98a3 e3ac e03f
000001e0: 55da b20a 142b d53f c79a 5995 d331 dbbf
000001f0: a9b7 2ec2 ca50 f03f 462b fcdc ee84 dd3f
00000200: bc52 acc9 d674 e33f f899 81b0 3218 ee3f
00000210: b1a1 8a61 94b7 e1bf a965 eb6a 3169 bdbf
00000220: 9f26 ac39 3a38 c93f c05f 48ac fde6 cd3f
00000230: aba2 5e82 30f6 5e3f f9fd 8bec ee9d e33f
00000240: 4c7c 7c9f 6260 e13f 6a91 1f8b 58ed c63f
00000250: 8b94 363f 7b1a da3f 61e3 b240 7762 d13f
00000260: 101a 5995 4aba ba3f 1509 40f2 eede c2bf
00000270: 3532 3376 bca0 e23f 7a93 7950 da9f b13f
00000280: 68e8 204e 16e9 debf 6189 6f8c 3528 cb3f
00000290: 4a8c 0c79 7b17 b2bf 5c81 855e 355a dcbf
000002a0: 5d3a 9e30 be78 c0bf cd89 3c26 091e d3bf
000002b0: a249 0f9e 6bfa a73f d8ff 691a 360b e13f
000002c0: beea 4503 9e9e e33f c7eb e89b 8b8a e0bf
000002d0: 6c3b d4f1 c3e5 bb3f cfca 8c87 9d4e ea3f
000002e0: 8f2b 1b6c c7eb f03f 3ca1 b34a 7d61 eabf
000002f0: 865c 245d 5259 ccbf b789 e526 1825 df3f
00000300: aacc 8bdb a327 dcbf 5a07 0c94 3e3d f0bf
00000310: 0ebf 20f6 db3d e33f 5ab7 f7f4 2f93 c5bf
00000320: 557a 9088 025c ed3f c038 6f10 4a5a e53f
00000330: ebda c7e6 0e5f e4bf 8bbd 2ce0 06e1 ae3f
00000340: d649 de4b f315 d43f 55bd 3648 16ec e0bf
00000350: 65ad a7ab e05b e8bf de2b 9851 242f e13f
00000360: 76b9 fa6e a60f cdbf 3b88 5d00 8ef5 ed3f
00000370: 3154 f600 e8d7 f33f 46a1 e206 8704 6cbf
00000380: 33f0 8e0a 7e94 c4bf c4d0 77d9 744f 94bf
00000390: 3a21 e081 d4ff b1bf 2289 338b 6c42 c1bf
000003a0: d57f 4d07 12be bebf 047e 2ed2 b410 e73f
000003b0: 8895 5a68 2ac3 c33f 3344 93f9 6b7b e13f
000003c0: 6728 ca96 337f c4bf 6f65 d900 887e d53f
000003d0: 99c3 9526 1a62 d4bf 66e6 9cc1 7657 a7bf
000003e0: eb01 052e 17b3 e1bf 74a2 cffe 9502 d8bf
000003f0: 3efc 1cbd 402c dc3f 9d59 3703 a1f6 d03f
00000400: e0d5 10da d903 df3f 1414 2f20 47b7 ecbf
00000410: 1eb3 1d77 ac83 c63f 1098 642c 8175 dabf
00000420: 755e 7b5e 9935 db3f a7ea 84bf e523 d7bf
00000430: 8e1c 485d 8d0f ad3f e2d0 167b 1f3f ec3f
00000440: 9cfe e3d4 3cce e73f a6ae bcb1 fa56 e53f
00000450: 8e03 67b6 4974 d4bf 4469 d588 8e27 d83f
00000460: 6ca5 57bf 97df dcbf da25 5b2f 1a8e ed3f
00000470: b709 da5d 2ead e0bf 55ad cdf6 1294 7cbf
00000480: 6651 7951 5e17 e23f 6462 19cc c7cc e63f
00000490: 7b9d 442f a8db e23f 464e 765f daca e1bf
000004a0: 6acc c486 3e9f c1bf a6e1 e10a 5c3f e33f
000004b0: 705c ffda bb1b c4bf e34f 2214 25ea c13f
000004c0: 51bd 026a e6a6 d83f 10f0 3d19 cc8a e73f
000004d0: b87c ee4b 16eb c4bf 1668 fe0c 04ee b03f
000004e0: f566 d6c2 00e2 e23f c182 0d85 518a de3f
000004f0: 5931 f368 759c 6abf 82a6 541f 3ca2 c73f
00000500: 3c9b 2e3b db06 b63f 2e85 5c76 dff6 e3bf
00000510: 61cc f397 2001 abbf c0d6 70c0 11bf d0bf
00000520: cac6 ccdb 5a02 e63f 99fa 8b41 73f5 d3bf
00000530: 3fa4 c7b8 9033 e73f 3e0b 273d cd88 a6bf
00000540: 0def 96a9 5797 e8bf 2df2 e8b6 e144 c03f
00000550: 3629 e151 b4b8 d3bf 527e 0919 3c65 b5bf
00000560: 31ef 1ec2 874e c9bf d190 8e35 284a a63f
00000570: a108 5890 810c df3f 5378 337c 2486 cbbf
00000580: 1786 de68 2a54 d7bf e69b 04c7 cad1 f03f
00000590: de51 0cc2 8bda dc3f d82d 06c8 fffd e2bf
000005a0: cc6e a919 49c2 d1bf ee6d 7bd5 cb6e dfbf
000005b0: 3b14 1f98 3756 d4bf b81c 0b69 5c3b d33f
000005c0: 180f 1893 94fc dabf 12f6 d4dd bf8e bcbf
000005d0: 2d19 997a b6eb ed3f b122 6b35 5bc7 c4bf
000005e0: 6974 322d 61d3 c4bf d4fd b5e3 6af1 813f
000005f0: e948 3f1e 0edb cf3f 60d7 313a 7660 dd3f
00000600: 6133 f84d 824a d8bf 6e00 33e8 f778 a53f
00000610: 1682 fcb9 7c73 df3f 8223 4d38 abdf eabf
00000620: 0d31 a305 9a53 efbf 4ea3 97ae f453 d43f
00000630: c873 5e7b c3a0 c03f 508c 5380 62ea d33f
00000640: 94c7 7c85 7a6c e43f 710f ba17 8797 c1bf
00000650: d9dd 8b43 1176 e3bf af8d 3a37 ca11 c03f
00000660: 6d45 9443 86e5 bbbf ab44 bb90 7fd2 d9bf
00000670: c867 27eb 05f7 a43f f206 f124 5ad6 acbf
00000680: 2cdd d2f4 11d2 cfbf 9899 b88d bde8 eabf
00000690: f9e0 bf6f 4db5 e03f 9e77 4b39 7c01 e4bf
000006a0: 13e0 833c 4aa5 f2bf cab4 3772 5aa9 e03f
000006b0: e943 8b2a 050b e83f 6cae 7d9c 3379 c63f
000006c0: 4b0e c8d3 ae25 c43f af3b 5b70 2322 c43f
000006d0: 23dc 7c61 595f d33f 22df f48f b80d d23f
000006e0: 936a a6e4 aa91 ec3f 02a2 1d96 db2c e73f
000006f0: d8da 4383 7269 fbbf 860f 78fe 878a e8bf
00000700: 6f70 d610 ddd2 cd3f 6453 dacf 0416 bdbf
00000710: 990a a5de 3696 99bf 0cc3 0bf8 c792 d73f
00000720: 6e65 09ec 133a d43f 19df b7e2 4af8 da3f
00000730: 9a94 a8dc a0ae c73f 28aa 784c 7810 cbbf
00000740: cd6a 9784 7713 e4bf 6f58 ff19 2ba1 cb3f
00000750: 6c93 f296 9dea b0bf 6730 dde9 84dc d13f
00000760: 09c4 cbb1 1582 cdbf fb17 d1ea 54dd a8bf
00000770: 8ec4 61d7 0d33 d0bf 6fbf 7bc6 22c7 d3bf
00000780: 14f9 77d6 8164 ca3f 7d58 53c9 fcc5 b23f
00000790: e7a4 0add 07ec e4bf c286 4d75 fe78 91bf
000007a0: 3501 374c 14a4 e6bf b25d 921c 41ce d1bf
000007b0: fe56 5541 b203 ca3f f9ae 9fbc c12b b13f
000007c0: 6280 47fe b878 ebbf 021d e3ec c36e f13f
000007d0: 890e 38f8 c13f abbf 9163 1f8f a669 d8bf
000007e0: 5345 cca9 a010 dcbf 9e8a 9d1a 338f c13f
000007f0: 2ea6 dcbd 65b1 df3f 3ff1 8b35 3e1c ebbf
-0.6426166685780481 0.10050538516076707 0.18135567037404296 0.3499645315792719 0.42229661440060645 0.09756456808976229 0.584950201281467 -0.007020168789260288
-0.11313263187691198 -0.08978769417176062 0.6558366779753764 0.8392690650664119 -1.4749109402847242 0.5326149882218759 0.56529800049019 -1.1859218569520749
-0.1584663028378735 0.291278397662195 -0.4800895902693731 0.769845659901522 0.8335791446513269 -0.9193318540315334 -0.09849077665139142 0.8254718247178736
-1.6036658157076613 -0.06898130015587335 0.9966967509098797 -0.2588453729059928 0.41350708706798794 0.43995704074508224 -0.14519535039040082 0.323798620918585
-0.24970247689763383 -0.0742700832180518 -0.7950193524431896 0.4225336897506004 0.43581267189319395 -0.03581528201135552 0.3302000285127699 -0.31783801026855535
0.2001264369538153 -0.1863032421669764 -0.5712667774664546 -0.34166218865769343 -0.4884340661413436 0.10387165165898206 0.3582753555052619 0.3825658687617932
-0.5757393336058856 -0.16717744550892222 -0.04474509427727434 0.12088537570029599 -0.2308913105397731 -0.09575638630039005 -0.5261895748680855 1.0697952066321585
-0.10702600843412675 -0.7273417837312228 -0.7500850274579283 0.5211046405069663 0.3307542900542207 -0.4249161680694837 1.01972461559806 0.4612385900551782
0.6080125750473466 0.940453858126431 -0.5536596207721712 -0.11488636837329715 0.19702842536962792 0.23361178314439535 0.001889750835724661 0.613028966908984
0.5430157771078341 0.1791182212174463 0.40786629841961347 0.27163487737884934 0.1044050802821419 -0.14742838696117447 0.5821211155503706 0.06884541001052283
-0.48297650937786907 0.21216458661281037 -0.0706708117036651 -0.4430058882772039 -0.12868478177957146 -0.29870823606520674 0.04683243088188084 0.5326185718440639
0.6131124557426444 -0.5169122738947117 0.10897469190625281 0.8220966002903313 1.0575632307906948 -0.8244005640999954 -0.22147588298750892 0.48663905905246047
-0.4399194377903749 -1.0149522574506222 0.6013011748491139 -0.16855430089293116 0.9174816767952715 0.6672716446862736 -0.6366037852702368 0.060310568680843245
0.31383974465384534 -0.5288192186762141 -0.7612155296932711 0.5370046228066447 -0.22704010409274716 0.9362249381195008 1.2402114904009631 -0.0034201276058249156
-0.16078162684959948 -0.019834352276988168 -0.07030990763462777 -0.13483959958018327 -0.1200877445057807 0.7207893471822335 0.15439348311808154 0.546316134883574
-0.16013188231255812 0.33584785540514067 -0.31848768013065293 -0.04558917153776747 -0.5531116389102498 -0.3751578319920903 0.4402009817894771 0.2650530368240654
0.4846100453899833 -0.8973727825729179 0.17589336219989432 -0.4134219106221062 0.42514642931698826 -0.3615660066895238 0.05675927890484288 0.8827054409107655
0.7439254911441426 0.666867587225586 -0.3195976525567453 0.37741435396823797 -0.45114701925066103 0.9235964703486232 -0.5211402733842111 -0.006977151945516032
0.5653525916373325 0.7124976145087882 0.5893135951236411 -0.5560123314375651 -0.13767224865441402 0.60148431897601 -0.15709636872518074 0.1399580334006024
0.3851867709408526 0.7356930249220586 -0.16342428882214732 0.06613183324080327 0.5900882535381401 0.4771922873824615 -0.0032484334147736935 0.18463851480310117
0.08604211993097705 -0.6238858520265802 -0.05274297575842791 -0.26166194718403446 0.6877874653784712 -0.3118560924630543 0.7250445946675724 -0.044012464251429226
-0.7684744179054818 0.12710210257672952 -0.3081484603504977 -0.08357596980339935 -0.19770905474239833 0.043534523523051434 0.4851383123024196 -0.21503120483879687
-0.36451206437240685 1.051218774236753 0.45083898496639374 -0.5935057551118303 -0.2774832487682317 -0.4911374649797996 -0.31776227813344676 0.30049810655732356
-0.4216662823166515 -0.11155318418328644 0.9350235361569382 -0.1623338709671507 -0.16270079333199597 0.00876124865931064 0.24887253262438172 0.45901256259036494
-0.37954766859257033 0.0419385405489273 0.4914237800858542 -0.839803323710939 -0.9789552793604642 0.31762425470383426 0.12990611575960842 0.3111807110964877
0.6382420165229967 -0.1374367585996157 -0.6081625289215778 0.12554290482249317 -0.10897101545221739 -0.4034727967637745 0.04094713683635082 -0.05632287693926043
-0.24859833196908576 -0.840910698699008 0.5221316511733952 -0.6251813048399872 -1.16535400046087 0.5206730109036013 0.7513452368676755 0.17557377949866593
0.1573999914254379 0.15729182230140057 0.3026946498898175 0.2820874601197706 0.8927816835233265 0.7242258007000262 -1.7132439734975176 -0.7669105501267814
0.23299754449988394 -0.11361723017246345 -0.02498708471217501 0.36833380912052927 0.31604478884181375 0.4214045728726759 0.18501673483220743 -0.2114401219744917
-0.6273763265301909 0.21585596818357852 -0.06607994971507275 0.27908442343028245 -0.23053237134402618 -0.04856362692275692 -0.253116093000309 -0.30902928717750106
0.20619223568059708 0.0733335486905577 -0.6538123433321318 -0.017063117894742026 -0.7075292099544074 -0.2782137660046501 0.20323780241113093 0.06707392554352144
-0.8584866491692191 1.0895423177151433 -0.05322080760018106 -0.3814484021837013 -0.4385148676093042 0.13718260573940183 0.49520247975542275 -0.8471976323922162

lstm.bias_ih_l0 f8 [36]
00000000: ab68 7502 36fc d4bf 7041 7584 0b71 b33f
00000010: 6472 96c6 6beb b03f 37f8 4e21 cd07 cbbf
00000020: 2e58 39bc 8c82 b4bf c4be 3d88 da90 bc3f
00000030: 4233 777b 296a d2bf c48a b0fc 73a8 cdbf
00000040: 2842 9662 a720 e0bf 010c b10d 1b38 e43f
00000050: d4e8 3d5d ee93 d8bf 8574 03ed 44a6 eabf
00000060: 1a23 927d 34c2 c43f b353 cdc8 09a9 e2bf
00000070: 51ec 1704 9e24 e5bf 2e84 007f dfec f8bf
00000080: 292b bfc0 54e5 f0bf 2451 d455 ceb7 89bf
00000090: 8ac1 6f11 27cd bdbf ae94 a049 2d58 c6bf
000000a0: b01f 0821 b24a dfbf 27ee f417 f661 b93f
000000b0: 0611 f100 8480 e0bf 40fb 85bb 9a1d d23f
000000c0: 9da7 6689 f4ae d2bf 4dda 2038 7642 bd3f
000000d0: 0f55 b5db c1d1 c13f e8f1 ee28 967e e5bf
000000e0: 4ef8 2002 5a7f bdbf da04 2d76 a3f5 d5bf
000000f0: 59b7 1596 d9a5 ddbf 0567 ff0e 6727 f1bf
00000100: f6a1 7d11 c2da c43f ba18 022a 60ce c7bf
00000110: e38e ad6a 9113 e8bf 30f0 61f3 6636 d8bf
-0.3278937362680476 0.07594367965544335 0.06609223936397651 -0.21117557646170024 -0.08011703105270904 0.11158529115868548 -0.28772961671056774 -0.23170327986107087
-0.5039860654379185 0.6318488376058441 -0.384028998428801 -0.8327965382737977 0.16217666751278942 -0.5831345483699039 -0.6607198791456402 -1.55783032999194
-1.0559890298051846 -0.012557613367370886 -0.11641163039872118 -0.1745659455783985 -0.4889340708327792 0.09915102085954484 -0.5156879442588724 0.28305691063717475
-0.29192841928544927 0.11429537649460393 0.13921378353067168 -0.6717024611930897 -0.11522448112461456 -0.34311758556948535 -0.4632476773903043 -1.0721197687002484
0.1629259667781892 -0.1859855847471346 -0.752388676028627 -0.3783204438002512

lstm.bias_hh_l0 f8 [36]
00000000: a575 a9d8 42f0 9b3f afaf e2fe b737 dcbf
00000010: b4c6 b4ec 2268 c4bf 35f8 4ec1 7be3 c9bf
00000020: 24c3 cae1 f9bb 82bf 4b90 f0ed 4565 d3bf
00000030: 5833 775b 49c6 dbbf b922 2c7f 9cdc e0bf
00000040: 3278 6f5a a721 833f 1101 7a27 4979 77bf
00000050: 1c8d ded3 2d86 94bf 0be9 064a fa19 d5bf
00000060: d273 b709 1d0a a7bf 64a7 9ae1 6e11 d8bf
00000070: 48ec 1794 a7c0 e0bf 2b84 0081 a1b2 fabf
00000080: 6a56 7ee1 98e1 e3bf 86a2 ae52 2a26 d6bf
00000090: 5ff0 5b6e 1e48 d3bf 2253 8226 c60b a7bf
000000a0: b11f 08d1 1b0b d9bf 74c4 028a d314 d1bf
000000b0: 1522 e255 5ada dfbf 96fd c28d a955 e43f
000000c0: a2a7 6609 159c d8bf 8236 08ee 83ef d53f
000000d0: 1455 b52b 1c05 c93f dee3 dd11 c274 d1bf
000000e0: 297c 1011 94f6 c4bf 9309 5a4c a817 c8bf
000000f0: ed22 a9a7 5b76 ba3f 0b67 fffa 40ed f2bf
00000100: f9d0 be94 fa3a db3f 239d f7a7 536c af3f
00000110: da1d 5bf5 12ad dbbf 1df8 b069 3188 e9bf
0.027283710931774192 -0.44090080157433936 -0.1594279914657385 -0.202254742993263 -0.009147598460317825 -0.30305622326182363 -0.4339774506777778 -0.5269300922237427
0.009341533133859856 -0.005730901487936772 -0.020043102318266212 -0.3297105524940355 -0.04499903434382414 -0.37606403381015796 -0.5235174076509646 -1.6686110533849028
-0.6212887195749321 -0.3460794265215913 -0.3012767865873282 -0.04501170368272357 -0.39130301869635803 -0.26689613797777345 -0.49770220171970553 0.6354568260939455
-0.38452649992052035 0.3427438568622635 0.19546844610400937 -0.272751347969061 -0.16377497513983144 -0.18822196701155444 0.10336850016859574 -1.1829232983204203
0.4254747822372021 0.06137334275609365 -0.4324386020711849 -0.797875124386113

bidirectional_linear.weight f8 [1, 18]
00000000: 0000 00a0 63c4 cc3f 0000 0060 b112 cdbf
00000010: 0000 0040 d270 cbbf 0000 0020 86d5 b3bf
00000020: 0000 0040 ecbc 95bf 0000 0000 fd22 c13f
00000030: 0000 0040 ce77 cd3f 0000 0020 dd46 943f
00000040: 0000 00e0 5aba a83f 0000 00e0 368d 913f
00000050: 0000 0080 2c34 b0bf 0000 00a0 9dab c0bf
00000060: 0000 00c0 afb5 b6bf 0000 0060 3017 cdbf
00000070: 0000 0080 9af8 c13f 0000 00a0 b101 c33f
00000080: 0000 0020 312c c6bf 0000 0060 db36 b7bf
0.2247433215379715 -0.22713296115398407 -0.21438053250312805 -0.077476866543293 -0.021228495985269547 0.13388025760650635 0.23021867871284485 0.01980157382786274
0.04829677566885948 0.017140252515673637 -0.0632961094379425 -0.13023729622364044 -0.08870981633663177 -0.22727017104625702 0.1403992772102356 0.14848919212818146
-0.17322362959384918 -0.0906808003783226

bidirectional_linear.bias f8 [1]
00000000: 0000 0080 9b91 adbf
-0.05775152146816254

linear.weight f8 [1, 9]
00000000: 8acb f83b c24e c6bf b689 0d6b ae13 da3f
00000010: 460e b499 64e8 de3f 3c2d bca2 8383 d6bf
00000020: 9f33 d1d2 d3f1 db3f ae0e 85de 72e2 d83f
00000030: be7e 0ec9 ddbf edbf 6656 95f8 def6 c4bf
00000040: 77c4 bd81 b35a c53f
-0.1742785256224944 0.40745125250227987 0.4829341412553031 -0.3517769898614522 0.43663497531525225 0.38882133226818894 -0.9296711851966035 -0.16378390443667284
0.16683048090957062

linear.bias f8 [1]
00000000: e3fb b0cf 4c14 bfbf
-0.12140350409116211
