models/LSTM_Elongation_Model.pth (torch, 367139 bytes, 6 tensors)

lstm.weight_ih_l0 f8 [400, 12]
00000000: db16 1e49 10ad 9abf b115 65fa c0cf bfbf
00000010: 29ba 0c3c a9b9 a23f 57fd f2ba a5a6 993f
00000020: e31d 1e90 64bf c3bf beae c75d d145 a3bf
00000030: 0f57 42df e998 9fbf c938 dd47 b78e 6b3f
00000040: f646 0003 b42a b13f c6e2 a7bc 547e 7bbf
00000050: 2b69 803e 30ab 7f3f 1b6b 9f85 8d64 b93f
00000060: 124d 695f 36cc 993f 3e4a 7a17 e8bc b03f
00000070: d014 44ff 257e b5bf cacd ba3e 500f 723f
00000080: 0b9d 1830 e493 b8bf 80a5 2e44 add5 673f
00000090: 209c e086 2a8b b23f 2c58 f679 e1ae b53f
000000a0: e25f e9fe d0b5 a9bf 3804 37f8 21b7 b43f
000000b0: dc1d 6e72 4935 c43f c04c 9cd2 13f4 8b3f
000000c0: d1dc 28c9 299e aebf 82bd 70c7 19ce b13f
000000d0: 4c90 551a 6695 73bf 8736 c874 3f33 adbf
000000e0: df18 c893 10b2 ad3f 1640 200a 2814 b13f
000000f0: c796 5dd2 81ea a83f baba 810a 153c bdbf
00000100: 64b8 57c4 cd09 ae3f 1df0 9386 d000 ac3f
00000110: 820d f2bd 16b1 ca3f 9d84 93ff efb2 b3bf
00000120: 7e11 a089 e0e0 b83f 5c9a 4139 73e0 babf
00000130: c80d e02b 367d aa3f c686 7909 2982 b03f
00000140: a804 c746 f473 903f 9b85 2a9d 87be b73f
00000150: 5fc9 7655 f6f2 b23f 363b c91d 70f1 7c3f
00000160: 9e86 d1bd 8cdb b5bf d5f7 1b0e 3ff2 a53f
00000170: 0b68 2ded 35d0 bebf 9b82 66c2 1c04 b53f
00000180: e3ac 9c81 ad4c c1bf b4f4 b324 b590 9bbf
00000190: 59c6 408f fde5 903f 2994 1ac2 86c9 b1bf
000001a0: 924e df9a aaba c2bf 2a34 7245 2e8b b2bf
000001b0: 055a a06f 2a2d c0bf 0757 b6a2 8d34 b2bf
000001c0: b8c3 7a7d e604 9bbf bcf8 cf4a 4451 89bf
000001d0: aac5 50d9 f39c b33f c7e4 78bf ed65 b43f
000001e0: c7bb 1cc6 bf91 953f 650b 6cea ab76 c23f
000001f0: 6229 e764 af6d 9a3f 2e63 4d28 c3a3 ae3f
00000200: 281e 669a f054 91bf 4db8 7640 6523 9dbf
00000210: d0ba 0721 8f3a a73f 250f adfc b9ab a4bf
00000220: da63 d963 d1ac b9bf f867 dcd4 c9c6 be3f
00000230: 5525 7768 b97f b13f 55f9 4a41 9306 af3f
00000240: b170 9808 d62a b2bf e2e2 f30e a8d1 82bf
00000250: b5cf 5506 c809 af3f ebe1 5ec7 7336 983f
00000260: 1c7a 7ea4 fa46 b23f d987 2e30 4f58 a43f
00000270: 47bc f196 28f3 a43f ae47 44b3 2166 acbf
00000280: 26c1 f3f7 5282 ad3f 261e 4b1c 7e43 aabf
00000290: e1bf 8536 5770 bd3f c31d 7214 b2b2 a33f
000002a0: 729c 3c97 454f 86bf cc38 a898 bae5 b03f
000002b0: bd0d 0605 fc64 59bf b5b1 6e5b b52b 92bf
000002c0: 0e9f eec8 12e6 b43f a9a0 3c34 36d1 8cbf
000002d0: 2e98 cc93 540d 9b3f a22c f2e5 60c2 b43f
000002e0: 4026 c2ff c39e 8dbf 4ef6 1d62 ce9d 36bf
000002f0: 78ca 98b7 46f6 d03f d68e f983 b4b0 aabf
00000300: 4c15 b43c 927b b23f 1617 9c60 6ca8 abbf
00000310: 8edd f610 30ac a6bf 2f43 e6b4 a8d4 b5bf
00000320: c0ce 9b30 371f a1bf 7600 8623 dc23 afbf
00000330: 093f 0c59 1656 a63f 068a c5c3 0618 97bf
00000340: 246c 9fe4 8828 b13f 8ccc 90c9 150d 99bf
00000350: 9cf4 f951 9e1b c23f 9456 29bc be70 843f
00000360: 5245 8646 545d a53f 973f 7c7f d543 98bf
00000370: ad78 390b df27 a7bf a8fc 6964 ba4a aa3f
00000380: 3914 1e9b 1a64 bc3f 0d3e be52 717a b3bf
00000390: e84b b1e5 d059 a63f 4fec 6327 13c6 a23f
000003a0: 9892 c959 7533 a6bf 40a8 258d 7025 963f
000003b0: 6555 ca0b 4dfe c63f 9e8e 31b8 2908 a23f
000003c0: 0c83 4fb6 b89c 943f 6cc8 1d86 9feb 99bf
000003d0: c0fc 34bd 5eb5 633f 03bb 2ce6 76f4 753f
000003e0: 14e5 160f 52d0 b03f d6d7 cbd7 c990 713f
000003f0: 7431 f54e 1b17 a53f 8f18 59c4 244b b43f
00000400: 30c2 9450 48a5 b23f ac3d bbfb 4596 bd3f
00000410: 7980 06e1 75b3 753f 71c7 6195 6f6b 903f
00000420: aeae 854b 5f1b b93f 6bfe ae19 0f42 c0bf
00000430: ef9e ce9f a915 82bf b27d 8e73 674e a53f
00000440: 26bf e687 b5c6 aebf 49e5 df9b 6b39 b8bf
00000450: 1a49 64a8 6f95 b1bf e2d9 21bb c45a b53f
00000460: 432c c1d3 a0d1 a23f ceae 9b8b 37db 953f
00000470: a4f6 af22 ffe9 a33f 2b59 8635 10d3 b53f
00000480: ec83 788e d17b 89bf 6947 44a4 8ded 77bf
00000490: 91e5 c739 e344 b93f ea4b 1a4f f951 6c3f
000004a0: d6b2 2bdb 9687 9d3f f086 1a4b 3708 b53f
000004b0: eed3 0964 c72a a83f bd81 51b0 267b b03f
000004c0: cf1f 056f b2f2 b3bf 2c4c 4511 3d68 913f
000004d0: 230f fd47 4d94 c33f 6138 2697 2d47 a83f
000004e0: eb89 942e 7393 b1bf 4c9f 9c03 f8b4 b6bf
000004f0: 0148 54a5 ac59 a93f d4bb fdd6 d92e b2bf
00000500: bdc3 8959 c238 90bf 413a b9cb 025f b13f
00000510: 993b ac6e ae96 8dbf 2d8f 9c11 9752 a1bf
00000520: 29d5 9622 76b6 963f 07c9 2588 b0ab aebf
00000530: 1f75 c601 7b35 af3f 575c 3e57 c834 a4bf
00000540: 1665 b281 5bd3 b03f 17b0 4ff6 910a ad3f
00000550: 4857 76c1 27c0 b9bf cef9 9bd4 780b a23f
00000560: 4fec 5939 cad6 b1bf c69f 2e02 0674 903f
00000570: 0992 2ffd 8117 aa3f d326 931e e46a b13f
00000580: e57c 814d 7921 7dbf 7a1d b61f cf27 91bf
00000590: ddef 325f de11 bd3f 008b be1a 3d1f aabf
000005a0: 45a4 549f 11e0 9cbf df13 9fe6 92b0 a53f
000005b0: 38f1 3537 8892 b7bf 49d6 8ef2 30e3 b7bf
000005c0: f1dc 2883 9904 b4bf 9098 c192 9730 893f
000005d0: bbd7 a070 3db2 b5bf 263b 9415 2d0a a6bf
000005e0: 104d df61 a68c 883f 87c6 5267 c499 5e3f
000005f0: 929c 07cb 0e76 bfbf e80c 0d5f aca4 9a3f
00000600: 4d69 cab0 00ba b43f 35f4 2766 a743 b3bf
00000610: 3e79 3ae1 8934 b13f 6847 eae9 f2d5 b03f
00000620: 2a88 37db dbd9 a9bf 4d5e e0b5 514a b0bf
00000630: b84b aaa7 2b2d 823f 06c4 a5ce fc6d b0bf
00000640: e78f c41e 38b8 833f 6ea2 098c 809c a53f
00000650: 9693 dc6a 75f6 b93f 1fe8 e07f 2b10 aabf
00000660: dc02 30ab 5675 923f 66a7 2e24 f916 a33f
00000670: f432 5105 a7d5 b23f 1a9e 7d10 f53a a83f
00000680: c3e4 d36d 230f bcbf 5734 51e8 6377 9abf
00000690: d83d 1770 752c c0bf 97ab f99a 8bd3 b9bf
000006a0: f1ae 9344 ca75 9c3f f0f6 9dc4 8e6c 91bf
000006b0: 8ea5 4604 7245 d03f d51c ed4a 7023 9bbf
000006c0: 78d2 2a5a c6a5 ab3f bf95 86a7 fb9e b5bf
000006d0: 61d7 6002 b00d a7bf de13 76d4 d8a9 81bf
000006e0: aace 1960 fbb3 b33f 0a34 1118 6582 af3f
000006f0: b335 e950 d4f4 b0bf 42c0 dd15 0dba bf3f
00000700: 2eb3 56d8 3871 9abf 8024 2abf 1a04 b9bf
00000710: edf2 b546 e681 b83f 2a9e 29b0 7f52 a93f
00000720: 3d25 f909 f335 b03f 208f 20c9 e863 a0bf
00000730: b3c1 67ac f1ed bc3f e866 599c 9a02 ba3f
00000740: c316 fd91 0354 a43f 47a8 c5e3 f4ca c2bf
00000750: f6d7 98eb 824a babf 25a8 44c6 1ff3 8b3f
00000760: 7717 00f8 ddb5 aebf cbc5 86aa c02e b83f
00000770: 768b 3023 6536 cbbf 8c26 4a1d 9656 a2bf
00000780: 4531 c4ec eba4 993f 46d5 1b47 7ba9 96bf
00000790: 4554 47e1 575b 9dbf 570c a102 638f af3f
000007a0: 2ded 6b9d 61aa b03f 7113 fe84 e460 c5bf
000007b0: 9856 322f 7271 b7bf f08c 777f 88c4 903f
000007c0: ef2d 0fbb d4d6 babf 4f96 8d9e 1044 b03f
000007d0: 02a6 e40b fd73 e0bf fc6f fb2d 3b8b 913f
000007e0: 25da c861 f257 ae3f fb6f de80 c8c9 b73f
000007f0: bcc7 7bab 37cb a63f c9d6 b7b9 2811 9f3f
-0.026050810301532983 -0.12426382172733132 0.036572731571471735 0.025049771819565105 -0.1542783454608375 -0.037642042825465336 -0.030856756450325536 0.003363950700907646
0.0670578486754286 -0.006712275508555526 0.007731617406557849 0.09919056427262911 0.025193070958562443 0.06538248608766481 -0.0839561222274654 0.004409135300807285
-0.09600664304945299 0.002909506235898973 0.0724360064783558 0.08469971873850629 -0.05021527396883109 0.08091938314375191 0.15787618720444996 0.013649134507011218
-0.059800439649217225 0.06955109709882915 -0.004781149710968501 -0.05703161526262784 0.05799915126776666 0.06671381232467896 0.048664147309677434 -0.11419803148758492
0.05866854688416437 0.05469371454998415 0.20852932238276983 -0.07694911946920731 0.09718135223380917 -0.10498733661516141 0.05173653874956191 0.06448608857456425
0.016067330188665935 0.09275100314200417 0.07401980959438025 0.00706619067621155 -0.08538131365051035 0.04286381766540585 -0.12036454239333254 0.08209399934868104
-0.13515251949988913 -0.026919203152819107 0.016502344006033762 -0.0694812988172805 -0.1463216072285048 -0.0724362296625293 -0.12637834978586696 -0.07111439917056482
-0.02638588086000812 -0.012362035306065493 0.07661365562014191 0.07968030857672935 0.021063801256953753 0.14424656816853623 0.025809040578488214 0.05984315745326395
-0.016925582336197703 -0.028455335673861538 0.04536864546013464 -0.04037266930984477 -0.10029324233745687 0.12022077032852951 0.06835516739297039 0.06059703990966862
-0.07096612653589564 -0.00918895049697838 0.06062150075277321 0.023645218890779345 0.07139555469482456 0.03973624671131377 0.04091765253621609 -0.05546670258821905
0.05763491894492949 -0.051296177820003216 0.1149954326735947 0.03847271442014801 -0.01089338653362246 0.06600538470249545 -0.0015499554757248811 -0.017744859414664044
0.0816356411511345 -0.014070914715901788 0.026418038865038955 0.08109098066249712 -0.014462977640749775 -0.00034509934095425666 0.2650315087259183 -0.05212940321942276
0.07219804746644803 -0.05401934317892036 -0.04428243834575617 -0.08527616898051059 -0.03344128101698862 -0.06082046445499227 0.04362554394731261 -0.022552591036751245
0.06702476102457006 -0.024463978221501523 0.1414678478503547 0.00998066913340815 0.04172767029661863 -0.023696266084754915 -0.04522606861131471 0.051351380117006074
0.11090246474312061 -0.07608707685562184 0.04365399173607171 0.036667440946950174 -0.04336134644544137 0.021627195944724287 0.1796356494493622 0.03521852849442307
0.020129095198970368 -0.025312893448650106 0.002405819928440772 0.005360092591941481 0.06567871921915397 0.004288471650161404 0.04119191492881927 0.07927160066273785
0.07283451049148293 0.11557423969065067 0.005298099961152152 0.016034835331488254 0.09807391732982282 -0.12701596025543735 -0.008830380620409055 0.041613800865202846
-0.06010978015853956 -0.09462616496593514 -0.06868646489263988 0.08341626709611874 0.03675558648009105 0.02134405889130058 0.03889462755612996 0.0852518206287171
-0.012443196449625625 -0.0058417828443156706 0.09870739136376573 0.0034570569340046558 0.0288375445624521 0.08215661605438718 0.04720137687846902 0.06437913708351224
-0.07792201242875695 0.016999200991744498 0.15296331420005868 0.04741804571232034 -0.06865615737164148 -0.08869886482409334 0.04951228635958672 -0.07102738856131846
-0.015841519083952472 0.06785600160331119 -0.014447558166947693 -0.03383323755249843 0.02218041025272047 -0.0599036375232505 0.06095489880247328 -0.0394651991365939
0.06572505871226428 0.056721268956465724 -0.10058830712509093 0.03524377436950808 -0.06968368435075088 0.01606759441679608 0.05096060004851572 0.06803727861838675
-0.007112001265425526 -0.01675342207957218 0.11355390381044068 -0.05101958228558168 -0.02819850478150367 0.04236277642443275 -0.09207965228956005 -0.09331041261506202
-0.07819518520487968 0.012299713293213693 -0.08475097655977397 -0.04304638756194938 0.011987018453430781 0.0018677156452152914 -0.12289516884594523 0.02601880388398295
0.08096317592791032 -0.07525106662792853 0.06720792530766048 0.06576460085696356 -0.050490255842092616 -0.06363402071326014 0.008875218443142305 -0.06417827649217153
0.009628714026412367 0.04220964154666694 0.10141691073347511 -0.05090461669938428 0.018025736044367288 0.03728464667012936 0.0735725772839933 0.0473248083715669
-0.1096059935697609 -0.025846062712208653 -0.1263567731207178 -0.10088417562080419 0.027793083606339534 -0.017015677214195557 0.25423860948156907 -0.026502375195630663
0.053999136454341234 -0.08445713844283541 -0.045026302614515464 -0.008624738677790175 0.0769650563832395 0.061541709125414526 -0.06623579955449692 0.12393266471713196
-0.025822532848610517 -0.09771887938599555 0.09573210932098748 0.049457540754527976 0.06332320207106519 -0.03201224761167354 0.11300573786844019 0.10160223309631145
0.03970347554290534 -0.1468187439125492 -0.1026994538486575 0.013647316206135749 -0.059981285594445426 0.09446338809245629 -0.2125975057434421 -0.035816851687809764
0.02504318840606003 -0.022130895819789907 -0.028668759465137823 0.06164082915395202 0.06509981244373782 -0.16701942914746895 -0.09157479908238952 0.016374714641540444
-0.10484056059720336 0.06353858824658086 -0.5141587478912586 0.017132687264947308 0.05926473086985976 0.09292271753514562 0.04451917618088383 0.030338894210180798

lstm.weight_hh_l0 f8 [400, 100]
00000000: b823 a13b 8af5 a1bf a5d6 7126 8b25 8e3f
00000010: cb8d 819e 8430 9e3f 5b42 2237 c5ed b0bf
00000020: 0c48 983d 2f9e aebf 877f 5249 62cb a13f
00000030: 7c39 3e7d 9611 86bf 4449 7a49 0724 c6bf
00000040: 8cf6 3877 6ba0 733f 0eb7 7681 d07b afbf
00000050: 7eba bfe4 c13d bcbf 5328 6c15 2faf b7bf
00000060: b085 e061 ddc4 b83f bf45 1623 c2d4 a7bf
00000070: b0a2 423e 9fd9 58bf 4592 b844 dbe1 bdbf
00000080: e3e7 e5ad 4340 c03f c45e 1177 2a95 bcbf
00000090: cff8 ac8a d143 b8bf 11e0 83d0 38d8 893f
000000a0: 60f2 0ca4 0c81 bbbf d056 0b44 e788 883f
000000b0: 5267 ec61 e8fe 953f 2aaa 1b04 9856 a83f
000000c0: 8df1 3109 762f 8abf 4466 8915 dc8a a9bf
000000d0: d452 59b1 851a bb3f 71c2 4808 7927 b1bf
000000e0: 04db 5b2d a65c 903f 696e 42a6 f7a3 68bf
000000f0: e6f4 b054 d298 85bf a286 a9dd 7e45 ac3f
00000100: 897f 5288 739e 90bf 44af 1748 958a 9cbf
00000110: e2a0 03b3 424e ac3f 7652 c0ef 7487 90bf
00000120: e68b 7001 0c4f a0bf 4cae 7124 44cf b03f
00000130: ae74 781b 8672 babf e23a c06e d9b0 c4bf
00000140: 292b 0c88 a64e 98bf 0278 c640 302f c0bf
00000150: 654f b19b 3ef2 bdbf 420d b697 c878 b1bf
00000160: 805f f254 b6d5 bc3f 32b4 6cc9 105e a4bf
00000170: 8133 b77a 3022 aa3f 3f5f a2c4 8e8f bd3f
00000180: 0d4a 0655 b51d a3bf 7bd5 6a54 5391 bbbf
00000190: a155 e86c 9524 c23f f635 0eb9 2827 9ebf
000001a0: 4893 afe1 d25f 95bf 793b 2393 bcce b8bf
000001b0: 1e1a 7894 7df0 b1bf 0e68 bfa6 9c1d ac3f
000001c0: f6d7 6b95 83d6 b3bf 08cf cd7c 2d15 c23f
000001d0: 637c 01dc 995c 9d3f 4c2d b7f7 02d9 b1bf
000001e0: 0328 bd5e 6f52 a8bf 25b1 1320 587d bdbf
000001f0: c9e9 d990 5eeb babf b733 4e34 06b6 a83f
00000200: c95d 2a2c c547 963f 572f cd02 d9f8 bdbf
00000210: c3f5 ceae e093 c3bf 5dd1 d96e b55e b93f
00000220: 900d 5312 d4f0 b03f bb39 4e5f 124c a33f
00000230: 3046 f92d 6b6f acbf 82e0 4b8b 31b8 73bf
00000240: d442 455a 7943 c4bf 7fc3 b68b 6f95 b03f
00000250: 7429 9f5d f415 b13f 163a bf0e a4aa b73f
00000260: 2cd4 bf3d 6902 b53f 81dd 5a18 84dc 99bf
00000270: c074 ef55 5944 c1bf c0d1 8270 48ad 32bf
00000280: 6774 351b 9fd7 b6bf ec8d 7f48 473d 9b3f
00000290: 1b1a 1690 5752 9a3f 086a 4cc7 9e6d 8c3f
000002a0: d8d7 3d47 9c2b a33f 4ba9 85c7 3ab0 ad3f
000002b0: facd 8f76 68d9 c43f a848 f491 d06e 93bf
000002c0: ca95 990a 48ba b73f cfd3 76bb 8c9b c43f
000002d0: 8498 76b4 f6fc ac3f 9f80 c547 68f0 733f
000002e0: e18c 9f7f 5b91 b93f 033b 1e0c 982a 8dbf
000002f0: c97c e7d9 0047 92bf f5b7 0730 6a65 a2bf
00000300: 32c0 7299 9a15 b53f 669f 0f72 ab84 9ebf
00000310: 97b1 52ab 108b 87bf 5418 2b66 f81c a53f
00000320: 6008 490a 03cb 903f e1de fce3 52e8 b93f
00000330: 9b54 8854 31b8 a6bf a704 e752 9656 b7bf
00000340: 10e5 982d ecfa 80bf 98ba dbd7 fbfd 82bf
00000350: 681d 9f17 f50e b8bf e545 3959 8348 803f
00000360: bac6 d3e6 c995 a0bf 0bc1 e865 b67e 7fbf
00000370: ee2b bd0b d868 aebf 36bd d831 7b51 72bf
00000380: 4092 9cc8 5d05 aa3f 5c88 dc0f 3a25 bc3f
00000390: 2365 e7af dcb4 a8bf 8ba6 b8bb f2af 9b3f
000003a0: 82f1 fd04 ffa8 aabf a89a b287 4d80 a3bf
000003b0: 3859 d083 c83c aebf e392 7ccd 9d58 883f
000003c0: 1fe8 80a0 ea41 57bf 4bbc 64ab 34fc 933f
000003d0: 2038 647d a704 82bf 6ac5 d3ab ea7a b9bf
000003e0: a8c9 29a5 6734 a83f 04b6 a4ad 9aa2 b8bf
000003f0: 1fbb 80ef 3f76 a2bf 9dc1 1653 273d a6bf
00000400: 91b8 cf62 1975 b03f 6d5e 87f5 12c0 963f
00000410: 824d e7cd fe71 9a3f c691 14a6 fe0c 95bf
00000420: 2879 78fa 05de a3bf 9609 f329 6d04 a33f
00000430: ab0c 70a6 e15f 993f 04e4 1381 6feb 703f
00000440: 27c5 0752 c76c a8bf a04c adea a14c a9bf
00000450: 2e60 4df7 1b83 873f 8f5a 80d9 13f3 b4bf
00000460: 5dd2 59e3 6ce1 99bf 1fbd bcfc a586 a63f
00000470: 8412 df8a 90c8 ae3f 93aa 4009 812a b73f
00000480: 7d13 a6b9 dc84 a2bf 7bbb fb1f 3818 9bbf
00000490: 7c17 c5c0 e35a b7bf 98ef 79c1 7e47 bbbf
000004a0: 8dd6 117c 4335 afbf 6f5b 4c80 4168 b63f
000004b0: 8f7d 1e93 3098 b33f f6cd b389 dd59 b13f
000004c0: f9d2 5a6c e9b7 b13f 8bbb d1a1 d224 a3bf
000004d0: 2630 ea77 2924 b3bf c5d7 3297 1066 a3bf
000004e0: 9735 3eb9 724f acbf 16a4 ce08 3ef2 ae3f
000004f0: 49fa 2f22 8739 a13f 8482 364b 2af1 b33f
00000500: 2fe9 ef84 58ef 873f b5cc ac25 3f89 b8bf
00000510: 5934 a60a 68e8 80bf 042a 0d49 3f13 aebf
00000520: 622e cb76 cf87 8e3f 24d7 1f28 1e68 b3bf
00000530: 6630 1851 5ac0 ae3f ca49 2bab f3ef b6bf
00000540: 8b2f 8c77 385b 86bf 0a8c ed5c 5b16 b2bf
00000550: af89 5630 e16b 99bf ebbf 2c37 8b5a aebf
00000560: 941c 6d10 d8a9 a83f e827 5101 2fac c13f
00000570: 9a5b 3270 3ca3 b13f b757 b5c7 37b3 9b3f
00000580: c051 9c54 b541 aa3f 502c 1df4 99f1 9d3f
00000590: 941a 79eb 16d2 b7bf 265f 0da8 428b bdbf
000005a0: 5288 caf7 5a85 bebf 688f b4f6 48d5 bb3f
000005b0: 8e86 53b6 c46c c03f c26a 85f9 8112 8c3f
000005c0: 99aa 7a6c 11f4 863f b9fd da41 aeff b3bf
000005d0: 7161 c5c5 bf81 bc3f f478 2a6b 4460 bfbf
000005e0: a060 05e7 99e7 a9bf a7f1 2a6d 4267 9abf
000005f0: 6442 dd6e 00f3 c0bf 0a32 2e25 8fe0 8fbf
00000600: 1aa6 c50d a4d5 873f 93e9 d962 f6bb ab3f
00000610: 5468 98e4 8e25 b3bf 1dbf ffdb 0ec9 a23f
00000620: 31a8 2638 550d a53f 2b64 8c6f 7b56 b4bf
00000630: 6d14 2059 dcc1 ac3f 9259 ecbd 737a c0bf
00000640: 3aed d6c7 05f9 813f eae2 fc1b bd23 b0bf
00000650: bf5c 53b4 87df b3bf 63cb d8b0 5b12 b03f
00000660: 221e 16fd f7d4 a43f 6d8f a63f 958d 98bf
00000670: d639 0399 6900 953f a876 994b 216a 9d3f
00000680: 4d8e 619f 442b b53f 88b8 ca97 48fb 97bf
00000690: cd7d ec93 097c a9bf dd90 5757 3566 bb3f
000006a0: 3f51 1ec7 795b 9abf d359 fd63 be04 a13f
000006b0: 49e2 f2ec 1543 82bf b1a2 76b2 9bb3 9a3f
000006c0: 8b92 0511 6acc 9b3f 7db6 ba3b fa70 b2bf
000006d0: 2b9e fb57 8580 b9bf d42d b768 0906 b3bf
000006e0: fbdb 78e6 8b87 b53f cf99 aca5 8a24 a8bf
000006f0: bd80 4ab2 bf64 b9bf d617 f5b6 df09 a7bf
00000700: 0581 0308 f796 aebf 8f36 4f4a eb1a a3bf
00000710: daee 96f6 ae87 c03f b6f6 02b9 d6cf 9a3f
00000720: fec3 c872 d578 c33f d390 a24e 88aa a13f
00000730: bfac 0670 a366 92bf 7769 f297 03dd c13f
00000740: f5fd 1609 5c4f af3f 893d 93e9 442a bb3f
00000750: 3041 40bc 18c7 a5bf b856 e03b 0339 a0bf
00000760: 7e27 c9c6 c81b a2bf 8a9d 4b6d c6f9 bdbf
00000770: aa80 203e 190c ad3f e8c0 d617 25ce 873f
00000780: d569 acb7 ea65 903f 1357 58f3 28ec c0bf
00000790: bdc5 80f7 6c8b 84bf 4235 25a3 d5bd ab3f
000007a0: 80ee 5440 4b15 a13f e5c7 efbe ed11 adbf
000007b0: 2468 e6c0 16a7 c23f f0f0 a60e 305d b1bf
000007c0: ad71 d522 0383 b8bf ec0a 8b27 5b94 a43f
000007d0: c8f2 0d6a 558a ae3f 95ff fe40 d142 b1bf
000007e0: d685 3557 e49b 9b3f ed9c e12e ce8e b1bf
000007f0: 0acd c070 9b3f aabf a84c e00d db8b a53f
-0.03507644632242751 0.014720046149004526 0.029481956648295154 -0.06612808795967721 -0.05980060221567393 0.034754821253272054 -0.01077573365890027 -0.17297450149323812
0.0047916601066028235 -0.061491504481962264 -0.11031734308901694 -0.09251684449205415 0.09675391807151956 -0.04654509237583281 -0.0015167288884560363 -0.11672754695661876
0.12696119299999883 -0.11165109068803775 -0.09478482852589142 0.012619441855790144 -0.10743788724080039 0.011979872478529968 0.021480208374760786 0.04753565836093217
-0.012785837321865024 -0.0498875404634416 0.10587344722564335 -0.06700855686427488 0.01597842838142595 -0.003007873239836024 -0.010545390328952253 0.05521770912015468
-0.016229443736505842 -0.02787240269201098 0.05528458056670772 -0.016141726620917805 -0.03185307996343294 0.06566263093707753 -0.10330999537150617 -0.16164701373823848
-0.02373752789848563 -0.12644007838110843 -0.11697760869111347 -0.0682492609394574 0.11263598989387269 -0.039780163372008195 0.05104209421151663 0.11547176647797829
-0.0373360315599208 -0.1076862412545178 0.14174144571067607 -0.029446255011455556 -0.020873351120729994 -0.096904550478241 -0.07007584452376434 0.054913421015683736
-0.07749197385768966 0.14127129167501828 0.02867355733212341 -0.06971758411161949 -0.04750392943840611 -0.11519385131004307 -0.1051539519921 0.04826373470778072
0.021758156605384636 -0.11707836454769215 -0.15295036826675643 0.0991013904220543 0.06617474982618021 0.037689756521206395 -0.055537556993510484 -0.0048143325154726985
-0.1583091440939116 0.06478020821556461 0.06674124990164448 0.09244752273591703 0.08206804044296295 -0.025255264269359316 -0.13489834495604747 -0.0002849866728056559
-0.08922762312200093 0.026600946235601983 0.025704734963733693 0.013880958993060424 0.037442096420747084 0.05798515019962965 0.16288476742884922 -0.01897741213640161
0.09268617876804011 0.16099700120471858 0.05661745980187141 0.004867942185541234 0.09987422815133896 -0.014241397733511635 -0.017848981189555944 -0.0359299834852748
0.0823608994130616 -0.02980296977685217 -0.011495714405406683 0.041236650916787326 0.016399428847087782 0.10120122972591218 -0.04437402874842996 -0.09116496585831389
-0.008291096822278493 -0.00927349808213522 -0.0939782316846639 0.007950807724372797 -0.0323927969237849 -0.007689201824675483 -0.059393645699479566 -0.004472237805699655
0.05082219194290305 0.10994303595774241 -0.048254868004457906 0.027038376529310553 -0.05207058845460023 -0.03808824807611205 -0.05905748948150563 0.01188777240128886
-0.0014195243147825454 0.0195167760477342 -0.008797939790863352 -0.09953180975914724 0.04727481738236189 -0.09623114337292554 -0.036058423982799896 -0.04343531502979945
0.06428679144275608 0.022217079387557726 0.02582548267112151 -0.020557383429279395 -0.038803278756164794 0.03714314591481409 0.024779821189451805 0.004130778849906317
-0.047704914821119986 -0.04941278447827213 0.011480539784017276 -0.08183406887142496 -0.025273991943736685 0.04399603567287102 0.06012393660742979 0.09049231029409048
-0.03616990820140751 -0.026459576561076652 -0.09123061615272648 -0.10655967925589349 -0.060953244109367956 0.08752831823617922 0.07654098121428475 0.06777748691438731
0.06921252150898373 -0.03739031052906857 -0.0747705381165252 -0.03788806768117995 -0.055293641197845016 0.06044191224584254 0.03364202778174225 0.07789863907101774
0.011686984593315046 -0.09584421796607752 -0.008255780053128147 -0.05874059454670902 0.01490747529296427 -0.07580746154402768 0.06006128539965587 -0.08959887436802841
-0.01091617693739246 -0.07065363901851654 -0.024825590682334638 -0.05928454445381689 0.04817080688968037 0.13806712688739187 0.06889703501870628 0.0270508494989696
0.05128256471485626 0.02924194862798074 -0.0930494618306546 -0.11540619471395228 -0.1192223410567135 0.1087232210452932 0.12831934836053843 0.013707175662309171
0.011207710383435642 -0.0781201277522915 0.11135481432336804 -0.12256267181735209 -0.05059510178642879 -0.025784528649397533 -0.132415823109585 -0.015565031358868903
0.011637956304826825 0.05416841465644775 -0.0747918422788712 0.03669020114455022 0.041117346863146394 -0.07944461320256894 0.056166540031008384 -0.12873694203944958
0.008775754128569891 -0.06304532941147625 -0.0776295485733156 0.06278012340116627 0.04068732227738915 -0.023977596292425064 0.020509386028430963 0.028725166548943776
0.08269146815433111 -0.02341950823272801 -0.04977445536337264 0.10702832586645479 -0.025739577081894224 0.03323931665970616 -0.008917018216707666 0.026075775878470157
0.027146966256071308 -0.07203639944301617 -0.09961732290286622 -0.07431086355716526 0.08409952523003021 -0.04715379021063237 -0.09919355490501665 -0.04499720676771772
-0.05974552128623326 -0.03731475145432938 0.12914073029047907 0.026183466951570998 0.15212505440425156 0.03450418434047866 -0.01796965953114404 0.13955731314929284
0.061152340039821874 0.10611372663992404 -0.042534611682756185 -0.03168497186576985 -0.03536822725852938 -0.11709251564353998 0.056732930024965114 0.011623658933644213
0.016013781986751702 -0.13220703012546461 -0.010031558325951257 0.054182697453692544 0.03336558494853836 -0.05677741008538798 0.1457241479773198 -0.06782818181722283
-0.09574908829148994 0.040194367005389114 0.05964915198908255 -0.06742580258196391 0.026961868117160247 -0.06858528751910216 -0.0512665343416306 0.042082639163845414

lstm.bias_ih_l0 f8 [400]
00000000: 41fe cdca ead2 ad3f eccb c468 357d b6bf
00000010: 982d f821 66e9 c2bf 9d51 6a39 3f4f b7bf
00000020: 6224 9b1c b984 b4bf 7340 fb86 b9bc a2bf
00000030: 7e5e 8471 47d4 bfbf b05b 180f 1413 aa3f
00000040: 5da6 2d1f 3be2 81bf c6ff a661 88d4 b33f
00000050: a117 d64e 8be0 a2bf cb83 bd07 b63f b5bf
00000060: ca3f 8cca 8019 acbf 8e75 a0a6 a99e b2bf
00000070: 11c9 e059 c9c9 72bf 40c3 f6bd c12b b7bf
00000080: f19a 8603 8525 a3bf bca2 4135 4b43 82bf
00000090: 109e 7b7a 32da 8fbf ec7e b365 584b b53f
000000a0: 5c96 6311 d946 b73f 7f1e 0f0c af20 6cbf
000000b0: 6805 7b16 5160 bb3f ae66 1d64 c2a4 96bf
000000c0: 15bb 162d a00f b6bf 317b 785b 1989 81bf
000000d0: 617e c03a a06e b7bf 22a4 e255 3531 9bbf
000000e0: e867 868d 7c4a b1bf b40d 4aed a1ff babf
000000f0: eae4 332a 5be9 ac3f 435e b16e 27eb b9bf
00000100: 7627 dd0a 474d b4bf 234f 26a8 98a0 403f
00000110: a827 a175 5eeb b73f 2e2e 1fcb 65cb ad3f
00000120: 66bf 4f86 7255 b2bf f86c 90ef 8be4 a13f
00000130: 9c81 c1d5 37b5 bb3f 0499 103e 6978 b43f
00000140: 1c57 d451 f44d adbf f427 50be 526b aabf
00000150: 61f1 3c8f 0cd4 aebf ef79 df0b 4af2 bdbf
00000160: f03c beed b9d3 acbf 6760 edc8 80f4 bcbf
00000170: 00cc 8667 6139 943f 8a8d f88a 2a6a b0bf
00000180: 9d49 310c 57ab 9e3f 66f8 a4c2 685d a2bf
00000190: 8299 d096 dda9 abbf 7d46 cf90 a2a2 723f
000001a0: 48e6 cc11 adc3 b33f 7f5f 1880 85fe 78bf
000001b0: ba13 4485 4495 8cbf fa1a 60be 1167 ba3f
000001c0: fe98 4103 2d8c 933f d553 9d49 6751 50bf
000001d0: edfb 83d8 41f2 9abf 447e 56d0 b8ba a03f
000001e0: 9fd9 afb4 e835 a33f 1b39 9c0b 61c7 b2bf
000001f0: d5a3 2d81 6b4f b7bf d4c5 6fbb f494 b9bf
00000200: ef32 9d5f 5a39 b0bf 17df 6bbd 0f15 a83f
00000210: 91cb 0c10 f90d b8bf 411b 9609 9d8f b1bf
00000220: 3470 718e 4561 aebf db0c 92e0 b4d7 8c3f
00000230: f1bc 5d2c 899f a63f 4568 d9cb bd3a b4bf
00000240: f5ee 2141 3bcf a9bf fa05 e3fa 0074 b03f
00000250: 04b8 39e4 7284 91bf a8bb 8fff aac7 bdbf
00000260: 7756 a6e8 7698 bdbf 8867 3b09 ed5c c1bf
00000270: c47d b65b 9742 b5bf 23e0 d3a7 d9c2 adbf
00000280: 4c36 fbd4 8157 bdbf 108c aa14 69d8 b63f
00000290: 69c8 c397 4d58 b33f 99b8 2e89 4e41 99bf
000002a0: bed8 d476 5472 9cbf 13cf 96bb 8467 94bf
000002b0: db38 d8bf a5b5 a2bf 9fb9 2c7c 70b5 babf
000002c0: a46e 85e0 004e 9d3f 1c27 7dc8 1890 90bf
000002d0: c9ad 4363 68ef a2bf 6054 1656 a42b a1bf
000002e0: b432 4606 1851 91bf 4671 6d0c e963 97bf
000002f0: f1d6 0a97 ee66 8fbf 00f7 08cb 835b c2bf
00000300: f1d4 99e3 951d ab3f d150 641e c0c5 afbf
00000310: 5b64 3202 7422 bbbf 69d2 59e5 0ec1 a13f
00000320: bc5e 9b17 7673 b0bf 32bf 2b01 23c4 b5bf
00000330: 8108 6ad3 d9de a2bf 19c4 ca92 016f 8cbf
00000340: f89a b3dc 1c16 a03f b78f 9aac 76db 8f3f
00000350: 7fa4 f069 e472 c1bf 1172 bf6d 68d3 b1bf
00000360: ff8a ced8 0591 c2bf 6159 16ed b7cd bcbf
00000370: b9d3 5568 d191 ae3f ccd9 bbcd 3713 c1bf
00000380: 0ae6 21d2 87e1 bdbf 411e ef6b 33e3 9cbf
00000390: c6a9 ee7b f503 423f f259 e007 3df0 c0bf
000003a0: e827 d268 91d6 993f 5171 8cdd 11fa 9d3f
000003b0: e457 c2a5 2b63 723f 472b af8c 088f b13f
000003c0: acbc 36da 40e7 b73f 2563 7586 3f23 b43f
000003d0: f686 5f8b 41f3 9a3f 8d65 a254 1805 83bf
000003e0: 1dcf 754d fe74 6d3f dcba 8cd1 d4fb b43f
000003f0: 1925 4845 6a9d abbf 10d6 01dd b968 c3bf
00000400: b155 7496 0a54 9abf c3aa e607 1cb2 bdbf
00000410: 6be9 4371 e733 9bbf a8cb 88d9 3612 c0bf
00000420: 3ba4 af47 f9ec acbf 753d 2ab9 cb7d 92bf
00000430: d65a cd39 6eda a63f 12af 7b26 6998 b4bf
00000440: 6c16 850d b35a 923f 2af6 dcc9 b131 c0bf
00000450: 41df 8f2c 8d66 aebf 628a 3ddc 19d7 a83f
00000460: d639 7ee8 820a b4bf 51ec 4940 d784 b4bf
00000470: 32f6 2552 e562 ba3f 457d e603 c38d 93bf
00000480: f948 2f7b bf36 babf 5d98 1087 6773 b7bf
00000490: 989a d654 4074 c1bf 0314 9354 247d bbbf
000004a0: 9da6 74ae d2f2 86bf a3d5 32af ca54 b13f
000004b0: 2bd3 80e3 9b0c aabf 9a44 ef70 6faa bebf
000004c0: 2fc1 3c35 325e c0bf f07b 6d13 f5cf 7a3f
000004d0: aacb 6891 b42a c5bf 7534 8bc4 6e15 abbf
000004e0: 1804 6b39 ba6e a13f efad 7db0 81d1 ba3f
000004f0: 6031 f05d aa0b b8bf f0a3 540e 5c20 bebf
00000500: 9369 417f fb62 853f 9441 b265 5b6c b43f
00000510: 1005 f789 6683 97bf ea56 82e0 44a8 bfbf
00000520: 471c 18dc 0dc1 8a3f 79b4 aad6 d8f6 ab3f
00000530: 62c7 c2c5 2524 a9bf dfd0 8fd7 9763 793f
00000540: 9bac aa27 ef23 bebf 6983 7f43 1e84 ac3f
00000550: c251 02d2 e6a0 aa3f e395 3215 79cb a63f
00000560: 4897 bc20 474d 96bf 9be7 a7fa 1262 853f
00000570: 12da 428f 8f23 b5bf 128e a574 534c bfbf
00000580: 68ec 037f 8c10 b3bf 80f2 e727 7684 a7bf
00000590: e662 57d1 b6fc b43f 6b80 07c1 34a3 b1bf
000005a0: ea28 6f92 a87c c0bf 95d8 a7d8 5fa7 b33f
000005b0: b95c 1e35 2fb7 a83f 1d9a cac6 f4c1 9dbf
000005c0: 2577 6a7f b785 b6bf 9b36 5bde 5363 aabf
000005d0: d53a ab5f c33d b63f df70 71dd a8b0 bdbf
000005e0: cac5 3b05 d2f0 a2bf e529 e583 359e b1bf
000005f0: 87e5 bc97 ae26 b5bf e7bd bb8a dfc0 b3bf
00000600: 2c33 e2ec 31c4 acbf d16c fbc5 7fea bbbf
00000610: 00d6 38bf 204b 543f d66e d578 378d a9bf
00000620: dde2 8601 4c51 bdbf 0b90 cab9 5571 a23f
00000630: 59ba 95c7 6aef b4bf e4ef b33f 0afd b2bf
00000640: d814 1b58 864d aabf 773f 6f3d 41f8 b53f
00000650: c2dd e7ff 01c9 75bf 77f5 e08c 0093 9cbf
00000660: 9d81 5931 0dec a8bf 3a15 f97e c99f b23f
00000670: f536 c592 057f c03f 4690 76a7 6ced 85bf
00000680: e48b 18e1 1f1e acbf 62ae 9b42 3c06 a8bf
00000690: 74ed f82a 001d 93bf 95ee 95ca aaff adbf
000006a0: 7184 57f0 dcbd 933f 2023 320b 6fc4 b6bf
000006b0: 09ff e2b8 5f27 b03f 6709 f958 6ddd 6fbf
000006c0: 7961 95ea a090 a1bf 0c9e 8ee0 9365 50bf
000006d0: e001 e544 3dde 92bf 0efa df51 d561 af3f
000006e0: 395d 3529 0f61 a1bf a86c 4a97 27f8 90bf
000006f0: 230e da22 4bca ad3f 3c8e 9c87 04ce b0bf
00000700: fc80 a0fc 9456 ab3f 7d3f 162e 3804 a93f
00000710: 587b 9889 bf7a 9abf 0cb6 bd2e 359d a3bf
00000720: 4c8e 7fe1 5418 a73f 4e24 7901 8913 883f
00000730: ed01 e0ed ece1 b3bf e407 448e 5d4b 923f
00000740: dad6 3478 2c9a a73f 01cb 46f4 5c48 b63f
00000750: 763f 6643 f0fc 56bf d32c 07b3 fb53 b0bf
00000760: 2733 f5ac f98d babf 88f7 d59a f95e a63f
00000770: 7633 a480 1dbe bf3f d8d0 2de9 de0e a5bf
00000780: b90a 179e 1c41 a4bf e602 5e28 08e6 a8bf
00000790: 2388 3acd 3287 78bf 8c76 2436 e893 91bf
000007a0: 52e2 a817 c02e abbf d1dd fbe4 7c47 80bf
000007b0: 9583 663f 43b5 b4bf 644f 096f f59b a23f
000007c0: 61cf 4a32 7ffb a13f 2576 6768 16ad a6bf
000007d0: 7d02 5a85 1699 96bf dd97 6d7e b354 9a3f
000007e0: 8985 b1e3 6ea8 a5bf 3b3b 3d7c 8308 5dbf
000007f0: 8d73 f589 7f67 963f f93f 8e15 18ca 9a3f
0.05824979520457108 -0.08784803207235797 -0.147747770868915 -0.09105296279660142 -0.0801501936758924 -0.03659610531542592 -0.12433287164128079 0.05092680629984814
-0.008732282532679376 0.0774617422493967 -0.0368693860755649 -0.08300340355846385 -0.054882073140219825 -0.07273350065266568 -0.004586969878845674 -0.09051142585555016
-0.037395626716991155 -0.008917415201908134 -0.015552896845703962 0.08318092806757321 0.09092480349098636 -0.003433553589704818 0.10693842696038802 -0.022112882004285232
-0.08617592907715406 -0.008562276939355936 -0.09153176721928837 -0.026554902426742306 -0.06754282431793934 -0.10546314280696018 0.056467865850160795 -0.10124441578351999
-0.07930416121703651 0.0005074258227062183 0.09343519565405123 0.05819242577089444 -0.07161632327165321 0.03494679736487599 0.10823391884469519 0.07996232762579686
-0.05723536967177109 -0.05160006116064145 -0.06021155594359829 -0.11697829046122597 -0.05630284335267699 -0.11310582070780272 0.019750139182814763 -0.06411996739239192
0.029950485343144363 -0.035868905792526815 -0.05403034654618734 0.0045496320935441955 0.07720452961520963 -0.006102105604007479 -0.01395658046431857 0.10313521287762831
0.01908941585897938 -0.0009959705989406227 -0.026314762916623314 0.03267457526385134 0.03752066808367548 -0.07335478337720185 -0.09105560210959081 -0.0999291379555623
-0.06337513765647505 0.047035686371542144 -0.09396320955128902 -0.06859761699716406 -0.059335874212337464 0.014083302596424143 0.044185911813537156 -0.079021322505839
-0.05040917558741668 0.06427007794538744 -0.017106814555909025 -0.11632794131558788 -0.11560767345357613 -0.13564837408813113 -0.0830473517330495 -0.05812721418072921
-0.11461650323618605 0.08923966173692599 0.07556614833063836 -0.024663188097911435 -0.027779884102721246 -0.019926141690759524 -0.03654211012700311 -0.10433104545220438
0.028617871955573762 -0.01617468570410728 -0.03698278629039071 -0.03353608656758733 -0.016910910971591434 -0.02284206522323131 -0.015333045944639663 -0.14341781057185443
0.052960094483674676 -0.062055591306632636 -0.1059944634784115 0.034676042076999654 -0.06426179958668404 -0.08502405909143532 -0.03685646730174686 -0.013883602421033857
0.03141870683776021 0.015555312292526808 -0.13631873295642902 -0.06963207892790303 -0.14505074583311026 -0.11251401460899536 0.05970625303863337 -0.13339898629756275
-0.11672257309137293 -0.02821045252110666 0.0005497883465655432 -0.13233149418438434 0.02523257448459751 0.029274253031972567 0.004489107606920204 0.06858876642870114
0.09337239577756645 0.07866284401587771 0.02631857312360971 -0.009287061770282512 0.0035958258483165377 0.08196764102897752 -0.05393535705304426 -0.15163348475805138
-0.02571121733952503 -0.11599898522278367 -0.02656518582168969 -0.1255558550052147 -0.056495466233009904 -0.018057997871947024 0.044635242992333055 -0.0804506033852557
0.017924115848720154 -0.126516555372221 -0.059376155557343775 0.04851609052163465 -0.07828539062595694 -0.08015199012327058 0.10307152991841731 -0.019095465767916115
-0.10239788777770177 -0.09160468146782948 -0.13636020796294157 -0.1073782640915653 -0.011205335568394143 0.067700069211091 -0.05087744857920592 -0.11978813655084011
-0.12787463759878778 0.006545979812329059 -0.16536576366487782 -0.05289789342132504 0.034047908314740194 0.10475931700573658 -0.09392800134100332 -0.11768126821392833
0.01044270021536845 0.0797783969194426 -0.022962190790853987 -0.123661331950952 0.013063534049264315 0.05461766834682975 -0.049103908911446906 0.006198495037996048
-0.11773581236291124 0.05569548200560954 0.05200883210742148 0.04452112563857804 -0.021779166577423653 0.01044096782151254 -0.08257386443697382 -0.12225839231319238
-0.07447126484832867 -0.045932476397841704 0.08198111163018104 -0.06889657700185274 -0.128804275036891 0.07677268065876526 0.04827258609219016 -0.029060196526780147
-0.08797785626162787 -0.05153905953703238 0.08687993131318746 -0.11597686201406841 -0.03699356378445946 -0.06882032842728554 -0.08262149052179356 -0.07716176163716391
-0.05618434921880175 -0.10904692252681804 0.0012386150164166443 -0.04990552282353426 -0.11452174222257434 0.03602092640838358 -0.08177821514775853 -0.07417358451124262
-0.051372717146969726 0.08581931829325905 -0.005318649111806408 -0.027904518698269123 -0.04867593028461956 0.07275065755773805 0.1288763968136021 -0.010706757412499834
-0.05491733191254136 -0.04692257226073761 -0.018665316222024456 -0.05859121058435083 0.019278957528403532 -0.08893484137855667 0.06310079826198146 -0.0038897643751464764
-0.03430655349319784 -0.0010007804978416938 -0.018425900773992754 0.06129328369569374 -0.03394362810166247 -0.016571634873440516 0.058184001926772554 -0.06564358053997749
0.05339494308305068 0.048860316873400735 -0.02585887219731417 -0.03830877490586823 0.04510751011528366 0.011756010396441276 -0.0776660996198257 0.01786562138386917
0.04609812705386469 0.08704167331488223 -0.0014030786820491115 -0.06378148194123705 -0.10372887108424021 0.04369335188947249 0.12399467840823583 -0.041129079784612166
-0.03955926351365719 -0.048630003860130874 -0.005988310283699535 -0.01716578321894828 -0.05309105194868792 -0.007948852289230953 -0.08089084909307893 0.03634612064766321
0.03512189377707276 -0.04428930305924109 -0.022068359269271632 0.025713734237250086 -0.04230066804371819 -0.0017720493351196093 0.02187918929608972 0.026161552730229663

lstm.bias_hh_l0 f8 [400]
00000000: 46fe cdca f208 a93f dfa0 d919 12e9 843f
00000010: 9c5c d207 fe12 483f a051 6af9 0cf3 b9bf
00000020: 6224 9b1c 240c b8bf c15f 82dc 77cc b43f
00000030: 23bd 08e3 4c27 acbf a848 cf95 29da 93bf
00000040: 66da f219 2445 c2bf bfff a6c1 e2ce b83f
00000050: 8ca1 a744 ac0c 803f c783 bd97 a44f b2bf
00000060: 22ff 302a 16d4 81bf c714 bf72 d3d8 ac3f
00000070: 78f3 6177 ddee b13f 9e61 fb7b 1195 c5bf
00000080: 7ab2 3c7e 24cf b53f 4d97 af12 207a a73f
00000090: f661 84ab adcb 8e3f f4fd 66cb 76e7 ac3f
000000a0: a369 9c2e c1ea b3bf 1f0e 3f23 ebbf a03f
000000b0: 97fa 8409 4a18 b0bf 74cd 3af8 1f5b 8dbf
000000c0: 1cbb 168d 7ca8 b1bf d41e de76 5f3f a5bf
000000d0: 6b7e c0da 4c05 b1bf 0fa9 78f5 ecbb bfbf
000000e0: 2f30 f364 fd54 a33f 4ff2 b532 4063 b03f
000000f0: e5e4 332a d14e ab3f 435e b1ce ac8e babf
00000100: 6f27 ddd6 8e33 b1bf a74c 506b 0e07 b03f
00000110: b579 125a 8dd1 783f d8a3 c129 d2a2 95bf
00000120: 9a40 b059 5d63 b73f d0d9 209f 9f92 933f
00000130: c8c0 e03a 77df c13f 0864 4258 4bd4 903f
00000140: 912b ea88 2fd3 bdbf f227 507e c386 a7bf
00000150: 5587 6138 37af b73f 4418 8290 d637 973f
00000160: f13c be6d bacd aebf 93fc 9438 920b 843f
00000170: fd4c 1e76 3655 b1bf bb46 7cf5 5830 c1bf
00000180: 475b e779 2caa aabf 347c 5261 71ff b0bf
00000190: 7e99 d096 7fad a3bf dde8 1912 2047 a23f
000001a0: b819 33ee 3c47 b9bf fc85 0198 1ad3 bdbf
000001b0: 7782 a860 dd33 bfbf 06ca 3f43 3c7c afbf
000001c0: c899 2fff b3b8 bfbf 9eea 4cb2 6327 a2bf
000001d0: 0902 be9b 0382 ac3f 7160 ea6b 2e69 c2bf
000001e0: 4113 a89d 5cb2 b0bf e1c6 63f4 fd3d ba3f
000001f0: d3a3 2de1 267f b4bf 5717 bfad bb55 9abf
00000200: fe32 9dcf 0702 b9bf 8310 4a31 2023 b4bf
00000210: d865 0678 9667 c1bf 7fc9 d3cc e2ee ad3f
00000220: 30b8 38ca 840f babf 2a83 2470 e864 aa3f
00000230: 3386 44f7 03bc 9bbf 67d0 b297 6982 a3bf
00000240: f2ee 21c1 1dc0 a6bf 14f4 39ea 3261 a2bf
00000250: fa36 87a8 87ad c0bf c322 8283 c9ea 883f
00000260: 0553 b36e 03dd a03f 09cf 76d8 65bd b4bf
00000270: c67d b66b e683 bdbf eb0f 163c 212b b33f
00000280: 884d 26d8 9a48 843f 0d18 5529 821b ac3f
00000290: 106f 7810 923e adbf c28e a2cd 476a 813f
000002a0: 666c 6a7b cda8 acbf ed30 69b4 997f 973f
000002b0: d838 d85f e33c a5bf 4a99 cbc2 fd68 7abf
000002c0: b048 bdb7 7d9a a7bf be49 1f0a 4842 b0bf
000002d0: 3bb7 0e2d de82 8ebf 5d54 1620 23d8 a3bf
000002e0: af51 736e 2e6f 393f 5b5c 1b0d 607d b1bf
000002f0: 826b 85cb 98ed 93bf f823 dcd3 906a a03f
00000300: b5a9 3347 bc55 973f 6328 3217 3437 babf
00000310: 8e91 c9e8 6a7e 94bf 075b 4c55 3e54 9abf
00000320: 46a1 6498 f144 b13f 3b03 51fb f3ac 9f3f
00000330: 1d82 daa4 05ea c5bf ee4e edf4 346a af3f
00000340: 79cd 59d4 c042 b43f dc47 4d56 ef01 983f
00000350: 21dc 7a30 8bab 9a3f 0672 bf0d 8540 bebf
00000360: 4db0 e88c a2af 83bf 5859 164d 0c97 b4bf
00000370: afd3 55a8 b09c ac3f e598 10c9 21f7 af3f
00000380: 0ae6 21b2 c3df bdbf 1d8f f7f5 eadd abbf
00000390: 5a75 df57 0d2b 9e3f f159 e00f 15ce c2bf
000003a0: ec13 6974 fb28 a83f b1e3 9c68 42aa bdbf
000003b0: fcd3 1e15 07b9 82bf 60a9 a116 2c71 a5bf
000003c0: abf2 da88 17f1 963f 55c6 eaac b630 a53f
000003d0: f686 5feb 13bd 983f 5099 2885 068c adbf
000003e0: f4b9 aec9 d707 9a3f a675 19e3 4a3f a83f
000003f0: f4da b75a c121 a23f 67b0 0ee8 b4ef 92bf
00000400: 6915 9d75 b0df b3bf c3aa e6a7 2d0d bdbf
00000410: 6bfa 50dc 557b b6bf 4f97 1143 f10a b0bf
00000420: 24d2 d773 8821 b7bf 59e1 6ae3 f0c2 ac3f
00000430: 8b52 1983 9793 b5bf a378 ddcb 8d49 8fbf
00000440: 9845 6157 46cf b93f 4727 8cd8 7fa2 a43f
00000450: 6210 b869 eaad b53f a075 c203 5ff9 a1bf
00000460: 2f8c 034f e20d af3f 4eec 4980 3255 b9bf
00000470: 8ab1 2ff1 d9d5 8f3f 599f f9c0 a09d babf
00000480: 06dc 42d3 b4db 933f 7561 421c 82b9 96bf
00000490: 7156 9632 2cb0 863f 0114 9354 4a3d b5bf
000004a0: 256b 310a 9363 b33f 562a cdf0 0233 b2bf
000004b0: 9269 c081 3187 b0bf 4612 bd03 1451 95bf
000004c0: 5c82 796a 7b43 bbbf 3e28 c9e8 8adc b1bf
000004d0: a3cb 6891 73eb c0bf 7534 8b44 87f1 abbf
000004e0: 1e04 6bf9 96d6 a33f d8df dad7 03fb 723f
000004f0: 6e3a 3f08 0eb9 913f f251 2ab7 d54c c1bf
00000500: 234b 5f00 bffc 97bf a8f9 3609 0031 95bf
00000510: 47c1 7d72 0918 b4bf e456 8210 20e1 b9bf
00000520: 0007 0677 df75 a43f 824b 55c9 0a8b abbf
00000530: a763 617c 7e90 b4bf f902 872a f0e1 b7bf
00000540: 9eac aa27 a2cf babf 7083 7f63 d916 aa3f
00000550: b751 0212 1856 ab3f c22b 65c2 43bd 943f
00000560: 4e97 bc20 f3b9 98bf 1103 ab68 ad0d b1bf
00000570: 10da 422f 59d7 b5bf dee3 b416 83fb ae3f
00000580: 6eec 0387 f464 b6bf 98fc f911 a72d c6bf
00000590: 1a9d a89e 3799 b2bf cb00 0f02 a7e9 abbf
000005a0: d751 dea4 d3d2 bcbf ec4e b04e 84c6 aebf
000005b0: a7d1 70d5 5d5d b1bf c965 35d9 4c38 963f
000005c0: 9d11 2ba1 e942 a63f 4e9b 2def b2a4 bcbf
000005d0: 4b8a a9e0 86ee a5bf d9e1 e28a b4fb aebf
000005e0: c7c5 3b09 568e aabf d353 ca77 e5b3 a4bf
000005f0: e434 86b0 912e a83f c97b 7785 ad34 a3bf
00000600: a619 715e 45ac b9bf 6526 09b4 715e a83f
00000610: a135 ce2f 825a 7d3f c076 ab46 659b 78bf
00000620: be48 479e 037a 5f3f 0290 caf9 b409 ab3f
00000630: 8f5a a486 407b 763f dadf 67af 17eb a9bf
00000640: 71ac 934f a002 8f3f 89c0 9062 4550 bcbf
00000650: 2504 0370 af09 a63f 7ff5 e0cc af3f 95bf
00000660: 9281 5931 6170 aebf 3b15 f9ce d164 b13f
00000670: ae21 59a7 6d69 70bf ec5b a262 4d3d af3f
00000680: bea0 3b37 371b 7b3f ce5c 37b5 ffee 96bf
00000690: 9ec4 41d5 9bbd bb3f 48f7 4a85 0b0a b0bf
000006a0: e01e ea23 b0a5 b5bf 9d64 4426 4693 67bf
000006b0: 9b0e d001 7823 77bf 8c90 8fa5 f371 a1bf
000006c0: c40b abf4 433b 7ebf 2c16 f761 c4ef 993f
000006d0: 05fc 3566 eaa2 873f f505 20ae ccd0 a0bf
000006e0: 435d 35e9 1f20 a9bf df64 2d8a 6058 b23f
000006f0: 5938 68bb 2a1e 823f c671 6378 5604 b13f
00000700: 8d03 8292 9d59 883f 7d3f 16ae 5971 a53f
00000710: a93d ccbc 2305 a0bf 0cb6 bd2e 2a5c a0bf
00000720: db38 405f 0159 b7bf 2d92 bc40 e205 903f
00000730: eb01 e09d 7e25 b7bf 03fe 6ecc 90da b4bf
00000740: a7ad 6960 ff2d 973f ecd3 e4ee 203d 96bf
00000750: 0c32 1b5a d652 a5bf d42c 0753 2267 b1bf
00000760: 3e66 ea59 835f a9bf 02ef ab55 ea99 983f
00000770: 4064 de7a 795e 8bbf 9e17 695b 255a b23f
00000780: 593d 7a38 369f c03f 9afe d0eb ad41 b63f
00000790: fcae 58ae c52b a03f 6a89 dbf1 ff65 943f
000007a0: 4764 c715 d215 443f 77f7 3e59 0445 adbf
000007b0: 0be3 cbc4 1f97 863f afa7 844f 6295 b23f
000007c0: c067 2561 c795 ba3f fb44 cc0b 686b b83f
000007d0: 9980 56a1 ae22 b1bf c7cb 367f bc43 ad3f
000007e0: 3a3d 2726 9dfc b03f e7f4 f0dd 65a3 b0bf
000007f0: 818c 0a96 5c43 9fbf ff8f 6395 5ba3 ba3f
0.04889639592783772 0.010210172094233303 0.0007346859344065262 -0.1013649090694515 -0.09393525789632087 0.08124493726279437 -0.05498733779347222 -0.019386911171587556
-0.14273501650832826 0.09690682628479318 0.007836671681574335 -0.07152775482747052 -0.008705304300860531 0.056341750867014144 0.07005104221930292 -0.16861170343214565
0.08519199449501427 0.04585361698245425 0.01503692321470938 0.05645343048990617 -0.07780082118953273 0.03271422200444029 -0.06287062389763275 -0.014333963168019472
-0.06897715038824653 -0.04149912191411223 -0.06648712483046786 -0.12396126740410217 0.03775779588031047 0.0640144466214647 0.05333570137185876 -0.10373954817020441
-0.06719296212864177 0.06260767097437513 0.006059219508783566 -0.021128925131424697 0.09135993423137947 0.01911401184789857 0.13963213324450963 0.016434838544771707
-0.11650368778843602 -0.045950040024834396 0.09251732946861797 0.02267394310958816 -0.06016333188665069 0.009787695266480411 -0.06770649322270468 -0.13428794848055312
-0.05207957256396028 -0.06639774919538938 -0.03843306270600787 0.03569889279329328 -0.09874325576229281 -0.116502439604595 -0.12188514337368327 -0.06149471589005277
-0.12391209583402152 -0.03545676757353998 0.05567942882681016 -0.14383487958253086 -0.0652215847877189 0.10250842300936426 -0.08006518361584307 -0.025717670898095814
-0.09768723314955349 -0.07866097644188312 -0.13597374783129967 0.05846318006833239 -0.10179929673242394 0.05155111664703889 -0.02708440968229393 -0.03810434319294203
-0.04443448050093747 -0.03589781865319011 -0.13029571274676482 0.012166570974174623 0.03293619848560606 -0.08101498160140976 -0.11529388551433958 0.07487685887286914
0.009904107781756336 0.05489737276597859 -0.05711800051741822 0.008503495181066415 -0.055975362124819836 0.02294769443169369 -0.04148016495683898 -0.006447783711996566
-0.046100548438191224 -0.06351137396931159 -0.014898048162503499 -0.03875837103547817 0.0003880966527962893 -0.06831932373039377 -0.01946104757494594 0.032063032018477544
0.02278799233037328 -0.10240483824068884 -0.020013494928564017 -0.025711988407318944 0.06745824785742113 0.03093320104040063 -0.17120428609361307 0.061357169054330515
0.07914357361169334 0.02344488109822139 0.026045012315730646 -0.11817199311867208 -0.009612340855788793 -0.08042981035246066 0.05588295035241885 0.062432342332884784
-0.11669562434135386 -0.054427473569175634 0.029461105812392453 -0.14691413188184257 0.047187669716130504 -0.11587920240425721 -0.009141974765819676 -0.04187906051886858
0.02240406773374796 0.0413872800903731 0.02415877460578649 -0.05770893455000936 0.025420543369984075 0.047357883665181164 0.035413782428738744 -0.018492533363016508
-0.07763197776247001 -0.11348233555933533 -0.08781944874588425 -0.06266696822566796 -0.0903554232425639 0.05617478157131712 -0.08428332281739352 -0.015277011665315426
0.10081901200580601 0.04030227201844965 0.08468499260931275 -0.03510567589658398 0.06065280165218955 -0.0989562571721063 0.01554460780422386 -0.10396771155649044
0.019392800707205303 -0.022192032790003553 0.0110782101572042 -0.08296646656806674 0.07573813437322181 -0.07109087351742835 -0.06456288736118257 -0.02081710121935234
-0.10649844502905509 -0.06977146323438974 -0.13218540763918182 -0.05457709037509854 0.03874656481412607 0.004633917820392207 0.017307490590435064 -0.1351573128091697
-0.02342508735439276 -0.02069473320238449 -0.07849177403636985 -0.10109138873152862 0.03996179893421292 -0.05379518230133497 -0.08032980476981653 -0.09329129255548797
-0.10473073452401357 0.050955575366748884 0.05339122028195525 0.020253237476292936 -0.024146841881836516 -0.06661495023128007 -0.08531720546566413 0.060512634774972915
-0.08747795387528054 -0.173268207337945 -0.07265040992262009 -0.05451700115327326 -0.11259196066959674 -0.060108313184313505 -0.06783091031031195 0.02169914317832936
0.04347925274263107 -0.11188810672102287 -0.0428354405637675 -0.060514108613862035 -0.051867188098082155 -0.040435000298351696 0.047230294035310455 -0.037511274854970696
-0.10028489642818403 0.04759555170728617 0.007166393796877031 -0.006007571801743772 0.0019211802801817747 0.052808433048340944 0.00548863606879614 -0.050621738588176604
0.015141727856152283 -0.11059983879454384 0.043042642997086746 -0.020750758056455872 -0.05945113875782505 0.06794463446666026 -0.004006794295101574 0.061014574327764
0.006617751776254175 -0.022396083293497786 0.10836194950549546 -0.06265327457637426 -0.08455944897479695 -0.0028778429133465414 -0.005649060037288624 -0.0340725078201852
-0.0073807386895081185 0.025328701476402468 0.011541205639103333 -0.032843014007095585 -0.04907321664603128 0.07166102765531289 0.008846601337634196 0.0664724391858221
0.011889678033414142 0.04188041925510697 -0.03128921203289831 -0.03195316143579072 -0.09120186400852807 0.015647444916924314 -0.09041587213869888 -0.08146004668287081
0.022636404285021474 -0.021717562275814048 -0.04164762353829951 -0.06797995116282901 -0.04955683205225768 0.024024640540104343 -0.013363789617686916 0.07168801767065111
0.12985875852289544 0.08693968779788933 0.031583955318948725 0.01992034829789572 0.0006129527860664418 -0.057167182821543365 0.011030433839083217 0.07259191933977037
0.10384794351321514 0.09538889205966321 -0.06693545760072296 0.05715741207986685 0.06635458165623201 -0.06499325436103086 -0.030530401857174375 0.10405514142217952
