models/Toy_attchrome_avgAUC_model.pt (torch, 241803 bytes, 55 tensors)

rnn_hms.0.rnn.weight_ih_l0 f4 [128, 1]
0.019815115 0.09256023 -0.087274276 0.030789657 -0.0349838 -0.0825191 0.08783276 -0.07916209
0.055839766 0.013418625 0.02626023 0.0040833442 0.023719598 -0.042599685 -0.037171684 -0.079002805
0.023247704 0.0044796565 -0.00888516 0.01936071 0.0935497 -0.096989624 -0.021869391 0.0016118226
-0.040853094 -0.059440233 -0.095298275 -0.0860239 -0.021139545 -0.02521694 -0.059962627 0.03909143
0.06554258 0.098094754 0.054562658 0.053465694 -0.014689216 -0.0910975 0.010347984 0.09401904
0.0673636 8.833071e-05 -0.03486728 -0.031884924 -0.09335145 0.08559856 0.056309726 0.08456387
-0.057434168 0.0038103054 -0.03273674 -0.0063457377 0.012659115 -0.058634467 -0.032207653 -0.027165769
-0.05557957 -0.029131407 -0.09758909 -0.09553279 0.033688627 -0.01640598 0.042698223 -0.06856886
0.059143294 0.010768731 -0.0034597374 -0.09580603 0.04874125 0.0695781 0.08880456 -0.0008049266
-0.08792468 0.017249761 -0.07623057 -0.08834246 -0.03737216 -0.018616788 0.069056116 0.047087695
-0.0131752305 -0.002624112 -0.08092933 0.08252735 -0.049143877 0.09532636 0.08426065 -0.024148602
-0.05461467 0.083175935 0.010624118 -0.06603436 0.03494608 -0.053147607 0.011206693 0.07241795
-0.03675921 -0.09379724 -0.05142382 -0.043454096 0.06498946 -0.0730879 0.042576045 -0.004919294
0.080023974 0.053065352 -0.08359658 -0.0028867912 -0.091222964 0.011005513 0.07333002 0.06382018
0.04775665 0.026390081 0.0054005533 0.01502176 -0.063213974 0.00019975414 0.097567804 0.075105816
-0.07835494 0.09416029 0.0026822325 0.0020418244 -0.024864646 0.08008503 0.04320574 -0.013696516
00000000: 4f53 a23c 3890 bd3d dbbc b2bd 973a fc3c
00000010: 2c4b 0fbd c6ff a8bd a9e1 b33d bc1f a2bd
00000020: 3db8 643d cbd9 5b3c b21f d73c 93cd 853b
00000030: 9a4f c23c 027d 2ebd 5641 18bd 39cc a1bd
00000040: f871 be3c 15ca 923b 1093 11bc 5a9a 9e3c
00000050: fc96 bf3d 7fa2 c6bd 7027 b3bc cb43 d33a
00000060: 9355 27bd 9a77 73bd be2b c3bd 4c2d b0bd
00000070: d72c adbc c293 cebc 5f9b 75bd 561e 203d
00000080: 303b 863d e7e5 c83d 187d 5f3d d8fe 5a3d
00000090: 0aab 70bc 5391 babd 978a 293c 0e8d c03d
000000a0: edf5 893d 303e b938 fed0 0ebd c499 02bd
000000b0: 0c2f bfbd 4c4e af3d 07a5 663d d32f ad3d
000000c0: 1740 6bbd 51b6 793b f616 06bd e8ef cfbb
000000d0: 2d68 4f3c b22a 70bd 2cec 03bd bf8a debc
000000e0: 67a7 63bd fda4 eebc cadc c7bd b2a6 c3bd
000000f0: 16fd 093d d565 86bc 55e4 2e3d d56d 8cbd
00000100: 3d40 723d 556f 303c c3bc 62bb f435 c4bd
00000110: e8a4 473d f77e 8e3d 2adf b53d b601 53ba
00000120: db11 b4bd 5f4f 8d3c c61e 9cbd e4ec b4bd
00000130: 8d13 19bd 3c82 98bc 4b6d 8d3d 07df 403d
00000140: ecdc 57bc 4bf9 2bbb 47be a5bd 1904 a93d
00000150: 174b 49bd 773a c33d d990 ac3d 4ad3 c5bc
00000160: a2b3 5fbd 2558 aa3d c810 2e3c 063d 87bd
00000170: 9f23 0f3d 4eb1 59bd 479c 373c dd4f 943d
00000180: d390 16bd c418 c0bd c9a1 52bd ecfc 31bd
00000190: 3219 853d 1caf 95bd 3864 2e3d 0732 a1bb
000001a0: 9ce3 a33d 0e5b 593d af34 abbd 5230 3dbb
000001b0: 1bd3 babd 7850 343c 0d2e 963d 28b4 823d
000001c0: 7a9c 433d 0330 d83c 20f7 b03b d41d 763c
000001d0: 5476 81bd 1875 5139 a1d1 c73d 14d1 993d
000001e0: 8e78 a0bd 1cd7 c03d 65c8 2f3b 21d0 053b
000001f0: f1b0 cbbc 9f03 a43d 81f8 303d 5a67 60bc

rnn_hms.0.rnn.weight_hh_l0 f4 [128, 32]
0.059272464 0.10095624 0.060771625 0.09495273 -0.01584327 -0.04717271 0.0198538 -0.09311669
-0.06241979 -0.054278765 -0.07121227 -0.044096265 -0.017136661 0.05726514 -0.02109343 -0.0069479435
0.045426633 0.033823285 -0.024322247 -0.086391546 -0.03922359 0.05301535 0.019049482 -0.019762205
-0.017060423 0.028976081 -0.06557359 -0.041935552 -0.046502247 -0.0012932431 0.08001923 -0.055976022
0.08763676 0.0016092295 -0.08083076 0.08372707 -0.07861099 0.059389036 0.09013203 0.08333618
-0.017948274 0.015210905 0.08575705 -0.095291294 0.0769268 -0.06788555 -0.06205794 0.046364542
0.05295602 0.08170502 -0.04352266 0.0725891 -0.06384718 -0.06286315 0.032209355 -0.057411812
0.06409024 -0.008364191 -0.023265494 0.060777806 0.08040779 -0.05464167 -0.06557388 0.04161194
0.09487329 -0.008227729 0.008519535 -0.093970485 -0.08422782 -0.025580829 -0.045100525 -0.059250765
0.096488 -0.07111867 0.032411337 -0.05717119 0.05031921 0.058271874 0.08867449 0.041872695
-0.032890186 -0.05668111 0.05796457 0.013319378 -0.006867352 -0.08229064 0.029309822 -0.01490912
0.042327218 0.01402779 0.015809078 -0.051913865 -0.043822657 0.077832595 -0.01674042 -0.053514253
-0.073162675 -0.024246281 0.08973309 0.03502841 0.013574504 -0.09523192 0.029577032 0.067122936
-0.01986512 0.07588613 -0.08923067 0.02222511 -0.04026149 0.09575596 -0.0013744903 -0.035749268
0.07467983 -0.0057750405 0.04421396 0.030313604 -0.09091477 -0.039691206 -0.096509114 0.077952944
-0.058898468 0.014744953 -0.08364009 -0.030052574 0.046595186 0.03475559 0.030132132 -0.020351581
-0.007117961 0.04472627 0.08144016 -0.020224318 0.031138223 0.0407011 0.086263925 0.052877277
0.057173103 -0.0018825779 0.08169512 0.052499264 0.015900893 -0.014367201 -0.041321438 -0.05126853
0.09096628 -0.05194635 0.09629064 -0.0012835419 0.00084430224 0.058838703 -0.01836878 -0.08834972
-0.0029203577 -0.01802877 0.06406741 -0.050299518 -0.06955482 0.071620725 -0.01129257 0.013311352
-0.02702107 -0.00790895 0.09286003 -0.030753043 -0.06148401 -0.019883972 -0.040005572 0.05836571
0.07795636 -0.010300185 -0.08389772 -0.0069332337 -0.019219942 0.08958503 -0.06250857 -0.030826781
0.06087537 -0.09367777 -0.040356323 0.018250113 -0.038229622 0.005577167 0.07711707 -0.0881569
-0.06874437 0.083593234 -0.000839184 0.0924216 0.032018416 -0.079380475 -0.09168211 -0.001500366
0.018859224 0.09527534 -0.0044845766 -0.06123865 0.014131822 0.08977616 -0.05824873 0.01520323
-0.0829071 0.064258836 -0.038172755 0.07237773 0.04557864 0.05734891 -0.045978144 0.03493575
0.023124529 -0.018467465 -0.090779305 -0.0767132 -0.0121958805 0.052146565 -0.098435454 0.051023137
0.050654303 0.04656328 -0.09958075 0.07557263 0.046288487 0.07269965 -0.03389823 0.063816495
0.050629318 0.008396459 0.031404313 0.046270337 0.0367907 0.022533212 0.014879519 -0.0012963978
-0.08434088 0.019314675 0.09896947 0.07550339 -0.044644672 -0.049653314 0.05801436 0.038733985
-0.033425823 -0.037892625 -0.08762073 -0.06585156 -0.08281012 -0.04733108 -0.096377626 -0.09614325
0.06559165 -0.061717503 -0.07080207 -0.017526638 0.069685146 0.0009788992 -0.0156859 0.0827246
00000000: afc7 723d 25c2 ce3d abeb 783d 9476 c23d
00000010: bfc9 81bc 2c38 41bd 70a4 a23c f7b3 bebd
00000020: e5ab 7fbd 6953 5ebd bdd7 91bd 499e 34bd
00000030: 2f62 8cbc da8e 6a3d 21cc acbc 93ab e3bb
00000040: 4711 3a3d 498a 0a3d 733f c7bc 0dee b0bd
00000050: eaa8 20bd a026 593d a90d 9c3c 59e4 a1bc
00000060: 4dc2 8bbc 3f5f ed3c 724b 86bd 9dc4 2bbd
00000070: 2479 3ebd 0a82 a9ba 1fe1 a33d 1d47 65bd
00000080: e77a b33d c8ec d23a 998a a5bd 1979 ab3d
00000090: ccfe a0bd eb41 733d 2497 b83d 29ac aa3d
000000a0: 4208 93bc 2937 793c 64a1 af3d 1528 c3bd
000000b0: cc8b 9d3d 9407 8bbd 7730 7ebd bfe8 3d3d
000000c0: 69e8 583d f654 a73d d144 32bd 98a9 943d
000000d0: 4fc2 82bd 65be 80bd f5ed 033d a628 6bbd
000000e0: be41 833d f609 09bc 4797 bebc 26f2 783d
000000f0: d7ac a43d f2cf 5fbd 994b 86bd 4871 2a3d
00000100: ed4c c23d 99cd 06bc 8595 0b3c 9973 c0bd
00000110: a37f acbd e38e d1bc 54bb 38bd eeb0 72bd
00000120: 809b c53d aaa6 91bd c0c1 043d 562c 6abd
00000130: 841b 4e3d 7dae 6e3d f99a b53d b482 2b3d
00000140: dcb7 06bd 742a 68bd 426c 6d3d 8539 5a3c
00000150: 8607 e1bb ff87 a8bd 271b f03c 6245 74bc
00000160: 4e5f 2d3d d1d4 653c 0a82 813c a2a3 54bd
00000170: 637f 33bd b266 9f3d 3523 89bc c331 5bbd
00000180: 50d6 95bd 23a0 c6bc fbc5 b73d f379 0f3d
00000190: 9967 5e3c f408 c3bd 884b f23c c077 893d
000001a0: 2dbc a2bc 306a 9b3d 92be b6bd 6f11 b63c
000001b0: 3be9 24bd b31b c43d 3e28 b4ba d36d 12bd
000001c0: bdf1 983d 8d3c bdbb b319 353d 3c54 f83c
000001d0: 8631 babd 3f93 22bd 92a6 c5bd cba5 9f3d
000001e0: 853f 71bd d194 713c 7f4b abbd d130 f6bc
000001f0: 98da 3e3d e15b 0e3d a9d7 f63c 5cb8 a6bc
00000200: c93d e9bb e532 373d 19ca a63d 78ad a5bc
00000210: 9615 ff3c 32b6 263d 24ab b03d d895 583d
00000220: 582e 6a3d d5c0 f6ba c54f a73d 7809 573d
00000230: 9742 823c 6964 6bbc ab40 29bd f3fe 51bd
00000240: 874c ba3d b2c5 54bd 0734 c53d 853c a8ba
00000250: 2a54 5d3a da00 713d 207a 96bc b3f0 b4bd
00000260: 7963 3fbb 12b1 93bc c635 833d de06 4ebd
00000270: c272 8ebd e3ad 923d 7904 39bc db17 5a3c
00000280: 4a5b ddbc 8a94 01bc 662d be3d ceed fbbc
00000290: a8d6 7bbd b6e3 a2bc e2dc 23bd e210 6f3d
000002a0: 96a7 9f3d 1bc2 28bc 91d2 abbd 2e30 e3bb
000002b0: 2473 9dbc 5b78 b73d 7e04 80bd 7288 fcbc
000002c0: 7458 793d 21da bfbd ac4c 25bd 4381 953c
000002d0: aa96 1cbd abc0 b63b 8eef 9d3d 9b8b b4bd
000002e0: d9c9 8cbd ee32 ab3d affc 5bba 8947 bd3d
000002f0: be25 033d 3b92 a2bd d5c3 bbbd eea7 c4ba
00000300: a97e 9a3c b81f c33d 5bf3 92bb 61d5 7abd
00000310: 2889 673c 90dc b73d 3896 6ebd f816 793c
00000320: 33cb a9bd 239a 833d 095b 1cbd c63a 943d
00000330: abb0 3a3d b1e6 6a3d 9453 3cbd ca18 0f3d
00000340: a76f bd3c 1549 97bc 80ea b9bd cf1b 9dbd
00000350: 3bd1 47bc a397 553d 8798 c9bd a3fd 503d
00000360: e37a 4f3d 23b9 3e3d fef0 cbbd d3c5 9a3d
00000370: ff98 3d3d 8ee3 943d dfd8 0abd 39b2 823d
00000380: b060 4f3d 4d91 093c cfa1 003d f785 3d3d
00000390: d8b1 163d 9297 b83c 3ac9 733c e4eb a9ba
000003a0: e9ba acbd cf39 9e3c 81b0 ca3d 85a1 9a3d
000003b0: 55dd 36bd 4661 4bbd 77a0 6d3d 87a7 1e3d
000003c0: 84e9 08bd 4c35 1bbd 7f72 b3bd 2fdd 86bd
000003d0: 5a98 a9bd 3cde 41bd a261 c5bd c1e6 c4bd
000003e0: ea54 863d 7ecb 7cbd ad00 91bd 0694 8fbc
000003f0: 16b7 8e3d 684e 803a b77f 80bc 846b a93d

rnn_hms.0.rnn.bias_ih_l0 f4 [128]
-0.06156417 0.025060872 -0.08054474 -0.03375384 0.09107631 0.08685864 -6.461199e-05 -0.10010189
0.04849979 0.011489072 -0.10198726 -0.048180092 -0.020066375 0.08116669 -0.08239981 0.04643226
-0.0046264287 0.09726469 -0.087624 -0.09952719 0.014430668 -0.083453245 0.045811553 0.0038910955
-0.0595324 -0.02956509 0.06832342 0.09077574 -0.04386334 0.07867306 -0.023506213 0.021288367
-0.08144683 0.052696876 -0.006411286 -0.082336545 0.040959053 -0.024737328 -0.025145518 -0.031194638
0.044298526 -0.09058519 0.05298316 -0.042511012 0.0837311 0.054039747 0.06904855 -0.07084024
-0.085597694 -0.00554879 0.004370168 0.021568958 0.069085754 -0.082174465 -0.011991141 -0.052378263
-0.02920869 0.06284016 -0.080860116 0.056996644 0.10130473 0.047076285 -0.06704027 0.04490977
0.007070764 -0.08815019 -0.06156662 0.04135735 -0.05253258 -0.08540032 0.08355895 -0.052699327
-0.030801523 -0.09817661 -0.09338513 -0.047767688 -0.027357804 -0.028327977 -0.06069659 0.045038197
0.05309882 -0.030138804 -0.024099488 -0.052098293 -0.057374578 -0.055667788 0.081703626 -0.0012508885
-0.022693012 0.034733836 0.052409817 -0.02686393 0.08594014 0.04156034 0.082405955 0.09626302
-0.024666803 0.08797903 0.073984265 0.0718104 -0.02538756 0.098840624 -0.011386462 -0.05195183
-0.060694456 0.066908784 -0.026569635 0.00045087497 0.04264139 0.09677031 0.06398717 -0.006688233
0.0037515773 -0.011613604 0.04925767 -0.087648146 0.014798228 -0.09834572 -0.040321216 0.04938867
-0.0831115 -0.06611739 -0.075013466 -0.07993664 -0.072799474 -0.035833716 -0.07032431 -0.081788756
00000000: b62a 7cbd 754c cd3c a4f4 a4bd 7741 0abd
00000010: 3786 ba3d f1e2 b13d 4c80 87b8 3802 cdbd
00000020: b7a7 463d a93c 3c3c b2de d0bd 7d58 45bd
00000030: 3d62 a4bc b93a a63d 3bc1 a8bd c12f 3e3d
00000040: 4c99 97bb b632 c73d 3674 b3bd e9d4 cbbd
00000050: 9c6e 6c3c 89e9 aabd e5a4 3b3d c001 7f3b
00000060: 3fd8 73bd 7d32 f2bc 26ed 8b3d a2e8 b93d
00000070: 0caa 33bd 571f a13d 1a90 c0bc f164 ae3c
00000080: 98cd a6bd aed8 573d c415 d2bb 10a0 a8bd
00000090: aec4 273d f0a5 cabc f9fd cdbc e68b ffbc
000000a0: 5f72 353d ba84 b9bd df04 593d 0720 2ebd
000000b0: 367b ab3d c858 5d3d 5469 8d3d b014 91bd
000000c0: d84d afbd a0d2 b5bb a033 8f3b 62b1 b03c
000000d0: d57c 8d3d 164b a8bd 7e76 44bc 978a 56bd
000000e0: 1047 efbc 58b2 803d fd99 a5bd 5075 693d
000000f0: db78 cf3d 10d3 403d 694c 89bd 4ff3 373d
00000100: deb1 e73b 1688 b4bd 482d 7cbd 5366 293d
00000110: 672c 57bd 5de6 aebd f420 ab3d 40db 57bd
00000120: 7a53 fcbc d210 c9bd b440 bfbd 0da8 43bd
00000130: 791d e0bc 1310 e8bc fd9c 78bd f979 383d
00000140: 267e 593d a7e5 f6bc 4a6c c5bc 0565 55bd
00000150: 9b01 6bbd e803 64bd 3b54 a73d daf4 a3ba
00000160: b2e6 b9bc 1145 0e3d adab 563d bf11 dcbc
00000170: 6201 b03d 2d3b 2a3d 74c4 a83d 8c25 c53d
00000180: 0912 cabc 5a2e b43d 1085 973d 5511 933d
00000190: 92f9 cfbc f46c ca3d 488e 3abc 71cb 54bd
000001a0: c09a 78bd 7907 893d 90a8 d9bc 6a63 ec39
000001b0: bda8 2e3d 832f c63d b50b 833d f728 dbbb
000001c0: 06dd 753b fc46 3ebc 69c2 493d df80 b3bd
000001d0: 4474 723c 7b69 c9bd dc27 25bd c64b 4a3d
000001e0: 5d36 aabd 8e68 87bd a9a0 99bd d2b5 a3bd
000001f0: e417 95bd 60c6 12bd 3106 90bd dd80 a7bd

rnn_hms.0.rnn.bias_hh_l0 f4 [128]
0.07509708 0.07697713 0.001184236 0.02962851 -0.012924314 -0.02411315 -0.059595216 0.030067744
0.05844089 -0.04369339 -0.030764854 -0.023253765 0.06429221 0.001598119 -0.0032304323 -0.07792127
0.07679434 -0.03295429 -0.023813156 -0.049483508 0.0054214005 0.014170785 -0.04818372 -0.025814883
-0.03457787 0.026189944 -0.040602453 0.06337736 0.054565135 -0.051863395 0.03808188 -0.05893046
-0.06399291 -0.055797227 0.09636494 -0.05034023 0.078088604 -0.06364937 0.009941162 -0.05374353
0.07371368 -0.030801507 0.08077041 0.039041243 -0.094289415 0.04694516 -0.078925855 0.024370505
-0.042451948 0.07061614 0.09620795 0.08927983 0.027337806 0.07630768 0.051116258 0.02579927
-0.09642023 0.051111486 -0.018815706 0.04850931 0.082295045 -0.037811495 0.012886831 0.01278525
0.057265256 0.0025764666 -0.077413075 0.06859187 0.012450168 -0.012727162 0.08237084 -0.09003195
-0.08182255 0.040925592 0.07337882 -0.00072455336 0.034723375 -0.007866883 0.04108342 -0.036440663
-0.050955582 0.08216226 0.027705818 0.04730279 0.065194726 0.0708973 -0.088799685 0.03938917
-0.055884205 0.034987416 -0.012742474 0.012135349 -0.011983725 0.033681225 -0.016282171 0.04142742
0.07855793 0.016132109 -0.09807132 0.04078412 -0.004557584 -0.030001834 0.09379635 -0.06661877
0.0054526054 -0.090812035 0.05392715 0.010028781 0.06268225 0.040174894 0.029844368 -0.060215957
-0.057205398 -0.09536497 -0.04982482 -0.044354584 -0.051596083 -0.023360528 -0.08637843 0.060271166
0.101446725 -0.038652193 -0.08886702 0.027592063 -0.058068454 0.060432386 -0.0302321 0.0679799
00000000: 7fcc 993d 2fa6 9d3d 5e38 9b3a 7db7 f23c
00000010: 80c0 53bc f188 c5bc 1d1a 74bd a150 f63c
00000020: b75f 6f3d d7f7 32bd 9306 fcbc ae7e bebc
00000030: a2ab 833d fa77 d13a a9b5 53bb 3095 9fbd
00000040: 5a46 9d3d 14fb 06bd cf13 c3bc 38af 4abd
00000050: 01a6 b13b 952c 683c 4b5c 45bd bc79 d3bc
00000060: 86a1 0dbd 4b8c d63c c24e 26bd fdcb 813d
00000070: b17f 5f3d b66e 54bd bffb 1b3d 1161 71bd
00000080: b70e 83bd a28b 64bd fb5a c53d 8f31 4ebd
00000090: ebec 9f3d 9a5a 82bd 41e0 223c 2d22 5cbd
000000a0: 33f7 963d 7153 fcbc f56a a53d b6e9 1f3d
000000b0: cf1a c1bd 9149 403d e1a3 a1bd a7a4 c73c
000000c0: 18e2 2dbd 329f 903d ac08 c53d 58d8 b63d
000000d0: 89f3 df3c 3347 9c3d 485f 513d fe58 d33c
000000e0: f877 c5bd 475a 513d 6523 9abc b3b1 463d
000000f0: 4e8a a83d 3ae0 1abd 4923 533c 3a79 513c
00000100: f98e 6a3d f0d9 283b bf8a 9ebd e579 8c3d
00000110: cafb 4b3c 9685 50bc 0bb2 a83d ac62 b8bd
00000120: 9592 a7bd 98a1 273d a347 963d f4ef 3dba
00000130: 193a 0e3d 19e4 00bc 1747 283d ce42 15bd
00000140: cdb6 50bd b044 a83d 50f7 e23c 92c0 413d
00000150: d084 853d 9b32 913d 9cdc b5bd 8a56 213d
00000160: d6e6 64bd f74e 0f3d cfc5 50bc 58d3 463c
00000170: 6357 44bc 53f5 093d 3062 85bc ccaf 293d
00000180: fbe2 a03d 7c27 843c 9ed9 c8bd 400d 273d
00000190: c957 95bb 68c6 f5bc 4d18 c03d 6c6f 88bd
000001a0: c5ab b23b a9fb b9bd b7e2 5c3d c24f 243c
000001b0: 8d5f 803d 6e8e 243d 2d7c f43c 02a5 76bd
000001c0: 3550 6abd b64e c3bd 1c15 4cbd 27ad 35bd
000001d0: 6a56 53bd 945e bfbc 2de7 b0bd e6de 763d
000001e0: 4dc3 cf3d c351 1ebd eaff b5bd c008 e23c
000001f0: 30d9 6dbd f387 773d 4fa9 f7bc 0c39 8b3d

rnn_hms.0.rnn.weight_ih_l0_reverse f4 [128, 1]
0.0486741 0.09719305 0.0046528983 -0.054055814 -0.088336825 -0.016429674 -0.032829285 0.015656196
0.037406683 -0.05631855 -0.015291826 -0.009740519 0.069377184 -0.07637015 0.05260832 -0.06605106
0.089083314 0.09077915 0.018709294 -0.04461737 -0.088774525 0.09609358 0.08856242 -0.072484255
0.07654886 -0.0010927175 -0.010521011 -0.03682157 0.010367137 0.06105341 0.012004751 -0.039891474
0.030899948 0.035665385 -0.0947974 0.077543296 -0.0031124465 -0.06551849 -0.024431655 -0.029661885
-0.00026339397 -0.076977275 -0.02740611 -0.044564996 -0.08749658 0.018387323 0.034318764 0.0499519
-0.034454554 0.06665308 0.0847395 0.08077085 0.07300312 -0.011836548 0.034202665 0.07753034
-0.022320459 -0.0005918627 -0.026172206 -0.023537043 0.025463518 0.052836042 0.065517925 0.05554513
0.086225204 0.014149917 0.039256692 0.0004872455 0.039672974 -0.06861117 -0.013329611 0.019040909
-0.095493674 -0.066550754 -0.015448742 0.057038873 -0.03204556 -0.082053274 -0.09194164 -0.067118235
-0.07705478 0.022531651 0.09289855 0.05884863 -0.07461772 -0.009336101 -0.070116796 -0.015530681
-0.04101528 -0.07676484 -0.024828488 0.07272897 -0.0804816 0.0067000077 0.0697833 0.063616306
0.008591662 0.033501018 -0.06686334 -0.0034968297 -0.015519934 0.0021258222 -0.05523238 0.07495775
-0.02962023 -0.10072523 0.0931178 0.09354051 0.078716874 0.09692222 -0.017163288 0.013484018
0.0026783536 0.08555341 0.04686724 0.049756438 0.047817636 -0.06380966 -0.020862363 -0.003629408
0.0039701825 0.008939731 0.06903512 -0.048733745 -0.09534185 -0.0019826589 0.07711904 -0.029328572
00000000: 7e5e 473d 260d c73d 5777 983b a169 5dbd
00000010: f0e9 b4bd 8697 86bc 0078 06bd 6c41 803c
00000020: c037 193d 48ae 66bd 918a 7abc b396 1fbc
00000030: a015 8e3d f467 9cbd d27b 573d c745 87bd
00000040: 5071 b63d 6bea b93d 3c44 993c b4c0 36bd
00000050: 6bcf b5bd b6cc c43d 3760 b53d a072 94bd
00000060: a6c5 9c3d 8439 8fba 5260 2cbc 37d2 16bd
00000070: edda 293c 2413 7a3d 93af 443c 3e65 23bd
00000080: e321 fd3c de15 123d 2425 c2bd 05cf 9e3d
00000090: 30fa 4bbb 8f2e 86bd e524 c8bc 7bfd f2bc
000000a0: 2418 8ab9 43a6 9dbd c782 e0bc c989 36bd
000000b0: 6831 b3bd 03a1 963c d591 0c3d 5d9a 4c3d
000000c0: 3820 0dbd 6981 883d e78b ad3d 306b a53d
000000d0: a982 953d 15ee 41bc 1818 0c3d 3ac8 9e3d
000000e0: 65d9 b6bc 3c27 1bba 1867 d6bc c2d0 c0bc
000000f0: de98 d03c 9b6a 583d 432e 863d 4a83 633d
00000100: d796 b03d 0ed5 673c a0cb 203d fc74 ff39
00000110: 2180 223d 0384 8cbd 7164 5abc aefb 9b3c
00000120: 3092 c3bd c34b 88bd b81c 7dbc 98a1 693d
00000130: 3542 03bd 8c0b a8bd e64b bcbd 4975 89bd
00000140: e6ce 9dbd 4c94 b83c 9841 be3d 430b 713d
00000150: 2dd1 98bd 72f6 18bc 6599 8fbd 6674 7ebc
00000160: a3ff 27bd e236 9dbd 1d65 cbbc edf2 943d
00000170: 89d3 a4bd bd8b db3b 8cea 8e3d 4449 823d
00000180: 0bc4 0c3c 5d38 093d a6ef 88bd 112b 65bb
00000190: 5247 7ebc 6151 0b3b 593b 62bd 7383 993d
000001a0: 20a6 f2bc 0849 cebd 8cb4 be3d 2b92 bf3d
000001b0: 5036 a13d 287f c63d 069a 8cbc 12ec 5c3c
000001c0: 5187 2f3b a036 af3d ddf7 3f3d 68cd 4b3d
000001d0: 6ddc 433d a4ae 82bd 8ce7 aabc 5ddb 6dbb
000001e0: 4e18 823b f377 123c 4962 8d3d 099d 47bd
000001f0: 9642 c3bd 7fef 01bb 96f0 9d3d 7942 f0bc

rnn_hms.0.rnn.weight_hh_l0_reverse f4 [128, 32]
-0.007359128 -0.023974966 -0.052193336 0.041960694 0.024502238 0.007909434 -0.05272028 -0.054671507
-0.040604215 0.06794579 0.026938558 0.098764315 -0.015772194 0.030857986 -0.02667981 -0.018684579
0.045349535 -0.086414404 -0.009180914 0.04422955 0.09105332 -0.010032897 -0.091925815 -0.008152657
-0.05545792 0.017919436 -0.06550211 -0.05316447 0.012799076 -0.06530299 0.08764016 -0.021834224
0.08597844 -0.054478798 0.07618943 -0.085274994 0.062294386 0.013427009 -0.06140265 0.033775844
-0.098514006 -0.003905728 0.053314988 0.034938786 -0.007730422 0.035275433 -0.0230392 -0.06600596
-0.07403696 0.04523871 -0.021158902 0.05115624 -0.09492207 -0.04866765 -0.0361997 0.056341562
-0.070485264 -0.08834603 -0.0019214523 -0.071949005 0.07920832 0.01592816 -0.08258478 0.044649515
-0.008556926 -0.032069996 -0.00015071624 -0.053520624 -0.0416929 -0.01845779 0.028069777 0.04132728
-0.041282315 0.08553101 -0.033676103 -0.064991966 -0.014190748 0.018876802 -0.034766793 -0.05501564
0.054473884 0.018136397 -0.06423433 -0.02374249 -0.078257054 0.033119984 -0.074315764 -0.09476733
-0.07867377 -0.07856361 0.049851507 0.009371982 0.08028372 0.099436164 -0.08122094 0.07918783
0.008671065 0.06517866 0.0907289 0.051644843 0.030978164 -0.069199435 0.09394117 0.05060562
0.089988776 -0.07569277 0.044913564 -0.10161982 -0.06430239 -0.03911505 0.05279109 -0.062206503
-0.05235696 -0.042450704 0.05673729 -0.05996806 -0.046677466 0.037335232 -0.041923903 -0.07334777
0.028334238 0.058414485 -0.06574804 0.050902873 0.09802259 -0.019675488 -0.046401225 -0.03969804
-0.097885795 -0.061026245 -0.05311097 0.056812532 0.06555269 0.061391395 0.06720595 0.068044156
-0.051986575 0.032158334 -0.0594306 0.0002086851 -0.027173676 0.058100235 0.09231301 -0.027782857
-0.04044231 -0.08427756 0.00021889343 -0.0040873573 -0.054494068 0.095278904 -0.084258415 0.02841556
0.0628422 0.073511966 0.07106855 -0.047734104 0.06649475 0.07673241 -0.016679721 -0.056449916
0.05588865 0.06951297 0.082601264 0.026343739 0.024609134 -0.08440365 0.07750098 -0.020806547
-0.023438992 -0.08860069 0.07668673 -0.040141284 -0.0039626006 -0.030488016 -0.055998746 -0.034611855
-0.082173765 -0.037584104 -0.08934102 -0.055104755 0.08878876 -0.08527682 -0.043700546 0.062032342
-0.0008446765 0.028734542 -0.09431226 0.0066074715 0.071286365 0.090189286 -0.054518033 0.095469415
0.013999992 -0.06135044 0.04917557 0.06185452 0.019954564 -0.051470798 0.09151721 -0.031653162
0.097828664 0.090909086 0.050026476 0.082325496 -0.0022707824 -0.07840726 4.777462e-05 -0.009774047
0.0677841 0.046740636 0.10108665 0.04518681 -0.09197449 0.00056510046 0.08392119 0.036556773
0.05800904 -0.09234689 -0.09302148 0.046502717 0.090817645 -0.040680848 0.038191676 -0.06322284
0.03138187 -0.044959888 -0.04269205 -0.048676234 0.09168226 0.019093698 -0.07019741 -0.07980424
-0.07717069 0.095755994 -0.01722273 0.01025027 -0.04671551 0.0549233 0.037906896 -0.06488007
-0.018995853 -0.09091457 0.0981205 -0.08559827 -0.100803755 -0.068252735 -0.08320774 0.07150494
0.03785276 -0.032746993 -0.094466396 -0.07130577 -0.08539144 -0.02953055 -0.073446825 0.06876824
00000000: d724 f1bb 2667 c4bc aec8 55bd fade 2b3d
00000010: ebb8 c83c 9296 013c 38f1 57bd 3bef 5fbd
00000020: 9b50 26bd 2a27 8b3d 40ae dc3c f244 ca3d
00000030: b034 81bc e3c9 fc3c 9e8f dabc 6710 99bc
00000040: 6fc0 393d 09fa b0bd 8b6b 16bc 0b2a 353d
00000050: 2a7a ba3d 0561 24bc 9a43 bcbd b992 05bc
00000060: d827 63bd c8cb 923c f825 86bd fdc2 59bd
00000070: 37b3 513c 93bd 85bd af7c b33d b0dd b2bc
00000080: 7715 b03d 2925 5fbd 3409 9c3d a8a4 aebd
00000090: 6628 7f3d f5fc 5b3c 5881 7bbd 8a58 0a3d
000000a0: b6c1 c9bd 3ef7 7fbb d160 5a3d f91b 0f3d
000000b0: 7b4f fdbb f97c 103d b4bc bcbc 222e 87bd
000000c0: b1a0 97bd 3a4c 393d 6f55 adbc 3589 513d
000000d0: 8166 c2bd bb57 47bd 2346 14bd 69c6 663d
000000e0: 945a 90bd c3ee b4bd 3ed9 fbba 005a 93bd
000000f0: f937 a23d c67b 823c 3622 a9bd 69e2 363d
00000100: 5932 0cbc d45b 03bd 9509 1eb9 7138 5bbd
00000110: 2dc6 2abd cb34 97bc 97f2 e53c cb46 293d
00000120: a517 29bd e22a af3d f4ef 09bd 821a 85bd
00000130: 5080 68bc 86a3 9a3c a067 0ebd 1458 61bd
00000140: 0220 5f3d c892 943c 4a8d 83bd 9c7f c2bc
00000150: 3c45 a0bd d2a8 073d dd32 98bd 6015 c2bd
00000160: b71f a1bd f5e5 a0bd 1831 4c3d f18c 193c
00000170: ca6b a43d 30a5 cb3d 2a57 a6bd 3b2d a23d
00000180: 1511 0e3c 647c 853d 13d0 b93d 8b89 533d
00000190: ebc5 fd3c 6fb8 8dbd 3a64 c03d d747 4f3d
000001a0: 094c b83d d004 9bbd 49f7 373d 0d1e d0bd
000001b0: f9b0 83bd 1a37 20bd 783b 583d 3fcc 7ebd
000001c0: 4074 56bd cae0 2dbd 5c65 683d 12a1 75bd
000001d0: df30 3fbd d4ec 183d 66b8 2bbd 5b37 96bd
000001e0: 341d e83c 0744 6f3d e9a6 86bd 887f 503d
000001f0: 11c0 c83d 7d2e a1bc 360f 3ebd 699a 22bd
00000200: 5978 c8bd a8f6 79bd e38a 59bd 42b4 683d
00000210: 7d40 863d 8b75 7b3d 46a3 893d bc5a 8b3d
00000220: e0ef 54bd 75b8 033d 806d 73bd 7bd2 5a39
00000230: 549b debc 83fa 6d3d 9a0e bd3d e098 e3bc
00000240: d6a6 25bd b799 acbd c286 6539 3def 85bb
00000250: 2c35 5fbd 9621 c33d ad8f acbd c0c7 e83c
00000260: 69b3 803d 718d 963d 638c 913d d684 43bd
00000270: 662e 883d e225 9d3d e9a3 88bc 0738 67bd
00000280: 7feb 643d d15c 8e3d da2a a93d d3ce d73c
00000290: 1899 c93c d2db acbd d5b8 9e3d 7e72 aabc
000002a0: 2103 c0bc 4774 b5bd ef0d 9d3d 306b 24bd
000002b0: b4d8 81bb 01c2 f9bc f15e 65bd 29c5 0dbd
000002c0: b84a a8bd caf1 19bd 6df8 b6bd 86b5 61bd
000002d0: e2d6 b53d 9da5 aebd 58ff 32bd a015 7e3d
000002e0: 486d 5dba b464 eb3c c926 c1bd 7d83 d83b
000002f0: 96fe 913d 29b5 b83d 4d4e 5fbd 7885 c33d
00000300: 3960 653c 994a 7bbd 536c 493d 2a5b 7d3d
00000310: c177 a33c 0bd3 52bd 606d bb3d bfa6 01bd
00000320: 655a c83d 8b2e ba3d 90e8 4c3d 459a a83d
00000330: 68d1 14bb fc93 a0bd 9c61 4838 5323 20bc
00000340: 64d2 8a3d 1c73 3f3d 8406 cf3d ce15 393d
00000350: 1f5d bcbd 4023 143a dfde ab3d 8ebc 153d
00000360: e39a 6d3d 5e20 bdbd 0c82 bebd a279 3e3d
00000370: 9afe b93d f6a0 26bd e06e 1c3d fa7a 81bd
00000380: 478a 003d dc27 38bd dcdd 2ebd bb60 47bd
00000390: e9c3 bb3d 636a 9c3c a9c3 8fbd 6870 a3bd
000003a0: ab0b 9ebd b81b c43d af16 8dbc c0f0 273c
000003b0: c358 3fbd 41f7 603d 4344 1b3d d8df 84bd
000003c0: 319d 9bbc 6b31 babd 67f3 c83d 254e afbd
000003d0: 3372 cebd 17c8 8bbd d268 aabd 2f71 923d
000003e0: 7f0b 1b3d b621 06bd 9977 c1bd c208 92bd
000003f0: b5e1 aebd 0dea f1bc 4a6b 96bd 5dd6 8c3d

rnn_hms.0.rnn.bias_ih_l0_reverse f4 [128]
-0.039632346 0.025620706 -0.06807639 -0.08737592 -0.016019784 0.0463849 0.023005245 -0.0095896665
0.06189083 -0.08850075 -0.07760583 0.07580657 -0.027923232 -0.0053909793 -0.026174169 0.1021593
0.08415132 0.06914184 -0.00070082163 0.039900992 0.03861689 -0.08550882 0.0931762 0.04469126
-0.084884904 -0.052337494 0.07700405 0.08460936 0.033524837 -0.07484679 -0.011950395 0.09413832
-0.08900688 -0.057409085 0.08685893 -0.022345634 -0.04718483 -0.011669893 0.07254808 -0.026414797
0.0627494 -0.0007474897 -0.011716183 0.09637671 -0.015909307 0.023871308 -0.06258082 -0.022045493
-0.040708892 -0.038667616 -0.09818181 0.048854757 0.031712346 -0.036810517 -0.013540815 -0.07861507
-0.0124534005 -0.03663452 0.021532835 0.075593665 -0.095928065 -0.08048622 0.087300494 0.032052815
-0.0042082514 -0.06528797 -0.052105945 0.05635439 0.009360405 -0.082555994 -0.028419292 -0.057232995
0.0766722 0.101872414 0.07362679 0.0037836237 -0.00062626647 0.020281421 -0.08850125 -0.012151808
0.03695784 0.07948688 0.07905416 -0.047897905 -0.012240009 -0.0910039 -0.046883065 0.016687319
0.02030688 0.008197531 0.03034402 -0.0280714 0.057460345 -0.048311632 0.06714714 -0.049145684
-0.07752592 0.0024320588 0.010351494 0.08789265 -0.05309078 0.016680244 0.04203819 -0.0873892
0.023972768 0.04470963 -0.0067011216 0.032039557 0.07781082 -0.022576492 0.054938093 -0.07258632
-0.018961214 -0.020300025 0.06419075 -0.030645108 -0.057961002 0.055316165 -0.055697028 0.013175049
0.07232169 -0.059346627 0.091651686 0.0021415225 -0.02590372 -0.070239484 0.04955219 -0.031026129
00000000: 8755 22bd 84e2 d13c a26b 8bbd 25f2 b2bd
00000010: ec3b 83bc 18fe 3d3d 7f75 bc3c fa1d 1dbc
00000020: 3d81 7d3d e23f b5bd ceef 9ebd 7a40 9b3d
00000030: 43bf e4bc d0a6 b0bb 366b d6bc e538 d13d
00000040: 8757 ac3d 3d9a 8d3d 58b7 37ba 396f 233d
00000050: be2c 1e3d 401f afbd 2ad3 be3d 2f0e 373d
00000060: 23d8 adbd d75f 56bd 4db4 9d3d ac47 ad3d
00000070: 5751 093d 4649 99bd 97cb 43bc 97cb c03d
00000080: 3d49 b6bd ca25 6bbd 18e3 b13d 310e b7bc
00000090: e144 41bd 1433 3fbc 1694 943d d863 d8bc
000000a0: c282 803d 2ff3 43ba 3cf5 3fbc 2761 c53d
000000b0: 3c54 82bc c38d c33c 5f2a 80bd c098 b4bc
000000c0: 5ebe 26bd ef61 1ebd 8b13 c9bd ed1b 483d
000000d0: cee4 013d a0c6 16bd 4bda 5dbc f000 a1bd
000000e0: 5909 4cbc 140e 16bd a165 b03c dad0 9a3d
000000f0: ef75 c4bd f6d5 a4bd 9aca b23d d049 033d
00000100: 5fe5 89bb b3b5 85bd 0b6d 55bd dcd3 663d
00000110: 625c 193c 1e13 a9bd 93cf e8bc 256d 6abd
00000120: 5006 9d3d 7ca2 d03d a4c9 963d acf6 773b
00000130: 082c 24ba 3925 a63c 2540 b5bd 6018 47bc
00000140: 1b61 173d 04ca a23d 26e7 a13d 9830 44bd
00000150: 528a 48bc 4160 babd 7508 40bd d8b3 883c
00000160: 9d5a a63c f04e 063c 0694 f83c fef5 e5bc
00000170: 8a5b 6b3d 6be2 45bd 7184 893d fc4c 49bd
00000180: e9c5 9ebd 2d63 1f3b 5099 293c 1001 b43d
00000190: b875 59bd 02a5 883c 3d30 2c3d 1cf9 b2bd
000001a0: 8a62 c43c 7221 373d 1595 dbbb e93b 033d
000001b0: 475b 9f3d 56f2 b8bc c406 613d 23a8 94bd
000001c0: 8c54 9bbc 3d4c a6bc 7176 833d 730b fbbc
000001d0: 8468 6dbd 3493 623d 9122 64bd 29dc 573c
000001e0: 651d 943d 7315 73bd e1b3 bb3d c958 0c3b
000001f0: 0a34 d4bc b8d9 8fbd 3df7 4a3d 822a febc

rnn_hms.0.rnn.bias_hh_l0_reverse f4 [128]
-0.089429945 0.007057327 -0.032578968 0.066405326 -0.055503532 0.072472304 -0.08356285 0.049958643
-0.043623924 0.09545475 -0.04766763 0.031911146 0.08582654 0.026017653 -0.036032185 0.05490972
0.07283223 0.05982831 -0.08316837 0.08727296 -0.03494297 0.04368568 -0.015403665 -0.042352088
-0.092278786 -0.044590365 0.06341927 0.072422475 -0.05069504 -0.033565506 -0.04828216 0.033162776
0.03985766 0.037463237 -0.03579932 0.054122146 0.037863635 0.07073696 -0.008364486 -0.054033544
0.016542265 0.07483022 0.015751187 -0.0063219103 -0.056525744 -0.038051456 0.017024064 0.07549336
0.01590092 0.033238392 0.08958837 -0.049596477 0.0125222355 0.020206148 0.04307703 -0.029299494
-0.05511769 -0.029139731 -0.06966181 -0.083275296 0.03826811 -0.022632793 0.05909127 -0.0028454163
0.015679114 0.06828482 0.0499777 0.08175476 0.100645475 0.056879114 0.1014466 -0.025644604
0.076187186 -0.049184363 0.037198808 0.038916945 0.018905913 0.044808175 -0.028218713 0.041136302
0.02790951 0.017625108 -0.058887765 -0.046149787 0.099623695 -0.022433074 -0.028243233 -0.06567295
-0.027741557 0.045128047 -0.002030705 0.05661364 0.033944868 -0.0016848617 -0.07166713 0.05349418
0.020723512 0.011479806 -0.07443693 0.0068154065 0.06302961 0.067813925 -0.0916444 0.028334098
-0.0028819505 -0.011894291 0.015121844 0.05199469 0.067599565 0.028039094 0.08631518 0.037291367
0.023366978 0.011493094 0.036020067 0.047395825 -0.027973093 0.03338721 -0.09491752 0.09833747
0.007549339 -0.06834345 0.03318175 0.020857574 0.03426962 0.016868161 -0.0727268 0.026145373
00000000: 0c27 b7bd 2641 e73b 8671 05bd 84ff 873d
00000010: ac57 63bd 5c6c 943d 0023 abbd 6fa1 4c3d
00000020: 00af 32bd c87d c33d 223f 43bd 43b5 023d
00000030: d3c5 af3d f922 d53c 7c96 13bd 04e9 603d
00000040: 1029 953d 880e 753d 2e54 aabd 2abc b23d
00000050: 5c20 0fbd c1ef 323d a75f 7cbc 6279 2dbd
00000060: a9fc bcbd 63a4 36bd f6e1 813d 3c52 943d
00000070: 9aa5 4fbd fc7b 09bd 84c3 45bd b1d5 073d
00000080: c941 233d 0d73 193d 4fa2 12bd 2faf 5d3d
00000090: e616 1b3d 8ade 903d 320b 09bc 4752 5dbd
000000a0: a583 873c 9640 993d a208 813c 0728 cfbb
000000b0: 8a87 67bd d8db 1bbd 0d76 8b3c 439c 9a3d
000000c0: a542 823c fb24 083d 1b7a b73d ad25 4bbd
000000d0: 102a 4d3c 5d87 a53c 8a71 303d 7e05 f0bc
000000e0: 16c3 61bd 72b6 eebc daaa 8ebd 3d8c aabd
000000f0: 06bf 1c3d 6868 b9bc b009 723d 2a7a 3abb
00000100: 7c71 803c e9d8 8b3d 6bb5 4c3d 0a6f a73d
00000110: 371f ce3d 13fa 683d 3cc3 cf3d a214 d2bc
00000120: 0708 9c3d 8b75 49bd c75d 183d 6067 1f3d
00000130: 93e0 9a3c c788 373d ee2a e7bc 8a7e 283d
00000140: 7ca2 e43c 8862 903c 4c34 71bd 8f07 3dbd
00000150: 8207 cc3d 91c5 b7bc 5a5e e7bc 8a7f 86bd
00000160: 4342 e3bc 30d8 383d 9415 05bb b4e3 673d
00000170: c609 0b3d 94d6 dcba 37c6 92bd b71c 5b3d
00000180: 5bc4 a93c cc15 3c3c 6472 98bd c653 df3b
00000190: ab15 813d 07e2 8a3d 0fb0 bbbd e91c e83c
000001a0: 1bdf 3cbb 46e0 42bc 9cc1 773c 62f8 543d
000001b0: a471 8a3d 3eb2 e53c 03c6 b03d d5be 183d
000001c0: 1b6c bf3c 884d 3c3c c789 133d 2022 423d
000001d0: d427 e5bc 07c1 083d 1e64 c2bd 2865 c93d
000001e0: 7260 f73b a7f7 8bbd 96e9 073d 81dd aa3c
000001f0: 4d5e 0c3d 192f 8a3c caf1 94bd d22e d63c

rnn_hms.0.bin_attention.bin_context_vector f4 [64, 1]
0.07758072 -0.010087767 -0.02513579 -0.026741663 -0.018725798 -0.015845738 -0.08563454 0.07917409
-0.057577383 0.08936103 -0.041804906 -0.021256976 -0.076876625 -0.09159559 0.034928627 0.061928555
0.04549261 -0.048715707 -0.016416835 -0.062424757 -0.0032652062 0.03718721 -0.0057131294 0.03972541
0.03043479 -0.045849644 0.09473824 0.08320067 -0.033113293 0.07223154 -0.028183075 -0.044427775
0.047622155 0.027893193 -0.02342724 0.008222738 -0.018249376 -0.0421631 0.0024338937 -0.059902772
0.021332473 -0.071595535 0.081502974 0.0062058065 -0.052223567 -0.04994651 0.05218519 0.022001011
0.07511677 -0.0714341 0.08721803 0.0569835 0.021233356 -0.016065573 -0.04663635 -0.017101124
0.007664927 0.061564192 0.034083508 -0.029407883 0.06704886 0.06289615 -0.058028035 -0.003867526
00000000: a4e2 9e3d 2947 25bc 93e9 cdbc 5511 dbbc
00000010: d866 99bc ecce 81bc 2961 afbd 0626 a23d
00000020: 43d6 6bbd ea02 b73d 9f3b 2bbd 1c23 aebc
00000030: 7e71 9dbd 7896 bbbd 5211 0f3d cca8 7d3d
00000040: 7656 3a3d 1f8a 47bd 997c 86bc 1ab1 7fbd
00000050: 12fd 55bb 9e51 183d 3435 bbbb 1db7 223d
00000060: 6152 f93c d6cc 3bbd 1f06 c23d 1d65 aa3d
00000070: cea1 07bd 21ee 933d 31e0 e6bc e6f9 35bd
00000080: 730f 433d 4480 e43c 7cea bfbc aab8 063c
00000090: b77f 95bc 37b3 2cbd f681 1f3b 9c5c 75bd
000000a0: 70c1 ae3c aea0 92bd 08eb a63d 145a cb3b
000000b0: 61e8 55bd b694 4cbd 23c0 553d 773b b43c
000000c0: d2d6 993d 0b4c 92bd 5e9f b23d 8867 693d
000000d0: 93f1 ad3c f39b 83bc c205 3fbd a817 8cbc
000000e0: 112a fb3b bc2a 7c3d 269b 0b3d cde8 f0bc
000000f0: ea50 893d b2cf 803d ceae 6dbd 5276 7dbb

rnn_hms.1.rnn.weight_ih_l0 f4 [128, 1]
-0.081644356 -0.041860543 0.012737398 -0.0052114157 0.05596089 -0.090613365 -0.06204246 0.077192344
0.059726756 0.042772777 0.00908169 -0.08214578 -0.0056697237 -0.01688306 -0.03656836 -0.0033933946
0.094091415 0.060593106 -0.069136195 -0.09393403 -0.09687596 0.04867879 0.08059766 -0.078091346
0.066298455 -0.053338822 -0.07285817 0.041169092 0.05309719 -0.03963029 -0.084891476 -0.034282573
0.09305933 -0.076507986 -0.011100457 -0.081880495 0.054868687 -0.06907362 0.06889888 0.01784487
-0.05217325 0.101760246 0.036041003 0.032170486 0.0353841 0.031091392 -0.09544042 -0.057290506
-0.04392684 -0.02871414 -0.07919604 -0.06709955 0.10195338 -0.059328485 -0.010139867 0.07658088
0.04958843 -0.077487566 -0.088285506 -0.004234875 0.09763144 0.08910884 0.07214993 -0.04652033
0.0070007253 0.03461361 0.03264688 -0.041875657 0.03021253 -0.0052636145 -0.09234334 -0.03658242
-0.07463874 -0.08532403 0.01918078 -0.029498871 -0.042694546 0.07091955 -0.01904452 0.061882086
0.06692804 0.047877267 0.06469993 0.021494182 -0.040461287 -0.08531524 -0.010203289 -0.030284645
-0.083055735 0.017337611 -0.08285085 0.019746428 -0.093556546 -0.014283089 -0.069526315 -0.059566204
-0.0038454249 0.021866929 0.06868902 -0.09816397 0.03164967 -0.009428725 0.09795231 -0.075221136
-0.028611263 -0.0613744 0.007951706 0.07676269 0.05621594 -0.0926476 -0.0020061333 0.0067400862
0.031796213 0.021456042 0.0152354725 -0.05099789 -0.045694724 0.07045918 -0.08224377 0.083357714
-0.07820874 0.068040036 -0.0153963305 0.0018711599 -0.027023597 0.09895794 0.08532159 0.014069152
00000000: 2835 a7bd f675 2bbd 85b0 503c 86c4 aabb
00000010: 3f37 653d 8093 b9bd 3c20 7ebd 0517 9e3d
00000020: 0ba4 743d 8232 2f3d 5ecb 143c 0c3c a8bd
00000030: 17c9 b9bb 584e 8abc b4c8 15bd b763 5ebb
00000040: 00b3 c03d 7a30 783d 4797 8dbd 7c60 c0bd
00000050: e766 c6bd 6963 473d 6310 a53d 5bee 9fbd
00000060: 7cc7 873d cf79 5abd aa36 95bd eca0 283d
00000070: 707c 593d 5f53 22bd 95db adbd e26b 0cbd
00000080: e495 be3d 38b0 9cbd b1de 35bc f6b0 a7bd
00000090: fdbd 603d 7876 8dbd db1a 8d3d 682f 923c
000000a0: 9eb3 55bd ad67 d03d bb9f 133d 33c5 033d
000000b0: ebee 103d 60b3 fe3c 4476 c3bd 73a9 6abd
000000c0: a1ec 33bd eb39 ebbc 8931 a2bd 7d6b 89bd
000000d0: efcc d03d 6d02 73bd af21 26bc 70d6 9c3d
000000e0: 3d1d 4b3d cdb1 9ebd 08cf b4bd b5c4 8abb
000000f0: fef2 c73d b27e b63d 58c3 933d 1a8c 3ebd
00000100: 5766 e53b 00c7 0d3d bcb8 053d cf85 2bbd
00000110: 4580 f73c 667a acbb 811e bdbd 73d7 15bd
00000120: 32dc 98bd 5dbe aebd 0321 9d3c 9ea7 f1bc
00000130: 7ae0 2ebd 453e 913d 4103 9cbc 1278 7d3d
00000140: 9111 893d f41a 443d 6681 843d 9114 b03c
00000150: bcba 25bd c2b9 aebd b22b 27bc 8117 f8bc
00000160: 2019 aabd 9b07 8e3c b5ad a9bd 43c3 a13c
00000170: 939a bfbd 9e03 6abc d063 8ebd b1fb 73bd
00000180: 8603 7cbb 4622 b33c d4ac 8c3d 310a c9bd
00000190: 16a3 013d f07a 1abc 399b c83d 8a0d 9abd
000001a0: 2b62 eabc b963 7bbd df47 023c c235 9d3d
000001b0: af42 663d 06be bdbd 5579 03bb f1db dc3b
000001c0: bf3c 023d 95c4 af3c 349e 793c 2ae3 50bd
000001d0: 642a 3bbd e74c 903d 6c6f a8bd 73b7 aa3d
000001e0: e72b a0bd 9358 8b3d e440 7cbc b541 f53a
000001f0: 9760 ddbc 76aa ca3d 16bd ae3d 4d82 663c

rnn_hms.1.rnn.weight_hh_l0 f4 [128, 32]
-0.076063305 0.059777014 -0.075978294 0.011176663 0.01903642 0.0009081787 0.0811932 -0.011250367
-0.03833159 0.032739785 0.07618457 -0.02285104 -0.03881443 0.040746592 0.025852662 0.060666457
-0.067257844 0.09612033 -0.0035449648 0.014042111 0.012527059 -0.0327393 0.08529762 0.009565
-0.040179517 -0.00690048 -0.08157775 0.050895438 0.06395563 -0.06347868 -0.026113404 -0.090673424
-0.082972035 0.050076414 0.09434317 -0.09043477 0.05024575 -0.0234299 0.0944319 0.044494774
0.061967947 0.044725664 0.02250047 0.041430872 0.007222376 -0.0915107 -0.007656175 -0.005968729
0.007408346 0.059397392 0.066085905 -0.10012392 0.05731908 0.026187042 0.03162788 -0.093646675
0.04955674 0.034266405 0.04782805 0.042589437 -0.054904666 -0.0740795 -0.042408865 -0.0012446032
-0.007981003 -0.019074375 -0.09611082 -0.07528004 0.024869615 -0.063567586 0.07855288 -0.06912079
0.0474127 -0.05589311 -0.060549702 0.033132464 -0.039890032 0.08347827 -0.005556548 0.08503986
-0.0695431 0.024766643 0.029943688 0.036862325 0.09473958 -0.051007897 -0.09169473 0.05870203
-0.05318931 0.058473438 -0.091276094 0.025917182 0.056066815 -0.096454 -0.09015593 -0.01629229
-0.048683207 -0.04056393 0.008697371 0.0946904 -0.0033694399 -0.052225083 0.006753116 0.07481659
0.009921717 -0.06666099 0.072143115 0.08039715 0.03503937 0.08056657 -0.0067944108 -0.03621856
0.046385642 -0.0373603 -0.06843242 -0.047819614 -0.06472563 0.041503027 -0.0075730486 -0.010008466
-0.0700404 -0.034623753 0.018853713 0.08647142 0.005297837 0.02252607 -0.092958525 -0.033144318
0.0220676 -0.066872835 -0.010862149 0.038596567 0.055412672 -0.016382203 -0.032240506 -0.05158282
0.06522933 0.09462396 0.064410225 0.01810578 -0.06376107 0.09538588 -0.053689286 0.07396872
-0.0040554325 0.015540724 0.026966007 0.02435905 0.03012907 -0.016752705 -0.05096368 0.029258132
0.06777883 -0.034111474 0.070556246 -0.08822139 -0.10032091 0.05051627 -0.088428386 -0.037425034
0.046079226 -0.018791443 0.040284146 -0.036667634 0.02763025 0.024745446 0.04591234 0.037676185
-0.08121846 0.057727106 -0.056637615 0.06756403 -0.039767932 0.025485832 -0.010927664 0.045182828
-0.09150611 0.08512983 0.012826072 0.08983147 0.06975461 0.03710618 -0.09324787 -0.041908193
-0.036354158 0.06369161 0.0018713576 -0.014256971 -0.097481646 -0.061571196 -0.09271125 -0.06937961
-0.07409592 0.08661927 -0.016116107 0.00223447 0.06731906 0.07571286 0.07188828 0.09422115
-0.011224778 0.024983687 -0.026708234 -0.00020840486 -0.044456128 -0.05643547 0.07086201 -0.039448757
-0.017059317 0.00095104595 0.09304175 0.015123972 0.039263688 -0.0713152 0.05737023 0.042011563
0.05669467 -0.028979875 0.014402888 0.078549564 -0.03801417 0.05404119 0.08980902 -0.052732054
-0.07243375 -0.088600755 -0.052367825 0.022323178 -0.06716402 0.015446104 -0.011451844 -0.09551386
-0.0108421 0.08508113 0.0214953 -0.09881471 0.018936295 0.08027091 -0.046755116 0.008984645
-0.063000895 -0.06138872 -0.061321247 -0.0060078246 0.0266197 0.044995237 -0.018765189 -0.09484814
-0.0065729325 -0.025499264 -0.098463394 0.07199202 -0.054238018 -0.029130919 -0.07674061 -0.058889017
00000000: 14c7 9bbd bed8 743d 829a 9bbd 531e 373c
00000010: 44f2 9b3c d712 6e3a 9f48 a63d 7653 38bc
00000020: 9601 1dbd 271a 063d a806 9c3d 1b32 bbbc
00000030: e1fb 1ebd e6e5 263d f6c8 d33c 647d 783d
00000040: 7bbe 89bd bcda c43d a452 68bb e210 663c
00000050: 4b3e 4d3c a519 06bd 85b0 ae3d 85b6 1c3c
00000060: 4793 24bd 6c1d e2bb 3c12 a7bd bc77 503d
00000070: 2bfb 823d 1c01 82bd c7eb d5bc fdb2 b9bd
00000080: 3eed a9bd ed1c 4d3d fe36 c13d dd35 b9bd
00000090: 7dce 4d3d 10f0 bfbc 8365 c13d 2740 363d
000000a0: 1ad2 7d3d 4232 373d e852 b83c 6bb3 293d
000000b0: aea9 ec3b f669 bbbd a7e0 fabb 5495 c3bb
000000c0: b6c1 f23b ae4a 733d 0c58 873d c50d cdbd
000000d0: 69c7 6a3d 3586 d63c 3c8c 013d d4c9 bfbd
000000e0: 02fc 4a3d ee5a 0c3d 58e7 433d 4372 2e3d
000000f0: b7e3 60bd feb6 97bd ebb4 2dbd f421 a3ba
00000100: c1c2 02bc dd41 9cbc c0d5 c4bd 6c2c 9abd
00000110: 5dbb cb3c b92f 82bd 55e0 a03d 338f 8dbd
00000120: d233 423d 2cf0 64bd f702 78bd e8b5 073d
00000130: bb63 23bd a8f6 aa3d b413 b6bb 6129 ae3d
00000140: 9d6c 8ebd 6ae3 ca3c 774c f53c f3fc 163d
00000150: d306 c23d a8ed 50bd 72ca bbbd 8a71 703d
00000160: 09dd 59bd d881 6f3d f6ee babd 4550 d43c
00000170: 51a6 653d ad89 c5bd aca3 b8bd 6977 85bc
00000180: 0b68 47bd 5d26 26bd 6b7f 0e3c 0aed c13d
00000190: d2d1 5cbb f8e9 55bd 3e49 dd3b 7139 993d
000001a0: b38e 223c 8f85 88bd c5bf 933d 43a7 a43d
000001b0: 7185 0f3d 1600 a53d a6a3 debb ea59 14bd
000001c0: dffe 3d3d 1d07 19bd 4c26 8cbd 80de 43bd
000001d0: df8e 84bd 14ff 293d 5627 f8bb 8dfa 23bc
000001e0: 5771 8fbd a3d1 0dbd 1a73 9a3c ee17 b13d
000001f0: 7a99 ad3b 9888 b83c 0a61 bebd 56c2 07bd
00000200: 1dc7 b43c a0f4 88bd 28f7 31bc 6f17 1e3d
00000210: 66f8 623d f833 86bc 9f0e 04bd 8248 53bd
00000220: f496 853d 35ca c13d 82e9 833d 9352 943c
00000230: 2a95 82bd ac59 c33d 4ce9 5bbd ea7c 973d
00000240: 6fe3 84bb 859e 7e3c d1e7 dc3c a18c c73c
00000250: 3dd1 f63c f83c 89bc 4bbf 50bd c0ae ef3c
00000260: a1cf 8a3d 79b8 0bbd cb7f 903d 6bad b4bd
00000270: 0d75 cdbd 26ea 4e3d f119 b5bd fe4a 19bd
00000280: 92bd 3c3d 83f0 99bc fd00 253d cd30 16bd
00000290: d658 e23c f6b6 ca3c 940e 3c3d 5852 1a3d
000002a0: dd55 a6bd 4273 6c3d d8fc 67bd 035f 8a3d
000002b0: b3e3 22bd aac7 d03c f209 33bc a111 393d
000002c0: 8e67 bbbd 8c58 ae3d 7224 523c 90f9 b73d
000002d0: 81db 8e3d a6fc 173d bdf8 bebd eda7 2bbd
000002e0: 19e8 14bd bf70 823d 5748 f53a 1296 69bc
000002f0: 75a4 c7bd 1432 7cbd 65df bdbd e616 8ebd
00000300: 9abf 97bd 7265 b13d ed05 84bc 3070 123b
00000310: 93de 893d 580f 9b3d 2a3a 933d 05f7 c03d
00000320: 22e8 37bc 97aa cc3c 3acb dabc 4187 5ab9
00000330: a117 36bd e128 67bd 1a20 913d 0595 21bd
00000340: fbbf 8bbc 9d4f 793a ac8c be3d 89ca 773c
00000350: f6d2 203d b40d 92bd 0cfd 6a3d 5114 2c3d
00000360: ac38 683d 3467 edbc 17fa 6b3c 98de a03d
00000370: bfb4 1bbd 4b5a 5d3d cbed b73d 91fd 57bd
00000380: 2558 94bd 5074 b5bd a57f 56bd 19df b63c
00000390: 4a8d 89bd a811 7d3c 84a0 3bbc c59c c3bd
000003a0: 10a3 31bc 043f ae3d e916 b03c 5e5f cabd
000003b0: 4a20 9b3c 1365 a43d 4b82 3fbd 5534 133c
000003c0: 9d06 81bd bd72 7bbd fd2b 7bbd 49dd c4bb
000003d0: 8f11 da3c ed4c 383d 74b9 99bc be3f c2bd
000003e0: c161 d7bb d5e3 d0bc 2da7 c9bd 8d70 933d
000003f0: af28 5ebd f7a3 eebc 2e2a 9dbd 9c35 71bd

rnn_hms.1.rnn.bias_ih_l0 f4 [128]
0.009269495 -0.08502038 0.0710485 -0.06557471 -0.0045882207 -0.025682336 -0.021743702 0.034641232
0.09041109 0.0955063 0.091162995 -0.07676276 0.09048421 0.08697609 0.09596331 -0.07219638
-0.09029335 -0.02501362 0.07400826 0.0115850745 0.07246438 0.05556724 0.048538726 0.09264974
-0.0016341807 0.047914263 0.05634074 0.08317103 0.021879338 0.070762776 0.08872006 0.051285673
-0.02548733 0.0623405 -0.032358013 0.08959148 0.0012744067 0.036918197 -0.026899712 0.07520687
0.08360454 0.0354749 -0.07095551 0.07626958 0.017797815 -0.041275684 -0.031536516 0.0024267635
-0.028428202 0.054055512 -0.03312819 -0.07141081 -0.09194736 0.037603706 -0.03252536 -0.1006267
0.075656235 -0.067703836 0.016101614 -0.05494544 -0.035772804 0.099114455 0.07555594 -0.040834576
-0.093396485 -0.079286076 0.101343 -0.03137216 -0.014623471 -0.01216775 -0.06306891 0.06624313
0.009121169 0.065711625 0.05461173 0.035919648 0.032236043 -0.0066692038 -0.08440517 0.08552774
0.06726601 -0.087007314 0.075603575 -0.008609387 -0.063332 0.020786433 0.041974597 0.09854184
-0.030117214 0.06799197 -0.07009646 -0.039340407 0.075587444 0.05710512 0.017627025 -0.097288184
-0.07580547 0.0061287517 0.0072275735 -0.09934062 0.037691433 -0.086335465 0.016685456 -0.010427055
0.070395604 0.055701014 0.055558812 -0.06863683 -0.069309056 -0.09137763 -0.076138 -0.01782203
-0.0305598 -0.025987454 -0.07699963 -0.04195731 0.07169588 -0.004389253 -0.052706763 0.014024906
0.04693574 0.08365086 0.084507026 -0.08461846 -0.016054144 -0.040617924 0.0045979004 0.008723175
00000000: 14df 173c 2a1f aebd e081 913d 094c 86bd
00000010: c958 96bb c363 d2bc d91f b2bc f7e3 0d3d
00000020: 7329 b93d cf98 c33d aab3 ba3d cb35 9dbd
00000030: c94f b93d 8520 b23d 6988 c43d b2db 93bd
00000040: b8eb b8bd 5de9 ccbc a591 973d 53cf 3d3c
00000050: 3468 943d 799a 633d 8bd0 463d 26bf bd3d
00000060: 0132 d6ba bf41 443d 8cc5 663d 9355 aa3d
00000070: 4c3c b33c 13ec 903d ddb2 b53d ed10 523d
00000080: ceca d0bc c158 7f3d d689 04bd bd7b b73d
00000090: fe09 a73a 8937 173d c95c dcbc 0f06 9a3d
000000a0: db38 ab3d 214e 113d 1f51 91bd 3a33 9c3d
000000b0: b9cc 913c b110 29bd 6f2c 01bd 560a 1f3b
000000c0: 43e2 e8bc 5069 5d3d 6db1 07bd d53f 92bd
000000d0: e64e bcbd 5806 1a3d 5039 05bd 5f15 cebd
000000e0: a8f1 9a3d 4fa8 8abd 88e7 833c 780e 61bd
000000f0: 8186 12bd 85fc ca3d 13bd 9a3d 2842 27bd
00000100: a846 bfbd bd60 a2bd eb8c cf3d 1880 00bd
00000110: 4897 6fbc 3e5b 47bc 462a 81bd 7aaa 873d
00000120: f570 153c d193 863d 8db0 5f3d 7b20 133d
00000130: f109 043d 5689 dabb 9edc acbd 2b29 af3d
00000140: c3c2 893d e430 b2bd 0cd6 9a3d 630e 0dbc
00000150: 35b4 81bd 4f48 aa3c 8eed 2b3d 4ed0 c93d
00000160: 60b8 f6bc 603f 8b3d bc8e 8fbd 6823 21bd
00000170: 97cd 9a3d 0fe7 693d 8d66 903c 073f c7bd
00000180: e63f 9bbd b2d3 c83b 48d5 ec3b 1873 cbbd
00000190: 5562 1a3d a6d0 b0bd f0af 883c 3dd6 2abc
000001a0: 922b 903d bf26 643d a391 633d 7791 8cbd
000001b0: e8f1 8dbd 3224 bbbd 3dee 9bbd 81ff 91bc
000001c0: 8c58 fabc a4e3 d4bc fbb1 9dbd 6edb 2bbd
000001d0: 4ad5 923d b9d3 8fbb 0ce3 57bd b8c8 653c
000001e0: b13f 403d 2451 ab3d 0512 ad3d 714c adbd
000001f0: fb83 83bc fb5e 26bd fca9 963b a6eb 0e3c

rnn_hms.1.rnn.bias_hh_l0 f4 [128]
-0.02570662 0.0062154206 -0.050891537 0.00054721674 -0.041501317 -0.058756918 -0.07402965 -0.064352214
-0.0029432953 -0.09661816 0.05834404 -0.09080656 -0.07577152 0.041164692 -0.034878224 0.02976278
-0.08989607 -0.046203073 0.028510762 -0.07976276 -0.030821621 -0.051552083 0.032692734 0.010586797
-0.060913693 -0.092198335 -0.03916618 0.016118761 0.04806055 0.0029469898 -0.0037574412 0.03955493
-0.0018857016 -0.0920158 0.013598393 0.003830817 0.013297498 -0.092702165 -0.06947852 -0.0016785007
0.022597603 -0.08720219 -0.03137031 -0.007899064 0.06522871 -0.016416805 -0.037791155 0.060643353
-0.048498705 0.06948062 -0.08834936 0.023798227 0.020125229 0.07831744 -0.014019038 -0.0042325202
-0.07778891 -0.07171291 -0.046665408 0.054889124 0.07296131 -0.039570335 -0.016432429 -0.10135208
-0.00031815583 0.02938481 -0.038508456 -0.09117946 -0.02120062 0.076583244 0.03274594 -0.04835338
0.09550795 -0.08380789 0.06930462 0.04599461 0.03812562 0.062374104 -0.011593669 0.046940666
0.052593105 -0.01010838 -0.07205908 -0.033902016 0.08148637 0.027639119 -0.102268845 -0.06395243
0.06650774 -0.06126767 0.011940253 -0.02418107 0.030120444 0.023117922 0.04308678 0.05881583
-0.032106854 -0.019118786 0.0364102 0.04634703 -0.026629804 0.0904545 0.031498488 0.05954703
0.021687066 -0.021543596 -0.05858314 -0.05645483 -0.09741483 0.003546532 0.0849573 -0.075205564
-0.1021316 0.033936955 0.017036757 0.06921457 0.05389346 0.060580585 0.03764899 0.055665374
0.0468056 0.09978701 0.02449149 -0.058627576 -0.024249507 0.09484523 0.06871994 0.042388573
00000000: b196 d2bc baaa cb3b a573 50bd 1873 0f3a
00000010: 49fd 29bd 18ab 70bd db9c 97bd 18cb 83bd
00000020: 4de4 40bb bedf c5bd 29fa 6e3d caf8 b9bd
00000030: 192e 9bbd 4f9c 283d 78dc 0ebd 13d1 f33c
00000040: 6e1b b8bd 6f3f 3dbd 678f e93c a85a a3bd
00000050: a07d fcbc 4728 53bd d1e8 053d 3f74 2d3c
00000060: a380 79bd 7bd2 bcbd b76c 20bd 7e0b 843c
00000070: 24db 443d 4922 413b 673f 76bb 5a04 223d
00000080: a529 f7ba c872 bcbd cbcb 5e3c 720e 7b3b
00000090: c0dd 593c a2da bdbd c14a 8ebd 2301 dcba
000000a0: 9c1e b93c 1097 b2bd 277e 00bd 136b 01bc
000000b0: a196 853d 897c 86bc e6ca 1abd 2a65 783d
000000c0: 94a6 46bd db4b 8e3d 82f0 b4bd 80f4 c23c
000000d0: aadd a43c e564 a03d 1bb0 65bc f4b0 8abb
000000e0: cb4f 9fbd 38de 92bd 3a24 3fbd 6bd3 603d
000000f0: bd6c 953d 8114 22bd 4d9d 86bc ae91 cfbd
00000100: 27ce a6b9 6ab8 f03c 0bbb 1dbd 4cbc babd
00000110: ecac adbc add7 9c3d 9b20 063d 320e 46bd
00000120: ac99 c33d 79a3 abbd 95ef 8d3d d864 3c3d
00000130: 9c29 1c3d fd7b 7f3d 5ff3 3dbc db44 403d
00000140: de6b 573d 9e9d 25bc b693 93bd d7dc 0abd
00000150: 53e2 a63d 6f6b e23c 5472 d1bd 7ef9 82bd
00000160: 3635 883d cff3 7abd 0da1 433c 6117 c6bc
00000170: 26bf f63c cc61 bd3c c37b 303d dee8 703d
00000180: 7a82 03bd 009f 9cbc dd22 153d 62d6 3d3d
00000190: bf26 dabc 3540 b93d 8f04 013d 96e7 733d
000001a0: 13a9 b13c 327c b0bc e0f4 6fbd 2e3d 67bd
000001b0: 6d81 c7bd ef6c 683b 18fe ad3d 6005 9abd
000001c0: 5f2a d1bd 7a01 0b3d ab90 8b3c 5ec0 8d3d
000001d0: 64bf 5c3d 5923 783d d435 1a3d 6001 643d
000001e0: 3bb7 3f3d 225d cc3d 61a2 c83c 7823 70bd
000001f0: e7a6 c6bc 373e c23d 0abd 8c3d a49f 2d3d
